s2s/src/main/python/checkpoints/epoch=9-step=3650-v1.ckpt (torch, 282847 bytes, 143 tensors)

model.model.tcn.0.conv1.weight f4 [16, 219, 3]
-0.003289148 -0.0035675487 0.0031321773 0.0021931357 -0.019652495 0.006470016 -0.0065986603 -0.022662131
0.0122565515 0.008547961 -0.009331648 0.0005750126 3.3838165e-05 0.0075130886 0.0019148753 -0.007416758
0.008668467 0.002554038 0.005059377 0.023976035 -0.020171605 0.0054255584 0.009592588 -0.0079258755
0.0021324006 -0.0025389886 -0.0011258549 -0.010347743 0.008072972 0.004136037 0.017035492 -0.0004954698
0.02093162 -0.014754617 -0.0025779195 0.0003438484 -0.000575936 -0.010818896 -0.007039665 0.0005458768
0.0024809302 0.020634454 -0.00050453644 -0.0032489996 -0.0033782022 0.015278229 -0.0049954383 -0.0010826768
0.025095124 -0.011626163 0.006855363 -0.010915811 0.00022196896 -0.006668632 -0.0047511836 0.012720444
-0.0030785897 -0.009256843 -0.013171338 0.009270777 0.014907362 -0.009334785 -0.012237292 0.009853239
0.019272067 0.0070325653 0.013043676 0.0072130896 -0.004963873 0.0025202532 0.006149236 -0.0047485307
0.008653164 -0.001669371 0.01262259 0.0032218948 -0.00539619 0.002077528 -0.0082950825 0.012328143
0.008647521 0.0052433796 0.00023935536 0.00932342 0.005532609 0.0014806953 0.022839423 -0.0039845947
0.0042570503 0.009629973 -0.007918848 -0.0013506669 -0.0060772616 -0.0061400416 0.0041649006 -0.008743384
0.02457831 -0.00725288 -0.0033456597 0.015477518 -0.0017074395 0.023828052 0.002513296 -0.015034102
0.010690578 -0.0042049973 -0.0047324933 -0.0057366835 0.0021138717 0.011626246 -0.011011073 -0.002561217
0.00526749 -0.006934742 -0.009662246 -0.004046729 0.010141468 -0.0012293175 0.0016177613 0.0077945595
-0.019069362 0.014630744 -0.000535573 -0.0068494338 -0.005038771 -0.0035348274 0.00013863789 -0.00766017
0.0025284947 -0.011988038 0.0046795052 0.02062856 0.004641665 -0.014966798 -0.011026377 0.003971499
0.005819364 -0.0057590376 0.008654904 0.013203803 0.0049501 -0.0100039095 -0.0012311335 0.011264397
-0.008848345 -0.0058250492 -0.0023131412 0.0042802054 0.007507802 -0.006757527 0.020047285 0.0073791062
0.0132696545 -0.013390753 -0.0023984706 0.0062128687 -0.009917469 -0.0092594875 -0.012303198 -0.013855577
0.010951642 -0.009599465 -0.0056980555 -0.00019985248 0.007946002 0.0135947 -0.006916257 0.005249901
-0.005511795 0.01191094 -0.00403049 -0.007153664 -0.0019898252 -0.010558834 0.017844409 0.021880863
-0.005276643 0.0050269985 -0.004001522 0.005387569 -0.023832416 0.0030360757 0.001649992 0.0019871248
-0.008516106 0.010017138 0.008143623 0.0034088497 -0.0056839157 0.015526366 0.0006460719 -0.013253769
0.003209823 -0.01679372 0.013782075 0.018809566 0.0065876464 0.007158239 0.007108005 -0.017357102
-0.017909342 -0.011433982 -0.007938163 -0.0028236934 -0.004949887 0.0013607444 -0.0031121015 4.1432817e-05
0.0049051396 0.009975706 -0.00941673 -0.0047795787 0.009478754 0.011746549 0.02372892 0.010676866
-0.010362174 0.016848097 0.0049010417 0.00438414 0.0009942073 0.010951522 0.02181905 0.007065883
-0.007968291 0.013025106 0.0057195695 0.019286953 -0.0013848841 0.013449386 0.006368303 -0.0053910543
0.0079768915 -0.011520375 -0.0076735322 0.0014183435 0.0056233476 -0.0016254982 -0.0046501886 0.0010581053
-0.026788702 0.011139534 0.0019693195 -0.012956447 -0.014247598 -0.005969354 0.004512656 0.014410945
0.0032200548 -0.012143039 -0.000554603 0.0074546346 0.0022215822 0.015305496 -0.0057698432 -0.0055151805
00000000: bf8e 57bb 89cd 69bb 3745 4d3b b6ba 0f3b
00000010: 45fe a0bc 6e02 d43b 9339 d8bb efa5 b9bc
00000020: b4cf 483c bf0c 0c3c c5e3 18bc 71bc 163a
00000030: 74ed 0d38 5b30 f63b 8efc fa3a 4708 f3bb
00000040: 3006 0e3c a661 273b 21c9 a53b 6469 c43c
00000050: ec3e a5bc e2c8 b13b 3b2a 1d3c 88db 01bc
00000060: bfbf 0b3b 2965 26bb 6c91 93ba 9489 29bc
00000070: 8044 043c 9887 873b 048e 8b3c 6ae2 01ba
00000080: ca78 ab3c 59bd 71bc 50f2 28bb 8d46 b439
00000090: 69fa 16ba bd41 31bc fdac e6bb 2c19 0f3a
000000a0: 1a97 223b 9609 a93c de42 04ba 2bed 54bb
000000b0: d464 5dbb 8951 7a3c c6b0 a3bb 9be8 8dba
000000c0: 4a94 cd3c a97b 3ebc f4a2 e03b 3bd8 32bc
000000d0: 57c0 6839 8a84 dabb d1af 9bbb 6969 503c
000000e0: 2ac2 49bb 03aa 17bc 98cc 57bc 75e4 173c
000000f0: 023e 743c edf0 18bc ec7e 48bc 7b6f 213c
00000100: 74e0 9d3c 6f71 e63b 24b5 553c c85b ec3b
00000110: fca7 a2bb d52a 253b 887f c93b 9099 9bbb
00000120: 00c6 0d3c ccce daba fbce 4e3c 6d26 533b
00000130: 86d2 b0bb 2327 083b 19e8 07bc fbfb 493c
00000140: 55ae 0d3c a8d0 ab3b 77fb 7a39 42c1 183c
00000150: e34a b53b e413 c23a be19 bb3c 3491 82bb
00000160: ba7e 8b3b 09c7 1d3c 0ebe 01bc dc08 b1ba
00000170: c423 c7bb 6732 c9bb b879 883b 6940 0fbc
00000180: 7458 c93c 91a9 edbb db42 5bbb 6a95 7d3c
00000190: 2acc dfba 0c33 c33c 1cb6 243b 9851 76bc
000001a0: 8927 2f3c 13ca 89bb 0813 9bbb cafa bbbb
000001b0: e288 0a3b 037c 3e3c ca67 34bc 17da 27bb
000001c0: e99a ac3b d53c e3bb 664e 1ebc 6c9a 84bb
000001d0: 6628 263c 0d21 a1ba 100b d43a 8169 ff3b
000001e0: 5a37 9cbc cab5 6f3c b265 0cba 3771 e0bb
000001f0: 461c a5bb 90a8 67bb 535f 1139 2a02 fbbb
00000200: 1ab5 253b 7a69 44bc 8956 993b 3afd a83c
00000210: 1c19 983b 4d37 75bc faa7 34bc 5923 823b
00000220: 5db0 be3b 4fb6 bcbb 4ccd 0d3c c454 583c
00000230: 7334 a23b 70e7 23bc fc5d a1ba 4e8e 383c
00000240: a6f8 10bc 0ee0 bebb 1298 17bb f740 8c3b
00000250: 0204 f63b 3f6e ddbb 343a a43c 6ecc f13b
00000260: f768 593c e464 5bbc a92f 1dbb 5295 cb3b
00000270: e17c 22bc 1bb5 17bc 5a93 49bc 8102 63bc
00000280: 846e 333c 1347 1dbc c1b6 babb 7e8f 51b9
00000290: f32f 023c 4ebc 5e3c c5a1 e2bb 5d07 ac3b
000002a0: 4a9c b4bb 1a26 433c 3312 84bb 4869 eabb
000002b0: ba67 02bb f6fe 2cbc 702e 923c 7f3f b33c
000002c0: b1e7 acbb 85b9 a43b 331f 83bb 348a b03b
000002d0: 333c c3bc e6f8 463b 8b44 d83a 6c3a 023b
000002e0: 2387 0bbc ec1e 243c d56c 053c 0267 5f3b
000002f0: 2440 babb 4d62 7e3c 275d 293a 5626 59bc
00000300: e55b 523b fc92 89bc 36ce 613c 8516 9a3c
00000310: 2fdd d73b a98f ea3b 45ea e83b 7b30 8ebc
00000320: 9db6 92bc 9955 3bbc 120f 02bc b70d 39bb
00000330: a932 a2bb 015b b23a 66f4 4bbb 26c8 2d38
00000340: 4bbb a03b 2571 233c a148 1abc 039e 9cbb
00000350: c74c 1b3c 9974 403c 2763 c23c 06ee 2e3c
00000360: 1cc6 29bc 0505 8a3c eb98 a03b d5a8 8f3b
00000370: 1050 823a 036e 333c ddbd b23c ec88 e73b
00000380: 6f8d 02bc 4167 553c 3a6b bb3b acff 9d3c
00000390: 0085 b5ba d05a 5c3c 33ad d03b 71a7 b0bb
000003a0: 82b1 023c f4bf 3cbc 4172 fbbb b6e7 b93a
000003b0: 0f44 b83b ab0e d5ba 9c60 98bb 1fb0 8a3a
000003c0: fb73 dbbc 9882 363c b30f 013b 4747 54bc
000003d0: c26e 69bc 929a c3bb e7de 933b e21b 6c3c
000003e0: 8e07 533b 99f3 46bc c762 11ba 0246 f43b
000003f0: f797 113b e7c3 7a3c f410 bdbb b0b8 b4bb

model.model.tcn.0.conv1.bias f4 [16]
-0.0068011335 -0.025586182 -0.033495393 -0.0029116815 -0.027121352 0.008304682 0.032095805 -0.030714124
-0.0214626 0.03312903 0.010752492 0.03070274 -0.03625344 -0.027117766 0.021959428 -0.03729725
00000000: 0bdc debb 1d9a d1bc 7732 09bd e9d1 3ebb
00000010: 992d debc 5c10 083c e476 033d 309c fbbc
00000020: 56d2 afbc 4eb2 073d 382b 303c 5084 fb3c
00000030: 7d7e 14bd 1426 debc 42e4 b33c 00c5 18bd

model.model.tcn.0.bn1.weight f4 [16]
0.9930428 0.9997675 1.0008923 0.9926627 1.004477 0.99975634 1.0087905 0.9925733
0.9966848 1.0056446 0.9997824 0.9995383 1.0002363 0.99662185 1.0000888 0.9961327
00000000: 0e38 7e3f c3f0 7f3f 3d1d 803f 251f 7e3f
00000010: b492 803f 08f0 7f3f 0c20 813f 4919 7e3f
00000020: bc26 7f3f f6b8 803f bdf1 7f3f bee1 7f3f
00000030: be07 803f 9c22 7f3f e902 803f 8d02 7f3f

model.model.tcn.0.bn1.bias f4 [16]
-0.003367372 0.0019177789 0.00075297034 -0.0003757755 0.004398341 0.0008993224 0.006913757 -0.0048285546
0.0007904224 0.008343927 0.007697132 0.00550117 0.005857068 -0.00026691353 0.0023521204 -0.00022755911
00000000: 21af 5cbb fb5d fb3a fc62 453a bc03 c5b9
00000010: f51f 903b 81c0 6b3a cc8c e23b da38 9ebb
00000020: 5934 4f3a f7b4 083c 3938 fc3b 2943 b43b
00000030: a6ec bf3b 87f0 8bb9 0826 1a3b ef9c 6eb9

model.model.tcn.0.bn1.running_mean f4 [16]
-0.0043306574 -0.019771576 -0.033386525 -0.0046325102 -0.032425605 0.0028038465 0.03135445 -0.032656826
-0.028230317 0.0335191 0.012513565 0.025882583 -0.035566367 -0.0303963 0.026161369 -0.032067142
00000000: 30e8 8dbb 00f8 a1bc 4fc0 08bd 50cc 97bb
00000010: b6d0 04bd bdc0 373b 866d 003d 2ac3 05bd
00000020: 4443 e7bc 534b 093d b205 4d3c b607 d43c
00000030: 0aae 11bd a901 f9bc 5e50 d63c d658 03bd

model.model.tcn.0.bn1.running_var f4 [16]
0.03914525 0.02240855 0.025491057 0.041317694 0.02643712 0.020728655 0.022909923 0.026738675
0.03232194 0.0154654365 0.054097347 0.037392393 0.015094408 0.04171265 0.04133871 0.040740248
00000000: c556 203d 2392 b73c 9fd2 d03c be3c 293d
00000010: a992 d83c 24cf a93c 97ad bb3c 110b db3c
00000020: 0364 043d be62 7d3c 2e95 5d3d c428 193d
00000030: 894e 773c e2da 2a3d c752 293d 3fdf 263d

model.model.tcn.0.conv2.weight f4 [16, 16, 3]
-0.00976062 0.0065985494 0.0032150322 0.0009525025 0.010490734 0.018944615 -0.012842735 0.002821334
0.01546434 -0.0023214596 -0.00025842045 -0.0030964673 0.0036891145 0.007086616 0.0080528315 0.0012122694
0.024970278 0.010278894 -0.00660485 0.013983119 0.0032885694 -0.003509207 -0.009829814 -0.009335637
-0.007117515 0.013849597 -0.001287148 0.0029613988 0.0004830694 0.021765219 -0.0021507023 -0.0045303465
-0.00390794 -0.02555523 0.008743638 -0.009701731 -0.0047597694 -0.0048178066 0.017150303 0.0035110707
-0.008946624 -0.011810213 -0.021739466 0.006909673 -0.011076388 0.0022540328 0.008336377 -0.0014480985
-0.012264736 -0.004808652 -0.0045596473 0.0015315688 -0.00029659923 0.009676795 0.0055573313 0.020277182
-0.007131387 0.00083914615 0.0011602776 -0.0061676884 0.027509583 0.003463567 0.010820418 0.0036673644
-0.010695785 0.01091494 0.002107925 0.013995807 0.026507763 0.009597574 0.0022746131 0.010649633
-0.0027033042 -0.016448021 0.018533103 0.00082028477 0.0046383333 0.011998544 -0.010565254 -0.003156389
0.0016557316 0.0019206619 0.007131639 -0.006152377 0.00699312 0.010897132 0.006619158 -0.0033031756
0.00017826048 -0.007893229 -0.00027455424 0.015385204 0.0075173755 -0.017173436 0.010830277 -0.013790493
0.011355563 0.0033783363 0.022127507 -0.003982459 0.0060859416 0.015968718 0.011051244 -0.006052502
0.0053793555 -0.0001019789 -0.0042792507 -0.009307508 0.015036636 0.0033859622 0.0079077 0.0017718218
0.008470564 0.0012028699 0.013098134 -0.0065177395 0.01492072 0.0067319637 -0.0016375389 0.006197147
0.013877493 0.004278341 0.021424321 0.0086024245 0.004153635 0.015895221 -0.003705257 -0.0046188016
0.015311312 -0.0007291384 0.0040755067 -0.001325488 0.01497045 0.0021966987 0.011841184 0.0043869377
-0.0040593515 -0.010181837 0.00023355709 -0.0011307611 -0.02024606 0.0031012835 0.013040606 -0.0013035799
-0.013032638 0.005925857 -0.004037223 -0.008263936 -0.008510415 -0.008303826 0.0046581235 0.025380252
0.0027322746 -0.010988922 -0.011938647 -0.0058382936 -0.005204473 0.018488491 -0.008956386 0.007339274
0.0032682994 -0.00059108774 0.0075175283 0.012662237 -0.010281372 -0.005562938 0.0086331675 -0.012777785
-0.013407292 -0.0029894647 -0.012622844 0.0007858676 0.0026684676 -0.011651864 -0.0075708977 -0.0042624776
-0.010750951 0.00029304743 0.005639012 0.0031773872 0.010076899 0.0076503605 0.014119729 0.0016836703
0.0025104375 -0.0139846075 5.7400568e-05 0.010311314 0.014119703 -0.0009240556 0.01807319 -0.011644413
-0.011546674 -3.278826e-05 -0.00997438 0.006848285 0.005762926 0.015295731 0.0025672945 -0.009788428
-0.005244218 0.0007384207 0.0086362315 -0.0031541279 0.0025722266 0.00433331 -0.006854296 -0.0032040044
0.008672412 0.008328897 -0.008196285 -0.0004794308 -0.0070890402 0.0038837888 0.001270029 -0.00094786653
0.0053556645 0.016164146 -0.006747291 -0.0003730251 -0.0077694505 -0.01235685 0.0059235636 -0.0017668242
-0.0025000637 0.003135338 0.008101218 0.014552269 0.00389157 0.015151729 0.008898909 0.0022558146
-0.0067043295 -0.012330478 0.00096164504 0.006287349 0.015194025 0.008272963 -0.0039193146 -0.0028972994
0.008901197 -0.007791232 -0.01563655 0.010786778 0.0075146975 0.009319879 0.0072972965 0.022151243
0.016337136 -0.0024926174 0.013071643 -0.0073781717 0.0012207652 0.008785619 0.013356829 -0.0050043003
00000000: 02eb 1fbc a538 d83b 4ab3 523b 5cb1 793a
00000010: 54e1 2b3c bd31 9b3c 566a 52bc 21e6 383b
00000020: 255e 7d3c a123 18bb 9b7c 87b9 1aee 4abb
00000030: 12c5 713b d836 e83b 06f0 033c 03e5 9e3a
00000040: 788e cc3c ce68 283c 7f6d d8bb 7419 653c
00000050: 0a85 573b b9fa 65bb 3a0d 21bc 80f4 18bc
00000060: 0b3a e9bb 6ce9 623c 85b5 a8ba 0714 423b
00000070: 7a44 fd39 f94c b23c ccf2 0cbb 4d73 94bb
00000080: 2d0e 80bb 3459 d1bc 7a41 0f3c 02f4 1ebc
00000090: d7f7 9bbb b1de 9dbb cb7e 8c3c fe19 663b
000000a0: dc94 12bc a07f 41bc f716 b2bc 8a6a e23b
000000b0: bd79 35bc 65b8 133b 4d95 083c 1fce bdba
000000c0: 08f2 48bc e691 9dbb 1869 95bb ecbe c83a
000000d0: e080 9bb9 6c8b 1e3c 461a b63b 551c a63c
000000e0: 69ae e9bb 25fa 5b3a 7514 983a 521a cabb
000000f0: c75b e13c 03fd 623b 1f48 313c 2a58 703b
00000100: 603d 2fbc 94d4 323c 1d25 0a3b ab4e 653c
00000110: cf26 d93c 253f 1d3c ad11 153b cc7b 2e3c
00000120: eb29 31bb 00be 86bc bcd2 973c 6108 573a
00000130: 29fd 973b 8b95 443c e319 2dbc 6cdb 4ebb
00000140: 2205 d93a b8be fb3a 86b0 e93b e199 c9bb
00000150: 8b26 e53b e289 323c 86e5 d83b 177a 58bb
00000160: 6feb 3a39 9a52 01bc 0cf2 8fb9 3912 7c3c
00000170: 5154 f63b 4eaf 8cbc 7971 313c 85f1 61bc
00000180: af0c 3a3c 1467 5d3b bf44 b53c 4a7f 82bb
00000190: 946c c73b d4d0 823c 4710 353c 1154 c6bb
000001a0: 4e45 b03b 81dd d5b8 f538 8cbb 857e 18bc
000001b0: 395c 763c 05e7 5d3b 4c8f 013c 793c e83a
000001c0: 1fc8 0a3c 9ea9 9d3a 8e99 563c c392 d5bb
000001d0: 0976 743c ce97 dc3b b0a2 d6ba 7011 cb3b
000001e0: 6d5e 633c 5331 8c3b 0f82 af3c 2ff1 0c3c
000001f0: 371b 883b b236 823c e6d3 72bb 5159 97bb
00000200: 4cdc 7a3c a623 3fba d48b 853b ffbb adba
00000210: 9e46 753c 7df6 0f3b 8701 423c 4dc0 8f3b
00000220: 4f04 85bb b8d1 26bc 01e7 7439 0c36 94ba
00000230: 11db a5bc e73e 4b3b 44a8 553c e2dc aaba
00000240: d886 55bc b12d c23b ae4a 84bb 7665 07bc
00000250: 456f 0bbc c50c 08bc 2ca3 983b 3fea cf3c
00000260: f60f 333b e10a 34bc 519a 43bc 284f bfbb
00000270: 498a aabb 2d75 973c cebd 12bc 4b7e f03b
00000280: f730 563b 3af3 1aba 9955 f63b 4575 4f3c
00000290: 3373 28bc 4e49 b6bb 2172 0d3c ea59 51bc
000002a0: 42aa 5bbc e5ea 43bb 0cd0 4ebc af02 4e3a
000002b0: 75e1 2e3b 76e7 3ebc 4b15 f8bb 41ac 8bbb
000002c0: c224 30bc 29a4 9939 76c7 b83b b63b 503b
000002d0: 9419 253c e0af fa3b 7056 673c 9aae dc3a
000002e0: 2786 243b b21f 65bc 64c1 7038 c9f0 283c
000002f0: 5456 673c 523c 72ba 3a0e 943c 35c8 3ebc
00000300: 432e 3dbc 2086 09b8 956b 23bc 9467 e03b
00000310: edd6 bc3b f29a 7a3c 0e40 283b a55f 20bc
00000320: b0d7 abbb 9392 413a fb7e 0d3c 7cb5 4ebb
00000330: cd92 283b 70fe 8d3b 019a e0bb 46fa 51bb
00000340: bb16 0e3c ed75 083c b649 06bc 1d5c fbb9
00000350: 2e4b e8bb 2a87 7e3b 1a77 a63a 3f7a 78ba
00000360: 927e af3b ac6a 843c 6118 ddbb 9592 c3b9
00000370: e096 febb 6374 4abc 741a c23b c894 e7ba
00000380: 1cd8 23bb 3e7a 4d3b f9ba 043c a46c 6e3c
00000390: b609 7f3b f53e 783c bbcc 113c 4ad6 133b
000003a0: feaf dbbb c605 4abc e816 7c3a 1b06 ce3b
000003b0: 5cf0 783c 528b 073c 986d 80bb 9ee0 3dbb
000003c0: 54d6 113c 974d ffbb 3918 80bc 07bb 303c
000003d0: da3d f63b 68b2 183c 291e ef3b 8676 b53c
000003e0: 75d5 853c 2e5b 23bb 722a 563c 97c4 f1bb
000003f0: 1502 a03a 8ff1 0f3c 9ad6 5a3c 1dfb a3bb

model.model.tcn.0.conv2.bias f4 [16]
-0.011037635 0.06737548 -0.09456008 0.049428366 0.013290494 0.0023233 0.06219964 0.0697119
0.07705556 -0.06916913 0.0917423 -0.07211462 0.10361527 -0.016894871 0.035619114 0.017171672
00000000: 32d7 34bc 28fc 893d b7a8 c1bd 6675 4a3d
00000010: 5fc0 593c 8242 183b 0dc5 7e3d 1dc5 8e3d
00000020: 4ecf 9d3d 8ba8 8dbd 63e3 bb3d d4b0 93bd
00000030: 3e34 d43d 1d67 8abc 59e5 113d 9bab 8c3c

model.model.tcn.0.bn2.weight f4 [16]
1.0251604 1.039522 1.0249758 0.99816597 1.0143125 1.0343844 1.0148307 1.029942
1.0220038 1.0249839 1.0378792 1.0318142 1.0270088 1.0394771 1.0449747 1.0376107
00000000: 7538 833f 0f0f 853f 6832 833f ce87 7f3f
00000010: fed4 813f b566 843f f9e5 813f 24d5 833f
00000020: 05d1 823f ac32 833f 3ad9 843f 7d12 843f
00000030: 0675 833f 960d 853f bbc1 853f 6dd0 843f

model.model.tcn.0.bn2.bias f4 [16]
0.031562936 0.040401384 0.030280154 0.00017133603 0.01895517 0.039290104 0.021524886 0.033239055
0.020347865 0.027476817 0.038239766 0.036280934 0.03223196 0.03817095 0.046321712 0.03972086
00000000: 2348 013d ec7b 253d 160e f83c aaa8 3339
00000010: df47 9b3c a9ee 203d f554 b03c ad25 083d
00000020: 91b0 a63c 1017 e13c 4da1 1c3d 519b 143d
00000030: a905 043d 2459 1c3d d6bb 3d3d 57b2 223d

model.model.tcn.0.bn2.running_mean f4 [16]
0.0022729868 0.11167629 -0.024826037 0.042290326 0.032362144 0.046213444 0.06805499 0.1251485
0.069526955 -0.10432405 0.16518068 -0.06464746 0.18128136 0.03551834 0.10909331 0.0724547
00000000: 64f6 143b 8ab6 e43d f95f cbbc 9f38 2d3d
00000010: 2b8e 043d 4f4a 3d3d 6a60 8b3d ee26 003e
00000020: 2664 8e3d d9a7 d5bd 2025 293e e365 84bd
00000030: d2a1 393e ae7b 113d 506c df3d 2163 943d

model.model.tcn.0.bn2.running_var f4 [16]
0.0028373855 0.0033201694 0.0044091595 0.0023025218 0.0019269933 0.0026807596 0.0025106745 0.002688321
0.002013988 0.0029216541 0.0040210234 0.0020196345 0.004774934 0.0033158641 0.003287245 0.0026491946
00000000: 6ef3 393b 3397 593b b67a 903b e8e5 163b
00000010: 2a93 fc3a afaf 2f3b 218a 243b 8b2e 303b
00000020: 1dfd 033b 3979 3f3b cac2 833b d85b 043b
00000030: 0d77 9c3b f84e 593b d26e 573b 1c9e 2d3b

model.model.tcn.0.net.0.weight f4 [16, 219, 3]
-0.003289148 -0.0035675487 0.0031321773 0.0021931357 -0.019652495 0.006470016 -0.0065986603 -0.022662131
0.0122565515 0.008547961 -0.009331648 0.0005750126 3.3838165e-05 0.0075130886 0.0019148753 -0.007416758
0.008668467 0.002554038 0.005059377 0.023976035 -0.020171605 0.0054255584 0.009592588 -0.0079258755
0.0021324006 -0.0025389886 -0.0011258549 -0.010347743 0.008072972 0.004136037 0.017035492 -0.0004954698
0.02093162 -0.014754617 -0.0025779195 0.0003438484 -0.000575936 -0.010818896 -0.007039665 0.0005458768
0.0024809302 0.020634454 -0.00050453644 -0.0032489996 -0.0033782022 0.015278229 -0.0049954383 -0.0010826768
0.025095124 -0.011626163 0.006855363 -0.010915811 0.00022196896 -0.006668632 -0.0047511836 0.012720444
-0.0030785897 -0.009256843 -0.013171338 0.009270777 0.014907362 -0.009334785 -0.012237292 0.009853239
0.019272067 0.0070325653 0.013043676 0.0072130896 -0.004963873 0.0025202532 0.006149236 -0.0047485307
0.008653164 -0.001669371 0.01262259 0.0032218948 -0.00539619 0.002077528 -0.0082950825 0.012328143
0.008647521 0.0052433796 0.00023935536 0.00932342 0.005532609 0.0014806953 0.022839423 -0.0039845947
0.0042570503 0.009629973 -0.007918848 -0.0013506669 -0.0060772616 -0.0061400416 0.0041649006 -0.008743384
0.02457831 -0.00725288 -0.0033456597 0.015477518 -0.0017074395 0.023828052 0.002513296 -0.015034102
0.010690578 -0.0042049973 -0.0047324933 -0.0057366835 0.0021138717 0.011626246 -0.011011073 -0.002561217
0.00526749 -0.006934742 -0.009662246 -0.004046729 0.010141468 -0.0012293175 0.0016177613 0.0077945595
-0.019069362 0.014630744 -0.000535573 -0.0068494338 -0.005038771 -0.0035348274 0.00013863789 -0.00766017
0.0025284947 -0.011988038 0.0046795052 0.02062856 0.004641665 -0.014966798 -0.011026377 0.003971499
0.005819364 -0.0057590376 0.008654904 0.013203803 0.0049501 -0.0100039095 -0.0012311335 0.011264397
-0.008848345 -0.0058250492 -0.0023131412 0.0042802054 0.007507802 -0.006757527 0.020047285 0.0073791062
0.0132696545 -0.013390753 -0.0023984706 0.0062128687 -0.009917469 -0.0092594875 -0.012303198 -0.013855577
0.010951642 -0.009599465 -0.0056980555 -0.00019985248 0.007946002 0.0135947 -0.006916257 0.005249901
-0.005511795 0.01191094 -0.00403049 -0.007153664 -0.0019898252 -0.010558834 0.017844409 0.021880863
-0.005276643 0.0050269985 -0.004001522 0.005387569 -0.023832416 0.0030360757 0.001649992 0.0019871248
-0.008516106 0.010017138 0.008143623 0.0034088497 -0.0056839157 0.015526366 0.0006460719 -0.013253769
0.003209823 -0.01679372 0.013782075 0.018809566 0.0065876464 0.007158239 0.007108005 -0.017357102
-0.017909342 -0.011433982 -0.007938163 -0.0028236934 -0.004949887 0.0013607444 -0.0031121015 4.1432817e-05
0.0049051396 0.009975706 -0.00941673 -0.0047795787 0.009478754 0.011746549 0.02372892 0.010676866
-0.010362174 0.016848097 0.0049010417 0.00438414 0.0009942073 0.010951522 0.02181905 0.007065883
-0.007968291 0.013025106 0.0057195695 0.019286953 -0.0013848841 0.013449386 0.006368303 -0.0053910543
0.0079768915 -0.011520375 -0.0076735322 0.0014183435 0.0056233476 -0.0016254982 -0.0046501886 0.0010581053
-0.026788702 0.011139534 0.0019693195 -0.012956447 -0.014247598 -0.005969354 0.004512656 0.014410945
0.0032200548 -0.012143039 -0.000554603 0.0074546346 0.0022215822 0.015305496 -0.0057698432 -0.0055151805
00000000: bf8e 57bb 89cd 69bb 3745 4d3b b6ba 0f3b
00000010: 45fe a0bc 6e02 d43b 9339 d8bb efa5 b9bc
00000020: b4cf 483c bf0c 0c3c c5e3 18bc 71bc 163a
00000030: 74ed 0d38 5b30 f63b 8efc fa3a 4708 f3bb
00000040: 3006 0e3c a661 273b 21c9 a53b 6469 c43c
00000050: ec3e a5bc e2c8 b13b 3b2a 1d3c 88db 01bc
00000060: bfbf 0b3b 2965 26bb 6c91 93ba 9489 29bc
00000070: 8044 043c 9887 873b 048e 8b3c 6ae2 01ba
00000080: ca78 ab3c 59bd 71bc 50f2 28bb 8d46 b439
00000090: 69fa 16ba bd41 31bc fdac e6bb 2c19 0f3a
000000a0: 1a97 223b 9609 a93c de42 04ba 2bed 54bb
000000b0: d464 5dbb 8951 7a3c c6b0 a3bb 9be8 8dba
000000c0: 4a94 cd3c a97b 3ebc f4a2 e03b 3bd8 32bc
000000d0: 57c0 6839 8a84 dabb d1af 9bbb 6969 503c
000000e0: 2ac2 49bb 03aa 17bc 98cc 57bc 75e4 173c
000000f0: 023e 743c edf0 18bc ec7e 48bc 7b6f 213c
00000100: 74e0 9d3c 6f71 e63b 24b5 553c c85b ec3b
00000110: fca7 a2bb d52a 253b 887f c93b 9099 9bbb
00000120: 00c6 0d3c ccce daba fbce 4e3c 6d26 533b
00000130: 86d2 b0bb 2327 083b 19e8 07bc fbfb 493c
00000140: 55ae 0d3c a8d0 ab3b 77fb 7a39 42c1 183c
00000150: e34a b53b e413 c23a be19 bb3c 3491 82bb
00000160: ba7e 8b3b 09c7 1d3c 0ebe 01bc dc08 b1ba
00000170: c423 c7bb 6732 c9bb b879 883b 6940 0fbc
00000180: 7458 c93c 91a9 edbb db42 5bbb 6a95 7d3c
00000190: 2acc dfba 0c33 c33c 1cb6 243b 9851 76bc
000001a0: 8927 2f3c 13ca 89bb 0813 9bbb cafa bbbb
000001b0: e288 0a3b 037c 3e3c ca67 34bc 17da 27bb
000001c0: e99a ac3b d53c e3bb 664e 1ebc 6c9a 84bb
000001d0: 6628 263c 0d21 a1ba 100b d43a 8169 ff3b
000001e0: 5a37 9cbc cab5 6f3c b265 0cba 3771 e0bb
000001f0: 461c a5bb 90a8 67bb 535f 1139 2a02 fbbb
00000200: 1ab5 253b 7a69 44bc 8956 993b 3afd a83c
00000210: 1c19 983b 4d37 75bc faa7 34bc 5923 823b
00000220: 5db0 be3b 4fb6 bcbb 4ccd 0d3c c454 583c
00000230: 7334 a23b 70e7 23bc fc5d a1ba 4e8e 383c
00000240: a6f8 10bc 0ee0 bebb 1298 17bb f740 8c3b
00000250: 0204 f63b 3f6e ddbb 343a a43c 6ecc f13b
00000260: f768 593c e464 5bbc a92f 1dbb 5295 cb3b
00000270: e17c 22bc 1bb5 17bc 5a93 49bc 8102 63bc
00000280: 846e 333c 1347 1dbc c1b6 babb 7e8f 51b9
00000290: f32f 023c 4ebc 5e3c c5a1 e2bb 5d07 ac3b
000002a0: 4a9c b4bb 1a26 433c 3312 84bb 4869 eabb
000002b0: ba67 02bb f6fe 2cbc 702e 923c 7f3f b33c
000002c0: b1e7 acbb 85b9 a43b 331f 83bb 348a b03b
000002d0: 333c c3bc e6f8 463b 8b44 d83a 6c3a 023b
000002e0: 2387 0bbc ec1e 243c d56c 053c 0267 5f3b
000002f0: 2440 babb 4d62 7e3c 275d 293a 5626 59bc
00000300: e55b 523b fc92 89bc 36ce 613c 8516 9a3c
00000310: 2fdd d73b a98f ea3b 45ea e83b 7b30 8ebc
00000320: 9db6 92bc 9955 3bbc 120f 02bc b70d 39bb
00000330: a932 a2bb 015b b23a 66f4 4bbb 26c8 2d38
00000340: 4bbb a03b 2571 233c a148 1abc 039e 9cbb
00000350: c74c 1b3c 9974 403c 2763 c23c 06ee 2e3c
00000360: 1cc6 29bc 0505 8a3c eb98 a03b d5a8 8f3b
00000370: 1050 823a 036e 333c ddbd b23c ec88 e73b
00000380: 6f8d 02bc 4167 553c 3a6b bb3b acff 9d3c
00000390: 0085 b5ba d05a 5c3c 33ad d03b 71a7 b0bb
000003a0: 82b1 023c f4bf 3cbc 4172 fbbb b6e7 b93a
000003b0: 0f44 b83b ab0e d5ba 9c60 98bb 1fb0 8a3a
000003c0: fb73 dbbc 9882 363c b30f 013b 4747 54bc
000003d0: c26e 69bc 929a c3bb e7de 933b e21b 6c3c
000003e0: 8e07 533b 99f3 46bc c762 11ba 0246 f43b
000003f0: f797 113b e7c3 7a3c f410 bdbb b0b8 b4bb

model.model.tcn.0.net.0.bias f4 [16]
-0.0068011335 -0.025586182 -0.033495393 -0.0029116815 -0.027121352 0.008304682 0.032095805 -0.030714124
-0.0214626 0.03312903 0.010752492 0.03070274 -0.03625344 -0.027117766 0.021959428 -0.03729725
00000000: 0bdc debb 1d9a d1bc 7732 09bd e9d1 3ebb
00000010: 992d debc 5c10 083c e476 033d 309c fbbc
00000020: 56d2 afbc 4eb2 073d 382b 303c 5084 fb3c
00000030: 7d7e 14bd 1426 debc 42e4 b33c 00c5 18bd

model.model.tcn.0.net.1.weight f4 [16]
0.9930428 0.9997675 1.0008923 0.9926627 1.004477 0.99975634 1.0087905 0.9925733
0.9966848 1.0056446 0.9997824 0.9995383 1.0002363 0.99662185 1.0000888 0.9961327
00000000: 0e38 7e3f c3f0 7f3f 3d1d 803f 251f 7e3f
00000010: b492 803f 08f0 7f3f 0c20 813f 4919 7e3f
00000020: bc26 7f3f f6b8 803f bdf1 7f3f bee1 7f3f
00000030: be07 803f 9c22 7f3f e902 803f 8d02 7f3f

model.model.tcn.0.net.1.bias f4 [16]
-0.003367372 0.0019177789 0.00075297034 -0.0003757755 0.004398341 0.0008993224 0.006913757 -0.0048285546
0.0007904224 0.008343927 0.007697132 0.00550117 0.005857068 -0.00026691353 0.0023521204 -0.00022755911
00000000: 21af 5cbb fb5d fb3a fc62 453a bc03 c5b9
00000010: f51f 903b 81c0 6b3a cc8c e23b da38 9ebb
00000020: 5934 4f3a f7b4 083c 3938 fc3b 2943 b43b
00000030: a6ec bf3b 87f0 8bb9 0826 1a3b ef9c 6eb9

model.model.tcn.0.net.1.running_mean f4 [16]
-0.0043306574 -0.019771576 -0.033386525 -0.0046325102 -0.032425605 0.0028038465 0.03135445 -0.032656826
-0.028230317 0.0335191 0.012513565 0.025882583 -0.035566367 -0.0303963 0.026161369 -0.032067142
00000000: 30e8 8dbb 00f8 a1bc 4fc0 08bd 50cc 97bb
00000010: b6d0 04bd bdc0 373b 866d 003d 2ac3 05bd
00000020: 4443 e7bc 534b 093d b205 4d3c b607 d43c
00000030: 0aae 11bd a901 f9bc 5e50 d63c d658 03bd

model.model.tcn.0.net.1.running_var f4 [16]
0.03914525 0.02240855 0.025491057 0.041317694 0.02643712 0.020728655 0.022909923 0.026738675
0.03232194 0.0154654365 0.054097347 0.037392393 0.015094408 0.04171265 0.04133871 0.040740248
00000000: c556 203d 2392 b73c 9fd2 d03c be3c 293d
00000010: a992 d83c 24cf a93c 97ad bb3c 110b db3c
00000020: 0364 043d be62 7d3c 2e95 5d3d c428 193d
00000030: 894e 773c e2da 2a3d c752 293d 3fdf 263d

model.model.tcn.0.net.5.weight f4 [16, 16, 3]
-0.00976062 0.0065985494 0.0032150322 0.0009525025 0.010490734 0.018944615 -0.012842735 0.002821334
0.01546434 -0.0023214596 -0.00025842045 -0.0030964673 0.0036891145 0.007086616 0.0080528315 0.0012122694
0.024970278 0.010278894 -0.00660485 0.013983119 0.0032885694 -0.003509207 -0.009829814 -0.009335637
-0.007117515 0.013849597 -0.001287148 0.0029613988 0.0004830694 0.021765219 -0.0021507023 -0.0045303465
-0.00390794 -0.02555523 0.008743638 -0.009701731 -0.0047597694 -0.0048178066 0.017150303 0.0035110707
-0.008946624 -0.011810213 -0.021739466 0.006909673 -0.011076388 0.0022540328 0.008336377 -0.0014480985
-0.012264736 -0.004808652 -0.0045596473 0.0015315688 -0.00029659923 0.009676795 0.0055573313 0.020277182
-0.007131387 0.00083914615 0.0011602776 -0.0061676884 0.027509583 0.003463567 0.010820418 0.0036673644
-0.010695785 0.01091494 0.002107925 0.013995807 0.026507763 0.009597574 0.0022746131 0.010649633
-0.0027033042 -0.016448021 0.018533103 0.00082028477 0.0046383333 0.011998544 -0.010565254 -0.003156389
0.0016557316 0.0019206619 0.007131639 -0.006152377 0.00699312 0.010897132 0.006619158 -0.0033031756
0.00017826048 -0.007893229 -0.00027455424 0.015385204 0.0075173755 -0.017173436 0.010830277 -0.013790493
0.011355563 0.0033783363 0.022127507 -0.003982459 0.0060859416 0.015968718 0.011051244 -0.006052502
0.0053793555 -0.0001019789 -0.0042792507 -0.009307508 0.015036636 0.0033859622 0.0079077 0.0017718218
0.008470564 0.0012028699 0.013098134 -0.0065177395 0.01492072 0.0067319637 -0.0016375389 0.006197147
0.013877493 0.004278341 0.021424321 0.0086024245 0.004153635 0.015895221 -0.003705257 -0.0046188016
0.015311312 -0.0007291384 0.0040755067 -0.001325488 0.01497045 0.0021966987 0.011841184 0.0043869377
-0.0040593515 -0.010181837 0.00023355709 -0.0011307611 -0.02024606 0.0031012835 0.013040606 -0.0013035799
-0.013032638 0.005925857 -0.004037223 -0.008263936 -0.008510415 -0.008303826 0.0046581235 0.025380252
0.0027322746 -0.010988922 -0.011938647 -0.0058382936 -0.005204473 0.018488491 -0.008956386 0.007339274
0.0032682994 -0.00059108774 0.0075175283 0.012662237 -0.010281372 -0.005562938 0.0086331675 -0.012777785
-0.013407292 -0.0029894647 -0.012622844 0.0007858676 0.0026684676 -0.011651864 -0.0075708977 -0.0042624776
-0.010750951 0.00029304743 0.005639012 0.0031773872 0.010076899 0.0076503605 0.014119729 0.0016836703
0.0025104375 -0.0139846075 5.7400568e-05 0.010311314 0.014119703 -0.0009240556 0.01807319 -0.011644413
-0.011546674 -3.278826e-05 -0.00997438 0.006848285 0.005762926 0.015295731 0.0025672945 -0.009788428
-0.005244218 0.0007384207 0.0086362315 -0.0031541279 0.0025722266 0.00433331 -0.006854296 -0.0032040044
0.008672412 0.008328897 -0.008196285 -0.0004794308 -0.0070890402 0.0038837888 0.001270029 -0.00094786653
0.0053556645 0.016164146 -0.006747291 -0.0003730251 -0.0077694505 -0.01235685 0.0059235636 -0.0017668242
-0.0025000637 0.003135338 0.008101218 0.014552269 0.00389157 0.015151729 0.008898909 0.0022558146
-0.0067043295 -0.012330478 0.00096164504 0.006287349 0.015194025 0.008272963 -0.0039193146 -0.0028972994
0.008901197 -0.007791232 -0.01563655 0.010786778 0.0075146975 0.009319879 0.0072972965 0.022151243
0.016337136 -0.0024926174 0.013071643 -0.0073781717 0.0012207652 0.008785619 0.013356829 -0.0050043003
00000000: 02eb 1fbc a538 d83b 4ab3 523b 5cb1 793a
00000010: 54e1 2b3c bd31 9b3c 566a 52bc 21e6 383b
00000020: 255e 7d3c a123 18bb 9b7c 87b9 1aee 4abb
00000030: 12c5 713b d836 e83b 06f0 033c 03e5 9e3a
00000040: 788e cc3c ce68 283c 7f6d d8bb 7419 653c
00000050: 0a85 573b b9fa 65bb 3a0d 21bc 80f4 18bc
00000060: 0b3a e9bb 6ce9 623c 85b5 a8ba 0714 423b
00000070: 7a44 fd39 f94c b23c ccf2 0cbb 4d73 94bb
00000080: 2d0e 80bb 3459 d1bc 7a41 0f3c 02f4 1ebc
00000090: d7f7 9bbb b1de 9dbb cb7e 8c3c fe19 663b
000000a0: dc94 12bc a07f 41bc f716 b2bc 8a6a e23b
000000b0: bd79 35bc 65b8 133b 4d95 083c 1fce bdba
000000c0: 08f2 48bc e691 9dbb 1869 95bb ecbe c83a
000000d0: e080 9bb9 6c8b 1e3c 461a b63b 551c a63c
000000e0: 69ae e9bb 25fa 5b3a 7514 983a 521a cabb
000000f0: c75b e13c 03fd 623b 1f48 313c 2a58 703b
00000100: 603d 2fbc 94d4 323c 1d25 0a3b ab4e 653c
00000110: cf26 d93c 253f 1d3c ad11 153b cc7b 2e3c
00000120: eb29 31bb 00be 86bc bcd2 973c 6108 573a
00000130: 29fd 973b 8b95 443c e319 2dbc 6cdb 4ebb
00000140: 2205 d93a b8be fb3a 86b0 e93b e199 c9bb
00000150: 8b26 e53b e289 323c 86e5 d83b 177a 58bb
00000160: 6feb 3a39 9a52 01bc 0cf2 8fb9 3912 7c3c
00000170: 5154 f63b 4eaf 8cbc 7971 313c 85f1 61bc
00000180: af0c 3a3c 1467 5d3b bf44 b53c 4a7f 82bb
00000190: 946c c73b d4d0 823c 4710 353c 1154 c6bb
000001a0: 4e45 b03b 81dd d5b8 f538 8cbb 857e 18bc
000001b0: 395c 763c 05e7 5d3b 4c8f 013c 793c e83a
000001c0: 1fc8 0a3c 9ea9 9d3a 8e99 563c c392 d5bb
000001d0: 0976 743c ce97 dc3b b0a2 d6ba 7011 cb3b
000001e0: 6d5e 633c 5331 8c3b 0f82 af3c 2ff1 0c3c
000001f0: 371b 883b b236 823c e6d3 72bb 5159 97bb
00000200: 4cdc 7a3c a623 3fba d48b 853b ffbb adba
00000210: 9e46 753c 7df6 0f3b 8701 423c 4dc0 8f3b
00000220: 4f04 85bb b8d1 26bc 01e7 7439 0c36 94ba
00000230: 11db a5bc e73e 4b3b 44a8 553c e2dc aaba
00000240: d886 55bc b12d c23b ae4a 84bb 7665 07bc
00000250: 456f 0bbc c50c 08bc 2ca3 983b 3fea cf3c
00000260: f60f 333b e10a 34bc 519a 43bc 284f bfbb
00000270: 498a aabb 2d75 973c cebd 12bc 4b7e f03b
00000280: f730 563b 3af3 1aba 9955 f63b 4575 4f3c
00000290: 3373 28bc 4e49 b6bb 2172 0d3c ea59 51bc
000002a0: 42aa 5bbc e5ea 43bb 0cd0 4ebc af02 4e3a
000002b0: 75e1 2e3b 76e7 3ebc 4b15 f8bb 41ac 8bbb
000002c0: c224 30bc 29a4 9939 76c7 b83b b63b 503b
000002d0: 9419 253c e0af fa3b 7056 673c 9aae dc3a
000002e0: 2786 243b b21f 65bc 64c1 7038 c9f0 283c
000002f0: 5456 673c 523c 72ba 3a0e 943c 35c8 3ebc
00000300: 432e 3dbc 2086 09b8 956b 23bc 9467 e03b
00000310: edd6 bc3b f29a 7a3c 0e40 283b a55f 20bc
00000320: b0d7 abbb 9392 413a fb7e 0d3c 7cb5 4ebb
00000330: cd92 283b 70fe 8d3b 019a e0bb 46fa 51bb
00000340: bb16 0e3c ed75 083c b649 06bc 1d5c fbb9
00000350: 2e4b e8bb 2a87 7e3b 1a77 a63a 3f7a 78ba
00000360: 927e af3b ac6a 843c 6118 ddbb 9592 c3b9
00000370: e096 febb 6374 4abc 741a c23b c894 e7ba
00000380: 1cd8 23bb 3e7a 4d3b f9ba 043c a46c 6e3c
00000390: b609 7f3b f53e 783c bbcc 113c 4ad6 133b
000003a0: feaf dbbb c605 4abc e816 7c3a 1b06 ce3b
000003b0: 5cf0 783c 528b 073c 986d 80bb 9ee0 3dbb
000003c0: 54d6 113c 974d ffbb 3918 80bc 07bb 303c
000003d0: da3d f63b 68b2 183c 291e ef3b 8676 b53c
000003e0: 75d5 853c 2e5b 23bb 722a 563c 97c4 f1bb
000003f0: 1502 a03a 8ff1 0f3c 9ad6 5a3c 1dfb a3bb

model.model.tcn.0.net.5.bias f4 [16]
-0.011037635 0.06737548 -0.09456008 0.049428366 0.013290494 0.0023233 0.06219964 0.0697119
0.07705556 -0.06916913 0.0917423 -0.07211462 0.10361527 -0.016894871 0.035619114 0.017171672
00000000: 32d7 34bc 28fc 893d b7a8 c1bd 6675 4a3d
00000010: 5fc0 593c 8242 183b 0dc5 7e3d 1dc5 8e3d
00000020: 4ecf 9d3d 8ba8 8dbd 63e3 bb3d d4b0 93bd
00000030: 3e34 d43d 1d67 8abc 59e5 113d 9bab 8c3c

model.model.tcn.0.net.6.weight f4 [16]
1.0251604 1.039522 1.0249758 0.99816597 1.0143125 1.0343844 1.0148307 1.029942
1.0220038 1.0249839 1.0378792 1.0318142 1.0270088 1.0394771 1.0449747 1.0376107
00000000: 7538 833f 0f0f 853f 6832 833f ce87 7f3f
00000010: fed4 813f b566 843f f9e5 813f 24d5 833f
00000020: 05d1 823f ac32 833f 3ad9 843f 7d12 843f
00000030: 0675 833f 960d 853f bbc1 853f 6dd0 843f

model.model.tcn.0.net.6.bias f4 [16]
0.031562936 0.040401384 0.030280154 0.00017133603 0.01895517 0.039290104 0.021524886 0.033239055
0.020347865 0.027476817 0.038239766 0.036280934 0.03223196 0.03817095 0.046321712 0.03972086
00000000: 2348 013d ec7b 253d 160e f83c aaa8 3339
00000010: df47 9b3c a9ee 203d f554 b03c ad25 083d
00000020: 91b0 a63c 1017 e13c 4da1 1c3d 519b 143d
00000030: a905 043d 2459 1c3d d6bb 3d3d 57b2 223d

model.model.tcn.0.net.6.running_mean f4 [16]
0.0022729868 0.11167629 -0.024826037 0.042290326 0.032362144 0.046213444 0.06805499 0.1251485
0.069526955 -0.10432405 0.16518068 -0.06464746 0.18128136 0.03551834 0.10909331 0.0724547
00000000: 64f6 143b 8ab6 e43d f95f cbbc 9f38 2d3d
00000010: 2b8e 043d 4f4a 3d3d 6a60 8b3d ee26 003e
00000020: 2664 8e3d d9a7 d5bd 2025 293e e365 84bd
00000030: d2a1 393e ae7b 113d 506c df3d 2163 943d

model.model.tcn.0.net.6.running_var f4 [16]
0.0028373855 0.0033201694 0.0044091595 0.0023025218 0.0019269933 0.0026807596 0.0025106745 0.002688321
0.002013988 0.0029216541 0.0040210234 0.0020196345 0.004774934 0.0033158641 0.003287245 0.0026491946
00000000: 6ef3 393b 3397 593b b67a 903b e8e5 163b
00000010: 2a93 fc3a afaf 2f3b 218a 243b 8b2e 303b
00000020: 1dfd 033b 3979 3f3b cac2 833b d85b 043b
00000030: 0d77 9c3b f84e 593b d26e 573b 1c9e 2d3b

model.model.tcn.0.downsample.weight f4 [16, 219, 1]
-0.00056741136 -0.005260235 -0.010802156 -0.028309897 -0.03006286 -0.011510526 -0.020295423 -0.019107567
-0.024518898 -0.027233714 0.004281077 -0.00967855 0.0043383813 -0.007249525 -0.006262417 -0.0009549441
-0.01790257 0.0016427867 -0.0040658363 -0.006791433 -0.010793794 -0.0038295866 -0.01222357 0.02548259
0.02666372 -0.010179951 0.0044163144 0.0057526813 -0.010617195 -0.025098745 -0.007840753 -0.006640682
0.00565709 0.0018951505 -0.013097289 -0.0032431167 -0.009084169 0.009344727 -0.00012834476 -0.007266672
0.015920471 -0.009461296 0.005242927 -0.0043334863 -0.009315024 0.007049867 0.003758365 -0.010180485
-0.012361484 -0.023739597 0.0048487526 0.013987872 0.012859697 0.024965575 0.0073457365 -0.016278798
-5.348354e-05 0.0027826978 -0.0050988616 0.0022856593 0.0074281716 0.0031857858 0.0043107877 -0.0056756577
-0.016157253 -0.0008395471 0.008179362 0.010801353 0.009299536 -0.012148461 0.015603679 -0.014631382
-0.00036073977 0.008332354 0.017371206 0.015521336 0.009160036 0.019294214 0.0077925166 0.010136773
0.009331597 -0.0014085765 -0.0043945215 0.0012300194 0.018274661 0.008786253 -0.0047607585 0.0069723367
0.014315012 0.015097947 0.013062857 -0.0038754058 0.0024685976 -0.0064953915 -0.0058768983 0.0076187663
-0.02621811 -0.013993698 -0.0076516937 0.014862341 0.0107436 0.0059178965 0.0050537586 -0.0023599532
0.009225535 -0.0013706671 -0.004643917 0.0039802776 0.0012075085 -0.006459573 0.0015482495 -0.0055991397
-0.017121507 -0.030802628 -0.010233352 -0.01686512 -0.017708423 -0.01676432 0.019558126 0.0124709895
-0.0062562195 -0.0018768065 -0.018109769 -0.00057882495 0.0011751571 -0.0042201946 0.008761891 0.020952273
0.01842096 -0.014963565 0.0026522612 0.009227096 -0.007421633 -0.00950467 0.008645615 -0.003847421
-0.004629186 -0.024883555 0.002513045 -0.003212581 -0.014849692 -0.011089085 0.007460361 0.005392846
0.013034589 -0.0018952712 -0.0050852112 0.0007230061 -0.013769802 3.90442e-05 0.007843639 0.01127923
-0.016577678 -0.01554812 -0.0042715333 -0.016108157 -0.0064115347 0.008457197 -0.0010047476 0.03780181
0.0020168638 -0.0032882462 0.008370062 -0.003979374 -0.011216173 -0.00052911934 -0.031915184 0.009287819
-0.0029531317 0.0055746394 0.003547477 -0.013130619 -0.0007970005 0.0035268583 0.0010937449 -0.0030813625
-0.009724423 -0.014439178 -0.020924894 0.005599607 0.0054217544 -0.0002523146 0.010811915 0.00878503
0.005686468 -0.009779332 -0.003640618 0.009267344 0.0017346061 0.007838143 -0.0009142572 -0.006739283
0.007845638 -0.0021226185 0.010946196 0.014711708 -0.0066967774 -0.022297869 -0.003237197 0.0068392274
0.0038363633 -0.0005401614 0.009220597 -0.006362927 -0.0021993006 -0.02560816 0.0030133899 -0.010685576
-0.005316858 -0.015434257 -0.0112944385 -0.018924069 0.004480803 0.027993875 0.0028967317 0.014846186
0.0026212335 -0.009027536 -0.00055827847 -0.009457339 0.023747412 0.012425761 0.026740039 0.015980152
0.015682444 0.038891517 0.008273429 0.0021672954 0.02748056 0.030017978 0.024509637 0.0014988618
0.019413268 0.029745817 0.012319966 0.004854056 0.0062353266 -0.005018797 0.0012462845 -0.0014637397
0.0019352047 -0.0038127592 0.0018383609 -0.015853837 -0.0135711 0.0059843604 -0.0019648583 0.012246782
0.03611065 0.019360995 0.019924227 0.04002346 0.0029615038 0.013207856 -0.0018557046 -0.0036787244
00000000: 55be 14ba 0d5e acbb 87fb 30bc 28ea e7bc
00000010: 6346 f6bc a596 3cbc 9642 a6bc 7987 9cbc
00000020: dbdb c8bc 3d19 dfbc 4748 8c3b c892 1ebc
00000030: fb28 8e3b 6c8d edbb f634 cdbb 3755 7aba
00000040: 69a8 92bc c652 d73a b53a 85bb ab8a debb
00000050: 74d8 30bc cdf9 7abb 5e45 48bc ddc0 d03c
00000060: e06d da3c cfc9 26bc bbb6 903b fd80 bc3b
00000070: bef3 2dbc e29b cdbc 8076 00bc 149a d9bb
00000080: 1c5f b93b b366 f83a 0396 56bc 788a 54bb
00000090: c4d5 14bc a01a 193c 4994 06b9 431d eebb
000000a0: a66b 823c 8d03 1bbc dccc ab3b ebff 8dbb
000000b0: 0b9e 18bc 9202 e73b e74e 763b 0dcc 26bc
000000c0: d287 4abc 8b79 c2bc 49e2 9e3b 632d 653c
000000d0: 7bb1 523c 9b84 cc3c 81b4 f03b 1d5b 85bc
000000e0: 8453 60b8 ec5d 363b 5a14 a7bb 00cb 153b
000000f0: 0568 f33b 9ec8 503b 8241 8d3b defa b9bb
00000100: 375c 84bc 0d15 5cba bb02 063c 28f8 303c
00000110: 155d 183c 570a 47bc 93a6 7f3c 77b8 6fbc
00000120: ac21 bdb9 6d84 083c 0f4e 8e3c 344d 7e3c
00000130: fa13 163c e60e 9e3c 5e58 ff3b b514 263c
00000140: 8ee3 183c fc9f b8ba ebff 8fbb 9a38 a13a
00000150: beb4 953c 37f4 0f3c 2300 9cbb 3378 e43b
00000160: 8389 6a3c 615d 773c 9805 563c 85fa 7dbb
00000170: 32c8 213b 4bd7 d4bb ff92 c0bb d8a6 f93b
00000180: 5dc7 d6bc d345 65bc 0fbb fabb 2d81 733c
00000190: ed05 303c eaea c13b 009a a53b 72a9 1abb
000001a0: b326 173c f5a7 b3ba 002c 98bb fd6c 823b
000001b0: 4345 9e3a d3aa d3bb a2ee ca3a fd78 b7bb
000001c0: 6742 8cbc cb55 fcbc caa9 27bc b828 8abc
000001d0: 4111 91bc 5455 89bc 5d38 a03c 1f53 4c3c
000001e0: f900 cdbb 2dff f5ba f05a 94bc 49bc 17ba
000001f0: bb07 9a3a 8f49 8abb 098e 0f3c 1aa4 ab3c
00000200: 8ee7 963c be29 75bc 8fd1 2d3b 3f2d 173c
00000210: 2c31 f3bb 7ab9 1bbc 56a6 0d3c 0325 7cbb
00000220: 6db0 97bb 99d8 cbbc e6b1 243b 2a8a 52bb
00000230: 1f4c 73bc feae 35bc 0b76 f43b 79b6 b03b
00000240: 078f 553c c06a f8ba d8a1 a6bb 1e88 3d3a
00000250: bc9a 61bc 64c3 2338 9b82 003c 85cc 383c
00000260: e9cd 87bc 8bbd 7ebc 38f8 8bbb 41f5 83bc
00000270: da17 d2bb 0e90 0a3c bcb1 83ba 12d6 1a3d
00000280: 5c2d 043b 9e7f 57bb 9622 093c 6965 82bb
00000290: 0ac4 37bc 99b4 0aba 7fb9 02bd f02b 183c
000002a0: 5489 41bb 77ab b63b ca7c 683b cf21 57bc
000002b0: cced 50ba dd22 673b fd5b 8f3a aff0 49bb
000002c0: 3053 1fbc 4d92 6cbc af6a abbc e87c b73b
000002d0: f9a8 b13b 1849 84b9 7524 313c 16ef 0f3c
000002e0: 8d55 ba3b 7e39 20bc 6f97 6ebb 0fd6 173c
000002f0: b95b e33a 8e6b 003c c3aa 6fba 34d5 dcbb
00000300: fe8a 003c a11b 0bbb ac57 333c 6009 713c
00000310: a470 dbbb 05aa b6bc 2727 54bb 991b e03b
00000320: 7f6b 7b3b 9e99 0dba fd11 173c 1a80 d0bb
00000330: 2422 10bb 34c8 d1bc 4b7c 453b 8e12 2fbc
00000340: 0a39 aebb f7df 7cbc 4f0c 39bc a606 9bbc
00000350: b3d3 923b 6953 e53c 18d7 3d3b 6b3d 733c
00000360: 00c9 2b3b 3be8 13bc 6f59 12ba f4f2 1abc
00000370: ef89 c23c 6b95 4b3c ed0d db3c cfe8 823c
00000380: 7878 803c b64c 1f3d 478d 073c 2f09 0e3b
00000390: e91e e13c 43e8 f53c 6fc8 c83c 7575 c43a
000003a0: 9308 9f3c 80ad f33c afd9 493c c60e 9f3b
000003b0: b651 cc3b b874 a4bb 5e5a a33a f4da bfba
000003c0: b2a6 fd3a 7cdf 79bb 28f5 f03a e8df 81bc
000003d0: 5259 5ebc 7418 c43b dac4 00bb baa6 483c
000003e0: c3e8 133d f39a 9e3c 2238 a33c a4ef 233d
000003f0: ca15 423b c365 583c 1d3b f3ba c116 71bb

model.model.tcn.0.downsample.bias f4 [16]
0.06618603 0.09595924 0.027648784 -0.009939223 0.079747766 -0.016204363 -0.04308768 0.035346847
0.08350178 -0.027888197 0.056240287 0.09432384 0.067678906 0.004322286 0.08648489 0.04365567
00000000: 8b8c 873d 4786 c43d b47f e23c 1fd8 22bc
00000010: cc52 a33d 03bf 84bc b57c 30bd dbc7 103d
00000020: fb02 ab3d ca75 e4bc 375c 663d dc2c c13d
00000030: 3d9b 8a3d f7a1 8d3b fd1e b13d 4ad0 323d

model.model.tcn.1.conv1.weight f4 [16, 16, 3]
0.008884707 0.013017835 0.0046463516 -0.016887184 -0.015779374 0.003344942 0.001826301 -0.007989234
-0.011950425 0.0058541265 -0.012524627 0.005643689 -0.0003835779 -0.0060938885 0.008870167 -0.006934783
0.0005313724 -0.010029924 -0.0122275725 4.999314e-05 0.0060152384 -0.02871613 -0.0012643456 -0.0022927194
0.010042472 -0.015573986 0.013070926 0.008775874 -0.016070494 -0.0015303474 0.012678291 0.003927078
0.0054618437 0.006567409 0.0071888096 -0.0011776431 -0.004262997 0.014563247 0.019196305 0.008504423
-0.0086038355 -0.005780776 -0.005963931 -0.009488075 -0.009131779 -0.017914174 0.014043058 -0.010907821
0.011693754 -0.002719603 -0.00070244796 -0.020156031 -0.008530308 0.005526219 0.010689653 0.0051913154
0.003353723 0.012382009 0.011126694 -0.0019237791 -0.0024185067 0.022398666 0.0074541676 -0.014372261
0.004439815 0.0026797527 -0.0033584742 0.008256996 -0.0022972631 -0.005784012 0.0039227516 0.00449374
0.012248803 -0.0075758738 0.011878443 0.00032462247 -0.004023456 -0.0056174533 -0.017151281 -0.0046413657
0.0023224307 0.013911314 -0.015448911 -0.011120797 0.00016425012 0.008348971 0.004770794 0.0045726746
0.005685819 -0.0037119952 -0.005778453 -0.00093582727 0.00056681444 -0.011151679 -0.012056432 -0.0028465637
-0.007726976 -0.010236167 0.009199137 0.0022452164 0.0060609197 -0.0047102734 0.003016977 -0.013479524
-0.0069342502 0.008336218 0.00061215815 -0.01165637 -0.0027203457 0.009057736 -0.008149671 0.019707002
0.0099512385 0.0051441435 0.023071762 0.01101578 -0.021023639 0.019766087 0.00097492535 -0.009459586
-0.0154215405 0.01618336 -0.0011057017 -0.00096512877 -0.00504083 -0.004034218 0.014081419 0.0013394754
-0.0004077538 0.021959467 0.0059101563 0.0031938264 -0.004468023 0.0070754956 -0.03033157 0.0039595542
-0.013241239 0.010869438 -0.00040865567 -0.010430188 -0.010197909 0.012930155 -0.0016070023 0.015414118
-0.013429762 -0.0011259282 0.008406524 0.010595931 -0.004705378 0.008174609 0.0061825174 -0.017799402
-0.005109518 -0.023801718 0.005878255 0.01536307 -0.0031762912 -0.024205193 -0.005659782 -0.006354199
-0.019935604 -0.009926363 -0.014335001 0.0005162817 0.0044384226 -0.004263959 -0.010821254 0.0024992912
-0.00015663572 -0.020270417 0.0006552179 0.0031940655 -0.009958207 -8.302564e-05 -0.004788046 0.0016192754
-0.0010259924 -0.0139093455 -0.012770694 0.0066587045 -0.0028747271 0.015172233 -0.0077818134 0.0070109204
-0.011241695 -0.008126383 -0.006581512 -0.01643581 -0.009644945 -0.0055786 -0.0060458262 -3.610009e-05
-0.0017009296 0.0012789409 0.021614045 -0.01833026 0.0012366802 0.009944236 -0.0041559273 -0.005530613
-0.008580208 0.010352822 0.018042563 -0.0036824432 -0.015002171 0.00035200253 0.024657601 -0.0021494376
0.009323192 0.009310435 -0.009026573 -0.016010666 0.015622205 0.0022673788 -0.0047694985 -0.0007555945
0.003143923 0.008462117 0.0033127216 -0.002382177 -0.0056934035 -0.0037163973 -0.015863761 -0.003973567
-0.0033053136 -0.009699768 0.01815055 0.011309084 0.0027720379 -0.010058663 0.0027782193 -0.007035793
-0.020488152 0.007249869 -0.010508601 -0.014312931 0.0026163347 0.0016215984 -0.011571909 -0.0037140935
-0.00689533 0.015649991 0.0076254006 -0.018330537 -2.1554182e-05 0.01804583 -0.0018409077 -0.0015316949
-0.009928283 -0.013323418 -0.0020618746 0.017421672 -0.013780781 0.001804389 -0.007583293 -0.0070958794
00000000: 2991 113c c248 553c 6c40 983b fe56 8abc
00000010: bf43 81bc d036 5b3b 7e60 ef3a 47e5 02bc
00000020: b7cb 43bc f9d3 bf3b 1834 4dbc b2ee b83b
00000030: f41a c9b9 3eaf c7bb 2d54 113c 2d3d e3bb
00000040: cc4b 0b3a 8d54 24bc 2856 48bc baaf 5138
00000050: 7a1b c53b 173e ebbc 66b8 a5ba 7341 16bb
00000060: 2e89 243c 082a 7fbc 7027 563c afc8 0f3c
00000070: 45a6 83bc f095 c8ba 9bb8 4f3c b8ae 803b
00000080: 44f9 b23b 6b33 d73b 1b90 eb3b 255b 9aba
00000090: 9cb0 8bbb af9a 6e3c 9241 9d3c 2356 0b3c
000000a0: 1af7 0cbc aa6c bdbb 146d c3bb df73 1bbc
000000b0: 759d 15bc bfc0 92bc db14 663c b8b6 32bc
000000c0: 2997 3f3c 5e3b 32bb 7c24 38ba 431e a5bc
000000d0: b4c2 0bbc 4915 b53b a823 2f3c e91b aa3b
000000e0: 23ca 5b3b e9dd 4a3c bd4c 363c 5127 fcba
000000f0: cf7f 1ebb 687d b73c 1742 f43b a279 6bbc
00000100: de7b 913b ca9e 2f3b d919 5cbb 5a48 073c
00000110: ae8d 16bb cf87 bdbb 6d8a 803b 3940 933b
00000120: 34af 483c 093f f8bb cd9d 423c 1732 aa39
00000130: 32d7 83bb 9d12 b8bb d880 8cbc 9916 98bb
00000140: ec33 183b 48ec 633c 6e1d 7dbc 0134 36bc
00000150: 8e3a 2c39 1fca 083c 5254 9c3b 60d6 953b
00000160: 1b50 ba3b f244 73bb 2d59 bdbb 4e52 75ba
00000170: 4696 143a 88b5 36bc 5788 45bc 6a8d 3abb
00000180: 9332 fdbb 99b5 27bc fab7 163c 7b24 133b
00000190: ae9a c63b a358 9abb 7ab8 453b 39d9 5cbc
000001a0: b538 e3bb a294 083c 3d79 203a 5cfa 3ebc
000001b0: d447 32bb e666 143c 3386 05bc 9470 a13c
000001c0: 850a 233c 3490 a83b fe00 bd3c 887b 343c
000001d0: c439 acbc 7dec a13c 2292 7f3a 61fc 1abc
000001e0: a1aa 7cbc f792 843c 31ed 90ba b200 7dba
000001f0: 8c2d a5bb 7931 84bb c1b5 663c 5691 af3a
00000200: cac7 d5b9 57e4 b33c fca9 c13b 844f 513b
00000210: 7e68 92bb 8fd9 e73b ea79 f8bc 26bf 813b
00000220: c8f1 58bc ba15 323c d640 d6b9 61e3 2abc
00000230: 2115 27bc 00d9 533c 0da2 d2ba 7f8b 7c3c
00000240: 8108 5cbc e293 93ba 84bb 093c 8e9a 2d3c
00000250: 922f 9abb ccee 053c b796 ca3b 0dd0 91bc
00000260: be6d a7bb d2fb c2bc 609e c03b 63b5 7b3c
00000270: 5329 50bb f849 c6bc b175 b9bb e236 d0bb
00000280: fe4f a3bc 2fa2 22bc 5add 6abc 1457 073a
00000290: 3070 913b aeb8 8bbb a14b 31bc 26cb 233b
000002a0: 953e 24b9 250e a6bc eec2 2b3a 8753 513b
000002b0: bf27 23bc 0d1e aeb8 0ae5 9cbb de3d d43a
000002c0: 987a 86ba 06e4 63bc 2c3c 51bc 4331 da3b
000002d0: eb65 3cbb f594 783c 95fe febb ddbb e53b
000002e0: 162f 38bc 8524 05bc b9a9 d7bb 64a4 86bc
000002f0: d505 1ebc b0cc b6bb 111c c6bb 2d6a 17b8
00000300: baf1 deba 23a2 a73a f00f b13c 5729 96bc
00000310: 1a18 a23a 26ed 223c 722e 88bb 253a b5bb
00000320: 0094 0cbc e29e 293c ffcd 933c 2555 71bb
00000330: aacb 75bc fb8c b839 bdfe c93c 94dd 0cbb
00000340: 4dc0 183c cb8a 183c 31e4 13bc cd28 83bc
00000350: 47f4 7f3c 4e98 143b 7449 9cbb 1713 46ba
00000360: 460a 4e3b b1a4 0a3c 3f1a 593b 4c1e 1cbb
00000370: bb8f babb cd8e 73bb b8f4 81bc b234 82bb
00000380: f69d 58bb c7eb 1ebc 76b0 943c bc49 393c
00000390: 14ab 353b 17cd 24bc c912 363b 828c e6bb
000003a0: c5d6 a7bc 4f90 ed3b 442c 2cbc c980 6abc
000003b0: d076 2b3b d08b d43a 1b98 3dbc 2668 73bb
000003c0: 38f2 e1bb 6934 803c 7fde f93b ec29 96bc
000003d0: 41cf b4b7 d9d4 933c 9d4a f1ba 27c3 c8ba
000003e0: 3daa 22bc 774a 5abc 8420 07bb e5b7 8e3c
000003f0: c9c8 61bc 3f81 ec3a 467d f8bb 8d84 e8bb

model.model.tcn.1.conv1.bias f4 [16]
0.04903238 0.13087562 0.10990877 -0.10614373 -0.044091802 0.04945362 -0.10431501 -0.019821696
-0.08049495 0.1180971 0.11204789 0.11148903 0.100910775 0.13196129 -0.09059293 0.12277949
00000000: 2dd6 483d 4204 063e d917 e13d e261 d9bd
00000010: 9b99 34bd e18f 4a3d 1ca3 d5bd 1c61 a2bc
00000020: 89da a4bd e4dc f13d 5d79 e53d 5c54 e43d
00000030: 4faa ce3d dc20 073e c988 b9bd d073 fb3d

model.model.tcn.1.bn1.weight f4 [16]
0.9966999 0.9879 0.99767625 1.0002264 1.0005616 1.000171 1.0052274 0.9960268
0.98849267 0.9952833 0.9948376 0.99939513 1.0034276 1.0006101 1.0140567 1.0138917
00000000: ba27 7f3f 04e7 7c3f b667 7f3f 6b07 803f
00000010: 6712 803f 9a05 803f 4bab 803f 9dfb 7e3f
00000020: db0d 7d3f e3ca 7e3f adad 7e3f 5cd8 7f3f
00000030: 5170 803f fe13 803f 9ccc 813f 34c7 813f

model.model.tcn.1.bn1.bias f4 [16]
0.0041978164 -0.001899522 0.0070241657 0.00045935943 0.010962003 0.012391176 0.0074329367 0.0032976235
0.0080990605 -0.0054772617 -0.0021240788 0.005942451 0.02559351 -0.00013306834 0.0057544853 0.013045253
00000000: d68d 893b 62f9 f8ba f92a e63b 2ed6 f039
00000010: f999 333c 5c04 4b3c fe8f f33b f11c 583b
00000020: ecb1 043c 9a7a b3bb 2134 0bbb e4b8 c23b
00000030: 7ba9 d13c 4388 0bb9 1f90 bc3b c2bb 553c

model.model.tcn.1.bn1.running_mean f4 [16]
0.01963557 0.12775728 0.12973554 -0.19351418 -0.06931774 0.040652104 -0.14542985 -0.077820115
-0.083787344 0.004862069 0.07712178 0.09608188 0.12606055 0.08963396 -0.12923986 0.10403075
00000000: c6da a03c ced2 023e 65d9 043e 9528 46be
00000010: 76f6 8dbd d282 263d 90eb 14be 2760 9fbd
00000020: b398 abbd fe51 9f3b 06f2 9d3d 94c6 c43d
00000030: 0416 013e 0292 b73d 7457 04be 130e d53d

model.model.tcn.1.bn1.running_var f4 [16]
0.0030967633 0.004852805 0.0065273726 0.009103972 0.0075774095 0.0055064657 0.009369494 0.004378933
0.005741089 0.01322605 0.0031214652 0.0010435443 0.007061293 0.0036530243 0.00303073 0.0024718333
00000000: 11f3 4a3b 4704 9f3b 92e3 d53b d428 153c
00000010: eb4b f83b 956f b43b 8282 193c 277d 8f3b
00000020: bf1f bc3b 13b2 583c 7f91 4c3b 89c7 883a
00000030: 6b62 e73b 9467 6f3b 369f 463b 7bfe 213b
