s2s/src/main/python/checkpoints/epoch=9-step=3650-v4.ckpt (torch, 282655 bytes, 143 tensors)

model.model.tcn.0.conv1.weight f4 [16, 218, 3]
000000 3c bb 91 3a 15 a8 cd 3c f2 9b b5 3c e6 49 09 3c
       0.0011118422 0.025104562 0.022169087 0.008379435
000010 a4 cf b6 3a 8e f6 14 3c c4 c3 01 3c df 1f e8 3b
       0.001394738 0.009091986 0.007920209 0.0070838775
000020 2c f3 47 3b 5c 2c 30 bb d5 40 34 bc 0b 3b 57 3a
       0.0030509932 -0.002688191 -0.011001785 0.0008210397
000030 04 f3 60 bb 2d d5 1d bc 17 d2 5d 3a 4c 57 83 bb
       -0.0034324536 -0.009633345 0.0008461787 -0.0040082093
000040 c0 ba 3e bc 99 c3 0c 3c 9c ae fe 3b 3d cb 02 3c
       -0.011641204 0.008591556 0.00777228 0.007983026
000050 c8 e4 7e 3a 2a 0b 3e bc f0 92 fe ba b7 1d bf ba
       0.0009723422 -0.011599341 -0.0019422453 -0.0014580999
000060 8d dc ba bb d0 ff 50 3b 98 aa 09 3c d0 da cf 3a
       -0.0057025612 0.0031890757 0.008402489 0.0015858058
000070 10 21 48 3c 62 ed 17 3b f8 32 b9 bb c3 c9 80 3b
       0.012214914 0.0023182263 -0.005651828 0.003930302
000080 a5 3f f3 b9 50 ba 88 bb e2 a5 87 3b 2b 5d 29 bc
       -0.0004639599 -0.004172601 0.004139648 -0.010337154
000090 f0 ed 13 3b 3f f0 d4 ba d6 ad c2 3a 1d bb 73 3c
       0.0022572242 -0.0016245915 0.0014852833 0.014876154
0000a0 be 4f cf 3b f1 8c ff bb 54 9d 8f 3c 23 7d 52 3c
       0.0063266447 -0.007798784 0.017531075 0.012847218
0000b0 4d c0 aa bb 39 16 4e bb 68 33 75 3b 4f f3 5c 3b
       -0.0052109123 -0.0031446351 0.0037414674 0.003371436
0000c0 9d 3f 94 3c aa 71 a6 bc 87 d4 57 bb d9 e9 0c 3c
       0.01809674 -0.020317871 -0.0032933073 0.0086006755
0000d0 78 ed 14 3a b3 48 9d ba 20 67 b0 bb 14 81 3c bb
       0.00056811376 -0.0011999815 -0.005383387 -0.002876346
0000e0 34 f0 2b bc 18 10 19 3b 7c 38 74 bb 57 bc 0e 3c
       -0.010494281 0.002335554 -0.0037265113 0.008711896
0000f0 6b a6 32 bb 60 45 7c bc c7 07 23 bb 3a 07 b7 3b
       -0.0027259837 -0.0153974 -0.0024876462 0.0055855783
000100 77 c3 b4 bb 63 27 42 3c 4d 0e 35 3c a9 51 cd bb
       -0.0055164653 0.011850211 0.011050773 -0.006265838
000110 3c 5c 0f bc 91 e7 90 bc c8 a9 55 bb cc 51 63 bc
       -0.008750018 -0.017688544 -0.0032602418 -0.013874482
000120 71 7b 16 bc f6 d3 5e bc a8 a2 96 3c 1c 4c 3f bb
       -0.009184704 -0.01360034 0.018388107 -0.0029189652
000130 4a 8f 49 ba be 3c 9c 3c af 78 2c 3c 46 d3 40 3c
       -0.0007688893 0.019071933 0.01052682 0.0117691215
000140 1b 7a b0 3c c5 ee 58 bb b1 95 3c 3c 57 0d b3 3b
       0.0215426 -0.0033101302 0.011510299 0.0054642367
000150 e7 da a6 3a ed b3 34 bc a1 82 2d bc 7b 4a 06 bc
       0.0012730033 -0.011029226 -0.010590226 -0.008196468
000160 91 2f 65 3b 79 93 37 bb 3a 13 68 bc c7 4c f9 bb
       0.0034970979 -0.0028011485 -0.01416474 -0.0076080295
000170 7d b8 0a 3c 82 59 55 bc c8 0c 81 3b 3b 80 67 3c
       0.008466837 -0.013021829 0.003938291 0.014129694
000180 61 e7 54 3a b9 79 2f bc 04 85 b7 3b 21 c6 bd 3c
       0.00081216363 -0.010710173 0.0056005735 0.023165764
000190 eb b4 3d 3b 6e 20 69 bc fb b2 b1 3b 2f ae 7b bc
       0.0028946947 -0.014228923 0.0054229475 -0.015361353
0001a0 66 39 3a 3c 7d 79 92 b9 93 0a 18 bc cc 88 a9 3c
       0.011366224 -0.00027937806 -0.009279865 0.020695113
0001b0 8e 6e 0b 3c 58 fa 3e 3c 0b ff 7c bb 0d 44 13 3c
       0.008510245 0.011656366 -0.0038604166 0.008988393
0001c0 4f ab e1 ba 6c ed 86 bb bd 6a 45 3c 38 b4 95 ba
       -0.0017217192 -0.0041176584 0.012049374 -0.0011421507
0001d0 33 2b 49 3c 68 54 2a 3c 60 e8 19 ba d1 a2 7f bc
       0.012278366 0.010396101 -0.00058711134 -0.015602783
0001e0 57 4d 47 bc 1f 25 75 3c 2e c5 57 3c 0e 18 5f 3c
       -0.012164435 0.014962464 0.01316957 0.013616575
0001f0 0f 6a 1c bc 76 a4 44 bc 41 df af 3a 6a 1e 01 bc
       -0.009546771 -0.012002101 0.0013417975 -0.007880786
000200 93 bd ba bb 4d 14 99 bc d3 42 4e 3c 60 1c 8e bc
       -0.0056988685 -0.018686438 0.012589174 -0.017347515
000210 9c f8 87 bc 19 ca 18 3b c4 f5 d2 bb 46 03 e1 3a
       -0.016598038 0.002331382 -0.006437989 0.0017167113
000220 1c 38 bd 3b 1a 98 2d bb 66 e0 d1 3c 68 49 40 ba
       0.005774511 -0.0026488365 0.025619697 -0.0007335157
000230 c2 58 f2 bb f2 b9 6c bb 65 3d 03 bc a1 0b be bb
       -0.0073958347 -0.0036121574 -0.008010243 -0.005799726
000240 7f 75 88 3b f1 09 2e bc 37 3b b8 3b c7 9f a1 3c
       0.0041643973 -0.010622487 0.0056222933 0.019729508
000250 25 fc 36 3c 11 76 9c bb 7f fc 31 bb b7 43 f5 bb
       0.011168514 -0.004774817 -0.0027158556 -0.007484879
000260 fc 5b 03 bc 64 a6 37 bc 71 7e 81 3c 25 e3 e0 bb
       -0.008017536 -0.011209104 0.015807362 -0.0068630152
000270 83 e5 b1 3b 54 3e 16 bc 7c b1 50 bc b4 80 44 bb
       0.0054289713 -0.009170134 -0.012737628 -0.002998394
000280 08 52 35 3c 25 1b 5c bc e9 c8 50 bc ff 7f fc bb
       0.011066921 -0.013434206 -0.012743213 -0.007705688
000290 7c 6d 27 3a 2d e6 c6 3b d1 b6 9d 3c b5 79 15 bb
       0.0006386859 0.0060699196 0.019252213 -0.0022808139
0002a0 85 72 55 bc 7a ed fc bb 1e a8 60 bb 61 de 72 3c
       -0.013027792 -0.007718739 -0.0034279893 0.014823527
0002b0 4a ed 23 3c cb a4 1d b9 c2 25 02 bc 8a f6 3a bc
       0.010005305 -0.00015034077 -0.0079435725 -0.011411319
0002c0 0a 6a 60 3c 17 ac 31 bc 32 23 04 3c fd cc 54 3c
       0.013697157 -0.010844252 0.008065032 0.012988326
0002d0 51 6e 7e bc 9d 11 7b bc c3 18 0d bc 14 86 40 3b
       -0.015529231 -0.015324024 -0.008611861 0.0029376792
0002e0 53 b1 ac 3b ec 12 d3 bb 34 b1 2f bb 70 fd 76 38
       0.005270162 -0.0064414646 -0.0026808502 5.8887003e-05
0002f0 80 3a d3 3b e0 b0 02 ba 76 6e 72 bc 79 57 06 39
       0.0064461827 -0.0004985463 -0.014796844 0.00012811822
000300 64 5a 83 bb dc b1 13 bc 80 ff ef 3a 53 af 68 3c
       -0.004008578 -0.009014573 0.0018310398 0.014201957
000310 f2 18 d2 ba 03 c9 a0 bb 21 bc 09 bb f9 07 9f 3b
       -0.0016029163 -0.004906775 -0.0021016675 0.0048532453
000320 56 21 90 3c 32 01 21 3c 47 1a f5 3b e8 b0 09 bb
       0.01759402 0.009826945 0.007479939 -0.0021009985
000330 51 08 1b 3c aa aa 59 bb 29 94 1c 3c 4d 9a 3c 3b
       0.009462432 -0.0033213296 0.0095568085 0.0028778494
000340 11 00 88 3c 3a cb 80 bb a6 2e f4 bb 30 2c 1b bb
       0.016601594 -0.0039304765 -0.00745185 -0.002367746
000350 c4 29 fc 3c 55 dc 23 3c ef 1a bd 3b d6 b0 f5 bb
       0.030781634 0.010001262 0.005771033 -0.007497887
000360 c1 53 af bb 53 fb 8c 3c 5d 3d 51 3c 4e 84 8e 3c
       -0.0053505604 0.017209684 0.012770978 0.017397072
000370 6c 04 a5 bc 02 b8 5e bc 62 98 41 39 33 66 cd 3b
       -0.02014371 -0.013593676 0.00018462681 0.0062682866
000380 14 11 ad 3c 47 db 35 3c 34 90 68 bb a4 be 3c 3c
       0.021126308 0.011099643 -0.0035486342 0.011520062
000390 8e c6 b2 ba 44 cc 04 b9 c0 98 49 bc a9 4d 0e bb
       -0.0013639496 -0.00012664596 -0.012304485 -0.002171377
0003a0 0f d7 42 bc 07 32 d1 3b 40 95 13 3b fe 1c c1 ba
       -0.011892094 0.0063841376 0.002251938 -0.0014733372
0003b0 38 81 e8 3b e3 3d dc bb 66 7e 00 3c bd 37 e0 bb
       0.007095482 -0.0067212447 0.007842636 -0.006842582
0003c0 68 72 33 3a ee d9 3e 3c 2d 61 b2 bb c1 e2 98 3c
       0.0006845356 0.011648638 -0.005443713 0.018662812
0003d0 8f 19 ea 3b 65 6e a3 bb 6e de 9d 3c 51 2d 45 bc
       0.00714416 -0.0049875253 0.019271102 -0.01203473
0003e0 98 96 36 bc 0f 75 97 3b fb 46 e7 bb 53 7e 6e bc
       -0.011144303 0.004622109 -0.007058022 -0.014556485
0003f0 e6 23 74 3c d1 e5 f3 3b 48 1f 1e 3b 87 b3 97 bb
       0.014901137 0.0074431677 0.0024127532 -0.0046295556

model.model.tcn.0.conv1.bias f4 [16]
000000 f4 45 b0 3b e3 9e 09 bd 56 42 d5 3c ad 15 1b bd
       0.005379433 -0.03359879 0.026032608 -0.03786247
000010 77 a2 9c bc 4c db a3 bc 15 bb ae bc 2e 9b b8 bb
       -0.019120438 -0.02000203 -0.021329442 -0.0056337332
000020 e1 fa 8b 3c c5 97 32 bc d1 e6 18 3d 89 f8 e9 3a
       0.017087402 -0.0109004425 0.0373295 0.0017850559
000030 a2 aa 6f 3c c9 93 ab bc 6e 36 0d 3d 16 87 b4 bc
       0.014628084 -0.020944493 0.034475736 -0.02203707

model.model.tcn.0.bn1.weight f4 [16]
000000 5a 44 7e 3f ce d9 7e 3f fa 6c 81 3f 3c 1e 80 3f
       0.99323046 0.99551094 1.0111382 1.0009227
000010 01 08 7f 3f 56 07 81 3f 6d cf 80 3f 65 5b 7d 3f
       0.9962159 1.0080364 1.0063301 0.9896758
000020 e5 7e 7e 3f 2e 24 80 3f 37 b3 7e 3f 58 52 7c 3f
       0.99412376 1.0011041 0.9949221 0.98563147
000030 6d 54 7d 3f 69 c9 7d 3f 1c 59 7d 3f 8f 8e 80 3f
       0.9895695 0.9913545 0.98964095 1.0043505

model.model.tcn.0.bn1.bias f4 [16]
000000 16 a2 c6 ba 9f db b2 3a ab e1 55 3b eb 33 b8 3b
       -0.0015154507 0.0013645774 0.003263573 0.0056214235
000010 3d ce 23 3a aa 21 ae ba 00 67 a0 ba a1 64 0e bc
       0.00062486884 -0.0013285179 -0.0012237728 -0.008690984
000020 8d 4e 98 3a 66 01 27 3a 00 cb bd 3a 1f 29 c2 bb
       0.001162009 0.0006370753 0.0014480054 -0.005925312
000030 82 da d2 bb fe d8 b8 bb c2 5e f4 bb e9 63 0a 3b
       -0.0064347396 -0.005641102 -0.007457585 0.002111668

model.model.tcn.0.bn1.running_mean f4 [16]
000000 88 c5 d4 3a df 83 06 bd 84 d1 db 3c fa 56 18 bd
       0.0016233185 -0.032840606 0.026833303 -0.037192322
000010 9c af 8d bc 53 35 b2 bc f8 a2 b8 bc a7 a1 5e bc
       -0.017295651 -0.021753943 -0.022538647 -0.013588346
000020 88 39 b4 3c 1c e7 2c bc 88 0a 08 3d 4c 54 29 3b
       0.02200009 -0.010553148 0.03321317 0.0025837598
000030 bb 15 fc 3b b8 bd ec bc 9e 53 00 3d 6b b5 c1 bc
       0.00769302 -0.028899059 0.031329744 -0.023646077

model.model.tcn.0.bn1.running_var f4 [16]
000000 f6 a2 c9 3c a9 92 d5 3c 48 ce e6 3b 5d 7d 28 3c
       0.024613839 0.02607091 0.0070436336 0.010283795
000010 b4 dd 50 3c 6e c5 1c 3c 73 72 17 3c f3 fd a0 3d
       0.012748171 0.009568555 0.009243595 0.07860937
000020 24 81 9c 3c 23 8d 00 3c fc 0b 6d 3c 33 50 4e 3d
       0.019104548 0.00784615 0.014468189 0.050369453
000030 61 1a a4 3d 15 7a 07 3d 7c 09 88 3d 08 ae 38 3c
       0.08012844 0.03307541 0.06642434 0.011271961

model.model.tcn.0.conv2.weight f4 [16, 16, 3]
000000 af 2f 7c 3b 5a 6e bd bc cf f6 f0 ba 2e a2 88 ba
       0.003848057 -0.023123909 -0.0018384102 -0.001042431
000010 82 74 ac bc 6a 9b 64 bc 29 8e 09 3c 00 0a 70 3c
       -0.021051649 -0.013953069 0.00839571 0.014650822
000020 8c 66 6b 3c ae bf 95 3b f5 bf 0a 3b 55 82 9d bc
       0.014367711 0.004569969 0.0021171544 -0.019227186
000030 c7 13 d6 3a 3d 58 bc bb e8 d4 c4 3c 70 cd 37 3c
       0.0016332798 -0.0057478235 0.024027303 0.011218414
000040 04 d9 67 3b cb ba bb 3a ff 50 7f 3b 3c 17 f7 3b
       0.0035377154 0.0014322636 0.003895819 0.0075406116
000050 b8 84 50 ba 3d d5 e3 bb 0b 48 cb 3a 1a 62 eb bb
       -0.0007954347 -0.00695291 0.0015509141 -0.0071833255
000060 3a 66 35 3b 6c 7f 16 bc 47 7a 3c bc 3b 80 14 3b
       0.002767934 -0.009185653 -0.011503763 0.002265944
000070 97 f7 15 3c bc bc 0f 3b 9a 6e 97 3b 9c 5a b2 b8
       0.009153268 0.0021932563 0.004621339 -8.504579e-05
000080 2a b2 c4 bb e1 85 b0 3c 05 4d 21 bc 6b 90 50 3a
       -0.006002684 0.021548213 -0.009845023 0.000795609
000090 5d 61 c1 bb 8e af 0b bc fd f7 bc 3c 53 12 69 bb
       -0.005901499 -0.008525742 0.023067469 -0.00355639
0000a0 87 57 b7 bb 31 d0 2c 3c 6e db 2c 3c 65 e3 45 3b
       -0.005595151 0.010547684 0.010550363 0.0030195352
0000b0 0d 23 a2 3c b1 2d d0 39 80 31 13 3c a5 08 67 3b
       0.019792104 0.00039706894 0.00898397 0.0035252955
0000c0 fb 92 b4 3b 07 92 88 ba ec 07 d6 3b 0c fb 0c bc
       0.0055106855 -0.0010419496 0.006531706 -0.008604776
0000d0 c7 b0 2a bc 4f 98 96 bb 20 a3 81 3b b5 09 33 3c
       -0.010418124 -0.0045957933 0.0039562136 0.010927607
0000e0 b7 47 51 bc 78 f3 7e 3b af f9 08 bc 9d 8a e1 3b
       -0.012773446 0.0038902443 -0.00836031 0.006882979
0000f0 06 bd 96 bc 1d cd 89 ba cf fc bc bc 40 2a a7 bc
       -0.01840068 -0.0010513399 -0.023069767 -0.020405889
000100 96 16 82 bc 05 25 65 3b bd b2 4f bc 5e e4 7f bc
       -0.01587991 0.0034964692 -0.012676892 -0.015618412
000110 f7 d9 7d bc ad a2 23 bc 1a 5e ad 3b 9f 58 82 3c
       -0.015493861 -0.009987515 0.005290759 0.015911398
000120 3c e8 a1 ba 2c 4a 84 bb 7a 30 48 3c 7e 2a 7c 3c
       -0.0012352536 -0.0040371623 0.012218589 0.01539099
000130 e2 8c 30 3c 9c 2b 29 bc 90 c8 aa 3a d5 f0 3b bb
       0.010775777 -0.010325339 0.0013029743 -0.0028677483
000140 09 6e f0 3a a3 32 03 bc f8 6b 21 bc d9 77 60 bc
       0.001834334 -0.008007678 -0.009852402 -0.013700449
000150 f1 a6 c2 bb 58 14 f6 b7 df 13 94 3b 70 18 5f 3c
       -0.005940311 -2.9334959e-05 0.0045189704 0.013616666
000160 2c b0 51 bc d5 f9 83 3a ae c1 52 bb 79 66 82 bb
       -0.01279835 0.0010068963 -0.00321589 -0.003979501
000170 69 4f 1e bc 31 f5 21 bc b0 86 61 3b 05 9c 3b 3c
       -0.009662488 -0.009885118 0.0034412555 0.011450772
000180 6e 3a 12 3c 3c 34 36 bc ec 47 12 3c c4 ed 2c 3c
       0.008925064 -0.011120852 0.00892828 0.010554735
000190 7e 52 bc 39 44 a9 5d ba 05 2f 12 bb 91 83 dc 3b
       0.00035919616 -0.00084557035 -0.0022305858 0.006729551
0001a0 bc da a0 3a d0 e9 67 3b e5 3f 8b bc 43 24 8f bb
       0.0012272219 0.0035387166 -0.01699824 -0.0043683364
0001b0 18 f2 21 bb 44 42 09 bc 21 c7 ab 3b 1d bd 65 bb
       -0.002471095 -0.008377615 0.005242244 -0.0035055347
0001c0 be eb d6 bb ec 21 98 bc b1 1b a2 bb 81 6a ee ba
       -0.0065588644 -0.018570863 -0.0049471487 -0.00181897
0001d0 b8 62 19 3c 9b d7 d3 bb 1f fb 75 bc f4 be 4f bc
       0.009361915 -0.006464911 -0.015013485 -0.012679804
0001e0 e4 2e 33 3c 9d b9 12 bb df 2d dc 3a 5d 2d 3b bc
       0.010936473 -0.0022388466 0.0016798339 -0.01142439
0001f0 ad fa d7 ba 47 24 8f 3b 3f fe 95 bc b3 7f 22 3c
       -0.0016477905 0.0043683383 -0.01830971 0.009918141
000200 2d 10 74 bc 74 4c 29 3c 3c a7 cf bc 83 dc f7 3b
       -0.014896435 0.010333169 -0.025348298 0.007564129
000210 6b af 78 bc 4c a4 02 bc c4 32 af 3b 32 3d b1 bc
       -0.015178542 -0.007973742 0.005346628 -0.021635626
000220 16 3a 16 bb e6 08 e0 3b 23 02 a2 3b d4 50 53 3b
       -0.0022922806 0.0068369983 0.0049441024 0.0032244222
000230 68 cd 84 bb cf d4 80 38 4d 74 28 bb 6c 04 e4 3b
       -0.0040528066 6.143154e-05 -0.0025704086 0.006958535
000240 ed 55 8f bb a1 72 97 bc 66 04 ff 3b 48 ed 72 3b
       -0.004374257 -0.018487277 0.0077825068 0.00370677
000250 89 e7 fe bb b2 c4 27 bc 16 f0 08 3c 44 a7 27 3c
       -0.007779066 -0.010239767 0.008358022 0.01023275
000260 b4 93 a7 3c 17 b0 98 3a 77 bf 1f bb 13 fd b8 bb
       0.020456173 0.0011649159 -0.0024375597 -0.005645403
000270 2b 25 e1 bb 77 06 4a 3b 91 49 0e 3a 49 3b 8b 3b
       -0.006870886 0.0030826607 0.00054278324 0.0042490107
000280 a5 a8 5a 3c b8 72 b2 3c db 50 94 3b 4a e8 99 3c
       0.013345872 0.021783218 0.0045262403 0.018787522
000290 65 b1 9f 3c 90 42 11 3b ec 0c 9d 3c 81 ae 5d bc
       0.019493768 0.0022164918 0.0191712 -0.0135303745
0002a0 e4 c6 ac b8 e4 51 12 ba 8b a4 c7 bb 50 7f 74 3b
       -8.2386454e-05 -0.00055816607 -0.006092613 0.003730733
0002b0 ee 3a 08 bc 99 27 26 3c 1d dc fb ba 62 f5 83 bb
       -0.008314831 0.010141277 -0.0019215379 -0.0040270546
0002c0 ec 8a 46 bc 61 2a d7 bc 05 57 00 bc eb b9 8d 3b
       -0.0121180825 -0.026265325 -0.007833247 0.0043251417
0002d0 d9 7d 27 3c 87 11 db 39 bb 98 2c bc 65 c6 49 b9
       0.0102228755 0.00041783994 -0.010534461 -0.00019242761
0002e0 20 cd c0 3b e0 cf 99 bc 86 c4 7e bc 3e 15 07 3c
       0.005883828 -0.01877588 -0.0155497845 0.008244811
0002f0 4e 3d da bb db 2b ba bb 1b 58 18 bc e7 10 2c 3c
       -0.00666014 -0.0056814975 -0.00929835 0.010502077
000300 76 e0 8a bc 56 b6 4a 3a 4f a4 81 3b 24 52 83 bb
       -0.016952734 0.00077328586 0.0039563547 -0.0040075947
000310 3f 3e 13 bc be 6b 04 3c 39 c5 72 3c d8 c6 84 3c
       -0.008987009 0.008082328 0.014817529 0.016208097
000320 4e 7e 27 3a f9 85 03 3b e6 fb 35 3b 0e f7 ef bb
       0.00063893653 0.0020068868 0.0027768551 -0.0073231524
000330 99 ec 55 3c e6 05 48 bc 0b 08 51 3c 7e 66 52 3c
       0.013056898 -0.012208438 0.012758265 0.012841819
000340 4e 28 3e 3c 1d c4 90 bb 27 9a ff 3b 9f 31 17 3c
       0.011606289 -0.00441791 0.007800359 0.009228139
000350 89 8c b0 3b 5b 3e 4b bc fe d7 b5 bb 1f c6 9a 3b
       0.005387847 -0.012405003 -0.00554943 0.004723325
000360 a0 82 a6 3b 6f d5 07 bc 4d 51 05 39 da 82 a7 bc
       0.0050814897 -0.008290633 0.00012714155 -0.020448137
000370 f6 9a 5b bb ea cb 45 bc 84 90 12 3b 1e 7d 2a 3c
       -0.0033509112 -0.012072543 0.002236397 0.010405807
000380 fb fa 22 bc d9 64 21 3b e5 f7 44 bb 46 ed b8 3a
       -0.009947534 0.002462676 -0.0030054983 0.0014108799
000390 9c 8b fb 3a 52 e6 a5 bb a7 fe 08 bb 0c b5 14 3b
       0.0019191387 -0.0050628567 -0.0020903738 0.002269092
0003a0 b8 4f 0b 3c 31 b0 1c 3c 51 55 a2 3b 90 9e e1 3b
       0.008502893 0.009563492 0.004954018 0.006885357
0003b0 c1 46 2c bb a8 7a 96 3c b3 e3 85 3c 26 b5 3f 3b
       -0.002628729 0.018369034 0.016343927 0.002925226
0003c0 80 78 69 bb af 08 a2 bb 9d ed ff ba 06 66 19 bb
       -0.0035624802 -0.004944883 -0.001952577 -0.0023406758
0003d0 a9 e2 3f bc 18 dc b4 3b 68 43 99 3c f6 e6 a1 bc
       -0.011711755 0.0055194013 0.0187089 -0.019763451
0003e0 9b 53 ca 3c 6a c6 06 bb 57 b8 42 b9 ac 11 77 3c
       0.02469807 -0.0020565041 -0.00018569954 0.015079897
0003f0 de 91 52 bc a3 d2 1c 39 ec 6f a4 3b 72 87 93 3c
       -0.01285216 0.00014955788 0.005018225 0.018008921

model.model.tcn.0.conv2.bias f4 [16]
000000 cf cc 13 bc bf 7b 92 bd 50 ef 94 3d 1c 3a b4 3d
       -0.009020998 -0.07152509 0.07272208 0.08800146
000010 e0 69 73 bd 1c b4 54 bc 11 cc 9b bd e7 67 dc 3d
       -0.059427142 -0.012982395 -0.07607282 0.10762005
000020 82 58 30 bd c7 63 fc bd 42 11 00 be c7 93 22 bd
       -0.043053158 -0.123237185 -0.12506583 -0.039691713
000030 69 6e c8 bc 7b ce dc bd 79 9f c2 bd 3c 60 e5 3d
       -0.02446671 -0.107815705 -0.09503073 0.11199996

model.model.tcn.0.bn2.weight f4 [16]
000000 24 bd 80 3f 61 f2 7d 3f 95 60 7e 3f f6 c7 81 3f
       1.0057721 0.99197966 0.9936612 1.0139148
000010 11 8f 80 3f fd a1 82 3f 80 b5 7f 3f 59 1f 82 3f
       1.004366 1.0205685 0.9988632 1.0165817
000020 e4 63 80 3f 9a 98 81 3f 66 3c 82 3f ef bb 7d 3f
       1.0030484 1.0124695 1.0174682 0.9911489
000030 2c 91 81 3f 20 8e 81 3f bc 06 81 3f 46 cb 81 3f
       1.0122428 1.0121498 1.008018 1.0140159

model.model.tcn.0.bn2.bias f4 [16]
000000 84 f9 14 3b ae 5b 94 ba 22 12 f5 bb 24 58 83 3b
       0.002273173 -0.0011318827 -0.0074789682 0.00400831
000010 1e 93 d9 3a ba 54 6e 3c b9 63 9a 3b 00 f7 05 3c
       0.001659963 0.014546568 0.004711595 0.008176565
000020 a4 f7 18 ba 01 ce 89 3b 18 75 32 3c 0e 60 b1 bb
       -0.0005835241 0.004205466 0.010892175 -0.005413062
000030 a0 33 ae 3b 92 7e 03 3b 65 33 42 bb 14 c8 d7 3b
       0.005316213 0.0020064455 -0.0029632684 0.0065851305

model.model.tcn.0.bn2.running_mean f4 [16]
000000 32 ca 3a 3c f6 44 ec bd a8 3d 0f 3d e2 fd b8 3d
       0.011400746 -0.11536591 0.03497091 0.09032799
000010 38 bb 08 bd 09 a8 0c 3d 8b 2d d0 bd 34 e1 12 3e
       -0.03338167 0.03433994 -0.10164937 0.1434372
000020 ac 33 ed bc 96 7f c7 bd 5c 52 bb bd 46 26 da bd
       -0.028955303 -0.09741132 -0.09146568 -0.10651831
000030 ad 5e 85 bc 3e f0 d9 bd 5f a6 b6 bd a7 96 0a 3e
       -0.016280496 -0.10641526 -0.089184515 0.13534032

model.model.tcn.0.bn2.running_var f4 [16]
000000 ec 60 51 3b 3d 7e 3e 3b 51 7b 4e 3b f2 21 6e 3b
       0.003194864 0.0029066943 0.0031506608 0.003633615
000010 15 d3 20 3b c1 50 96 3b c9 6d 56 3b 91 30 8d 3b
       0.0024539877 0.0045872633 0.0032719246 0.004308768
000020 c6 46 09 3b f8 76 48 3b e3 9a 9d 3b 14 8f 51 3b
       0.0020946725 0.003058849 0.0048097237 0.003197615
000030 b6 44 1d 3b c7 97 9c 3a c2 d1 64 3b 87 86 3d 3b
       0.0023997254 0.0011947089 0.0034915064 0.0028919296

model.model.tcn.0.net.0.weight f4 [16, 218, 3]
000000 3c bb 91 3a 15 a8 cd 3c f2 9b b5 3c e6 49 09 3c
       0.0011118422 0.025104562 0.022169087 0.008379435
000010 a4 cf b6 3a 8e f6 14 3c c4 c3 01 3c df 1f e8 3b
       0.001394738 0.009091986 0.007920209 0.0070838775
000020 2c f3 47 3b 5c 2c 30 bb d5 40 34 bc 0b 3b 57 3a
       0.0030509932 -0.002688191 -0.011001785 0.0008210397
000030 04 f3 60 bb 2d d5 1d bc 17 d2 5d 3a 4c 57 83 bb
       -0.0034324536 -0.009633345 0.0008461787 -0.0040082093
000040 c0 ba 3e bc 99 c3 0c 3c 9c ae fe 3b 3d cb 02 3c
       -0.011641204 0.008591556 0.00777228 0.007983026
000050 c8 e4 7e 3a 2a 0b 3e bc f0 92 fe ba b7 1d bf ba
       0.0009723422 -0.011599341 -0.0019422453 -0.0014580999
000060 8d dc ba bb d0 ff 50 3b 98 aa 09 3c d0 da cf 3a
       -0.0057025612 0.0031890757 0.008402489 0.0015858058
000070 10 21 48 3c 62 ed 17 3b f8 32 b9 bb c3 c9 80 3b
       0.012214914 0.0023182263 -0.005651828 0.003930302
000080 a5 3f f3 b9 50 ba 88 bb e2 a5 87 3b 2b 5d 29 bc
       -0.0004639599 -0.004172601 0.004139648 -0.010337154
000090 f0 ed 13 3b 3f f0 d4 ba d6 ad c2 3a 1d bb 73 3c
       0.0022572242 -0.0016245915 0.0014852833 0.014876154
0000a0 be 4f cf 3b f1 8c ff bb 54 9d 8f 3c 23 7d 52 3c
       0.0063266447 -0.007798784 0.017531075 0.012847218
0000b0 4d c0 aa bb 39 16 4e bb 68 33 75 3b 4f f3 5c 3b
       -0.0052109123 -0.0031446351 0.0037414674 0.003371436
0000c0 9d 3f 94 3c aa 71 a6 bc 87 d4 57 bb d9 e9 0c 3c
       0.01809674 -0.020317871 -0.0032933073 0.0086006755
0000d0 78 ed 14 3a b3 48 9d ba 20 67 b0 bb 14 81 3c bb
       0.00056811376 -0.0011999815 -0.005383387 -0.002876346
0000e0 34 f0 2b bc 18 10 19 3b 7c 38 74 bb 57 bc 0e 3c
       -0.010494281 0.002335554 -0.0037265113 0.008711896
0000f0 6b a6 32 bb 60 45 7c bc c7 07 23 bb 3a 07 b7 3b
       -0.0027259837 -0.0153974 -0.0024876462 0.0055855783
000100 77 c3 b4 bb 63 27 42 3c 4d 0e 35 3c a9 51 cd bb
       -0.0055164653 0.011850211 0.011050773 -0.006265838
000110 3c 5c 0f bc 91 e7 90 bc c8 a9 55 bb cc 51 63 bc
       -0.008750018 -0.017688544 -0.0032602418 -0.013874482
000120 71 7b 16 bc f6 d3 5e bc a8 a2 96 3c 1c 4c 3f bb
       -0.009184704 -0.01360034 0.018388107 -0.0029189652
000130 4a 8f 49 ba be 3c 9c 3c af 78 2c 3c 46 d3 40 3c
       -0.0007688893 0.019071933 0.01052682 0.0117691215
000140 1b 7a b0 3c c5 ee 58 bb b1 95 3c 3c 57 0d b3 3b
       0.0215426 -0.0033101302 0.011510299 0.0054642367
000150 e7 da a6 3a ed b3 34 bc a1 82 2d bc 7b 4a 06 bc
       0.0012730033 -0.011029226 -0.010590226 -0.008196468
000160 91 2f 65 3b 79 93 37 bb 3a 13 68 bc c7 4c f9 bb
       0.0034970979 -0.0028011485 -0.01416474 -0.0076080295
000170 7d b8 0a 3c 82 59 55 bc c8 0c 81 3b 3b 80 67 3c
       0.008466837 -0.013021829 0.003938291 0.014129694
000180 61 e7 54 3a b9 79 2f bc 04 85 b7 3b 21 c6 bd 3c
       0.00081216363 -0.010710173 0.0056005735 0.023165764
000190 eb b4 3d 3b 6e 20 69 bc fb b2 b1 3b 2f ae 7b bc
       0.0028946947 -0.014228923 0.0054229475 -0.015361353
0001a0 66 39 3a 3c 7d 79 92 b9 93 0a 18 bc cc 88 a9 3c
       0.011366224 -0.00027937806 -0.009279865 0.020695113
0001b0 8e 6e 0b 3c 58 fa 3e 3c 0b ff 7c bb 0d 44 13 3c
       0.008510245 0.011656366 -0.0038604166 0.008988393
0001c0 4f ab e1 ba 6c ed 86 bb bd 6a 45 3c 38 b4 95 ba
       -0.0017217192 -0.0041176584 0.012049374 -0.0011421507
0001d0 33 2b 49 3c 68 54 2a 3c 60 e8 19 ba d1 a2 7f bc
       0.012278366 0.010396101 -0.00058711134 -0.015602783
0001e0 57 4d 47 bc 1f 25 75 3c 2e c5 57 3c 0e 18 5f 3c
       -0.012164435 0.014962464 0.01316957 0.013616575
0001f0 0f 6a 1c bc 76 a4 44 bc 41 df af 3a 6a 1e 01 bc
       -0.009546771 -0.012002101 0.0013417975 -0.007880786
000200 93 bd ba bb 4d 14 99 bc d3 42 4e 3c 60 1c 8e bc
       -0.0056988685 -0.018686438 0.012589174 -0.017347515
000210 9c f8 87 bc 19 ca 18 3b c4 f5 d2 bb 46 03 e1 3a
       -0.016598038 0.002331382 -0.006437989 0.0017167113
000220 1c 38 bd 3b 1a 98 2d bb 66 e0 d1 3c 68 49 40 ba
       0.005774511 -0.0026488365 0.025619697 -0.0007335157
000230 c2 58 f2 bb f2 b9 6c bb 65 3d 03 bc a1 0b be bb
       -0.0073958347 -0.0036121574 -0.008010243 -0.005799726
000240 7f 75 88 3b f1 09 2e bc 37 3b b8 3b c7 9f a1 3c
       0.0041643973 -0.010622487 0.0056222933 0.019729508
000250 25 fc 36 3c 11 76 9c bb 7f fc 31 bb b7 43 f5 bb
       0.011168514 -0.004774817 -0.0027158556 -0.007484879
000260 fc 5b 03 bc 64 a6 37 bc 71 7e 81 3c 25 e3 e0 bb
       -0.008017536 -0.011209104 0.015807362 -0.0068630152
000270 83 e5 b1 3b 54 3e 16 bc 7c b1 50 bc b4 80 44 bb
       0.0054289713 -0.009170134 -0.012737628 -0.002998394
000280 08 52 35 3c 25 1b 5c bc e9 c8 50 bc ff 7f fc bb
       0.011066921 -0.013434206 -0.012743213 -0.007705688
000290 7c 6d 27 3a 2d e6 c6 3b d1 b6 9d 3c b5 79 15 bb
       0.0006386859 0.0060699196 0.019252213 -0.0022808139
0002a0 85 72 55 bc 7a ed fc bb 1e a8 60 bb 61 de 72 3c
       -0.013027792 -0.007718739 -0.0034279893 0.014823527
0002b0 4a ed 23 3c cb a4 1d b9 c2 25 02 bc 8a f6 3a bc
       0.010005305 -0.00015034077 -0.0079435725 -0.011411319
0002c0 0a 6a 60 3c 17 ac 31 bc 32 23 04 3c fd cc 54 3c
       0.013697157 -0.010844252 0.008065032 0.012988326
0002d0 51 6e 7e bc 9d 11 7b bc c3 18 0d bc 14 86 40 3b
       -0.015529231 -0.015324024 -0.008611861 0.0029376792
0002e0 53 b1 ac 3b ec 12 d3 bb 34 b1 2f bb 70 fd 76 38
       0.005270162 -0.0064414646 -0.0026808502 5.8887003e-05
0002f0 80 3a d3 3b e0 b0 02 ba 76 6e 72 bc 79 57 06 39
       0.0064461827 -0.0004985463 -0.014796844 0.00012811822
000300 64 5a 83 bb dc b1 13 bc 80 ff ef 3a 53 af 68 3c
       -0.004008578 -0.009014573 0.0018310398 0.014201957
000310 f2 18 d2 ba 03 c9 a0 bb 21 bc 09 bb f9 07 9f 3b
       -0.0016029163 -0.004906775 -0.0021016675 0.0048532453
000320 56 21 90 3c 32 01 21 3c 47 1a f5 3b e8 b0 09 bb
       0.01759402 0.009826945 0.007479939 -0.0021009985
000330 51 08 1b 3c aa aa 59 bb 29 94 1c 3c 4d 9a 3c 3b
       0.009462432 -0.0033213296 0.0095568085 0.0028778494
000340 11 00 88 3c 3a cb 80 bb a6 2e f4 bb 30 2c 1b bb
       0.016601594 -0.0039304765 -0.00745185 -0.002367746
000350 c4 29 fc 3c 55 dc 23 3c ef 1a bd 3b d6 b0 f5 bb
       0.030781634 0.010001262 0.005771033 -0.007497887
000360 c1 53 af bb 53 fb 8c 3c 5d 3d 51 3c 4e 84 8e 3c
       -0.0053505604 0.017209684 0.012770978 0.017397072
000370 6c 04 a5 bc 02 b8 5e bc 62 98 41 39 33 66 cd 3b
       -0.02014371 -0.013593676 0.00018462681 0.0062682866
000380 14 11 ad 3c 47 db 35 3c 34 90 68 bb a4 be 3c 3c
       0.021126308 0.011099643 -0.0035486342 0.011520062
000390 8e c6 b2 ba 44 cc 04 b9 c0 98 49 bc a9 4d 0e bb
       -0.0013639496 -0.00012664596 -0.012304485 -0.002171377
0003a0 0f d7 42 bc 07 32 d1 3b 40 95 13 3b fe 1c c1 ba
       -0.011892094 0.0063841376 0.002251938 -0.0014733372
0003b0 38 81 e8 3b e3 3d dc bb 66 7e 00 3c bd 37 e0 bb
       0.007095482 -0.0067212447 0.007842636 -0.006842582
0003c0 68 72 33 3a ee d9 3e 3c 2d 61 b2 bb c1 e2 98 3c
       0.0006845356 0.011648638 -0.005443713 0.018662812
0003d0 8f 19 ea 3b 65 6e a3 bb 6e de 9d 3c 51 2d 45 bc
       0.00714416 -0.0049875253 0.019271102 -0.01203473
0003e0 98 96 36 bc 0f 75 97 3b fb 46 e7 bb 53 7e 6e bc
       -0.011144303 0.004622109 -0.007058022 -0.014556485
0003f0 e6 23 74 3c d1 e5 f3 3b 48 1f 1e 3b 87 b3 97 bb
       0.014901137 0.0074431677 0.0024127532 -0.0046295556

model.model.tcn.0.net.0.bias f4 [16]
000000 f4 45 b0 3b e3 9e 09 bd 56 42 d5 3c ad 15 1b bd
       0.005379433 -0.03359879 0.026032608 -0.03786247
000010 77 a2 9c bc 4c db a3 bc 15 bb ae bc 2e 9b b8 bb
       -0.019120438 -0.02000203 -0.021329442 -0.0056337332
000020 e1 fa 8b 3c c5 97 32 bc d1 e6 18 3d 89 f8 e9 3a
       0.017087402 -0.0109004425 0.0373295 0.0017850559
000030 a2 aa 6f 3c c9 93 ab bc 6e 36 0d 3d 16 87 b4 bc
       0.014628084 -0.020944493 0.034475736 -0.02203707

model.model.tcn.0.net.1.weight f4 [16]
000000 5a 44 7e 3f ce d9 7e 3f fa 6c 81 3f 3c 1e 80 3f
       0.99323046 0.99551094 1.0111382 1.0009227
000010 01 08 7f 3f 56 07 81 3f 6d cf 80 3f 65 5b 7d 3f
       0.9962159 1.0080364 1.0063301 0.9896758
000020 e5 7e 7e 3f 2e 24 80 3f 37 b3 7e 3f 58 52 7c 3f
       0.99412376 1.0011041 0.9949221 0.98563147
000030 6d 54 7d 3f 69 c9 7d 3f 1c 59 7d 3f 8f 8e 80 3f
       0.9895695 0.9913545 0.98964095 1.0043505

model.model.tcn.0.net.1.bias f4 [16]
000000 16 a2 c6 ba 9f db b2 3a ab e1 55 3b eb 33 b8 3b
       -0.0015154507 0.0013645774 0.003263573 0.0056214235
000010 3d ce 23 3a aa 21 ae ba 00 67 a0 ba a1 64 0e bc
       0.00062486884 -0.0013285179 -0.0012237728 -0.008690984
000020 8d 4e 98 3a 66 01 27 3a 00 cb bd 3a 1f 29 c2 bb
       0.001162009 0.0006370753 0.0014480054 -0.005925312
000030 82 da d2 bb fe d8 b8 bb c2 5e f4 bb e9 63 0a 3b
       -0.0064347396 -0.005641102 -0.007457585 0.002111668

model.model.tcn.0.net.1.running_mean f4 [16]
000000 88 c5 d4 3a df 83 06 bd 84 d1 db 3c fa 56 18 bd
       0.0016233185 -0.032840606 0.026833303 -0.037192322
000010 9c af 8d bc 53 35 b2 bc f8 a2 b8 bc a7 a1 5e bc
       -0.017295651 -0.021753943 -0.022538647 -0.013588346
000020 88 39 b4 3c 1c e7 2c bc 88 0a 08 3d 4c 54 29 3b
       0.02200009 -0.010553148 0.03321317 0.0025837598
000030 bb 15 fc 3b b8 bd ec bc 9e 53 00 3d 6b b5 c1 bc
       0.00769302 -0.028899059 0.031329744 -0.023646077

model.model.tcn.0.net.1.running_var f4 [16]
000000 f6 a2 c9 3c a9 92 d5 3c 48 ce e6 3b 5d 7d 28 3c
       0.024613839 0.02607091 0.0070436336 0.010283795
000010 b4 dd 50 3c 6e c5 1c 3c 73 72 17 3c f3 fd a0 3d
       0.012748171 0.009568555 0.009243595 0.07860937
000020 24 81 9c 3c 23 8d 00 3c fc 0b 6d 3c 33 50 4e 3d
       0.019104548 0.00784615 0.014468189 0.050369453
000030 61 1a a4 3d 15 7a 07 3d 7c 09 88 3d 08 ae 38 3c
       0.08012844 0.03307541 0.06642434 0.011271961

model.model.tcn.0.net.5.weight f4 [16, 16, 3]
000000 af 2f 7c 3b 5a 6e bd bc cf f6 f0 ba 2e a2 88 ba
       0.003848057 -0.023123909 -0.0018384102 -0.001042431
000010 82 74 ac bc 6a 9b 64 bc 29 8e 09 3c 00 0a 70 3c
       -0.021051649 -0.013953069 0.00839571 0.014650822
000020 8c 66 6b 3c ae bf 95 3b f5 bf 0a 3b 55 82 9d bc
       0.014367711 0.004569969 0.0021171544 -0.019227186
000030 c7 13 d6 3a 3d 58 bc bb e8 d4 c4 3c 70 cd 37 3c
       0.0016332798 -0.0057478235 0.024027303 0.011218414
000040 04 d9 67 3b cb ba bb 3a ff 50 7f 3b 3c 17 f7 3b
       0.0035377154 0.0014322636 0.003895819 0.0075406116
000050 b8 84 50 ba 3d d5 e3 bb 0b 48 cb 3a 1a 62 eb bb
       -0.0007954347 -0.00695291 0.0015509141 -0.0071833255
000060 3a 66 35 3b 6c 7f 16 bc 47 7a 3c bc 3b 80 14 3b
       0.002767934 -0.009185653 -0.011503763 0.002265944
000070 97 f7 15 3c bc bc 0f 3b 9a 6e 97 3b 9c 5a b2 b8
       0.009153268 0.0021932563 0.004621339 -8.504579e-05
000080 2a b2 c4 bb e1 85 b0 3c 05 4d 21 bc 6b 90 50 3a
       -0.006002684 0.021548213 -0.009845023 0.000795609
000090 5d 61 c1 bb 8e af 0b bc fd f7 bc 3c 53 12 69 bb
       -0.005901499 -0.008525742 0.023067469 -0.00355639
0000a0 87 57 b7 bb 31 d0 2c 3c 6e db 2c 3c 65 e3 45 3b
       -0.005595151 0.010547684 0.010550363 0.0030195352
0000b0 0d 23 a2 3c b1 2d d0 39 80 31 13 3c a5 08 67 3b
       0.019792104 0.00039706894 0.00898397 0.0035252955
0000c0 fb 92 b4 3b 07 92 88 ba ec 07 d6 3b 0c fb 0c bc
       0.0055106855 -0.0010419496 0.006531706 -0.008604776
0000d0 c7 b0 2a bc 4f 98 96 bb 20 a3 81 3b b5 09 33 3c
       -0.010418124 -0.0045957933 0.0039562136 0.010927607
0000e0 b7 47 51 bc 78 f3 7e 3b af f9 08 bc 9d 8a e1 3b
       -0.012773446 0.0038902443 -0.00836031 0.006882979
0000f0 06 bd 96 bc 1d cd 89 ba cf fc bc bc 40 2a a7 bc
       -0.01840068 -0.0010513399 -0.023069767 -0.020405889
000100 96 16 82 bc 05 25 65 3b bd b2 4f bc 5e e4 7f bc
       -0.01587991 0.0034964692 -0.012676892 -0.015618412
000110 f7 d9 7d bc ad a2 23 bc 1a 5e ad 3b 9f 58 82 3c
       -0.015493861 -0.009987515 0.005290759 0.015911398
000120 3c e8 a1 ba 2c 4a 84 bb 7a 30 48 3c 7e 2a 7c 3c
       -0.0012352536 -0.0040371623 0.012218589 0.01539099
000130 e2 8c 30 3c 9c 2b 29 bc 90 c8 aa 3a d5 f0 3b bb
       0.010775777 -0.010325339 0.0013029743 -0.0028677483
000140 09 6e f0 3a a3 32 03 bc f8 6b 21 bc d9 77 60 bc
       0.001834334 -0.008007678 -0.009852402 -0.013700449
000150 f1 a6 c2 bb 58 14 f6 b7 df 13 94 3b 70 18 5f 3c
       -0.005940311 -2.9334959e-05 0.0045189704 0.013616666
000160 2c b0 51 bc d5 f9 83 3a ae c1 52 bb 79 66 82 bb
       -0.01279835 0.0010068963 -0.00321589 -0.003979501
000170 69 4f 1e bc 31 f5 21 bc b0 86 61 3b 05 9c 3b 3c
       -0.009662488 -0.009885118 0.0034412555 0.011450772
000180 6e 3a 12 3c 3c 34 36 bc ec 47 12 3c c4 ed 2c 3c
       0.008925064 -0.011120852 0.00892828 0.010554735
000190 7e 52 bc 39 44 a9 5d ba 05 2f 12 bb 91 83 dc 3b
       0.00035919616 -0.00084557035 -0.0022305858 0.006729551
0001a0 bc da a0 3a d0 e9 67 3b e5 3f 8b bc 43 24 8f bb
       0.0012272219 0.0035387166 -0.01699824 -0.0043683364
0001b0 18 f2 21 bb 44 42 09 bc 21 c7 ab 3b 1d bd 65 bb
       -0.002471095 -0.008377615 0.005242244 -0.0035055347
0001c0 be eb d6 bb ec 21 98 bc b1 1b a2 bb 81 6a ee ba
       -0.0065588644 -0.018570863 -0.0049471487 -0.00181897
0001d0 b8 62 19 3c 9b d7 d3 bb 1f fb 75 bc f4 be 4f bc
       0.009361915 -0.006464911 -0.015013485 -0.012679804
0001e0 e4 2e 33 3c 9d b9 12 bb df 2d dc 3a 5d 2d 3b bc
       0.010936473 -0.0022388466 0.0016798339 -0.01142439
0001f0 ad fa d7 ba 47 24 8f 3b 3f fe 95 bc b3 7f 22 3c
       -0.0016477905 0.0043683383 -0.01830971 0.009918141
000200 2d 10 74 bc 74 4c 29 3c 3c a7 cf bc 83 dc f7 3b
       -0.014896435 0.010333169 -0.025348298 0.007564129
000210 6b af 78 bc 4c a4 02 bc c4 32 af 3b 32 3d b1 bc
       -0.015178542 -0.007973742 0.005346628 -0.021635626
000220 16 3a 16 bb e6 08 e0 3b 23 02 a2 3b d4 50 53 3b
       -0.0022922806 0.0068369983 0.0049441024 0.0032244222
000230 68 cd 84 bb cf d4 80 38 4d 74 28 bb 6c 04 e4 3b
       -0.0040528066 6.143154e-05 -0.0025704086 0.006958535
000240 ed 55 8f bb a1 72 97 bc 66 04 ff 3b 48 ed 72 3b
       -0.004374257 -0.018487277 0.0077825068 0.00370677
000250 89 e7 fe bb b2 c4 27 bc 16 f0 08 3c 44 a7 27 3c
       -0.007779066 -0.010239767 0.008358022 0.01023275
000260 b4 93 a7 3c 17 b0 98 3a 77 bf 1f bb 13 fd b8 bb
       0.020456173 0.0011649159 -0.0024375597 -0.005645403
000270 2b 25 e1 bb 77 06 4a 3b 91 49 0e 3a 49 3b 8b 3b
       -0.006870886 0.0030826607 0.00054278324 0.0042490107
000280 a5 a8 5a 3c b8 72 b2 3c db 50 94 3b 4a e8 99 3c
       0.013345872 0.021783218 0.0045262403 0.018787522
000290 65 b1 9f 3c 90 42 11 3b ec 0c 9d 3c 81 ae 5d bc
       0.019493768 0.0022164918 0.0191712 -0.0135303745
0002a0 e4 c6 ac b8 e4 51 12 ba 8b a4 c7 bb 50 7f 74 3b
       -8.2386454e-05 -0.00055816607 -0.006092613 0.003730733
0002b0 ee 3a 08 bc 99 27 26 3c 1d dc fb ba 62 f5 83 bb
       -0.008314831 0.010141277 -0.0019215379 -0.0040270546
0002c0 ec 8a 46 bc 61 2a d7 bc 05 57 00 bc eb b9 8d 3b
       -0.0121180825 -0.026265325 -0.007833247 0.0043251417
0002d0 d9 7d 27 3c 87 11 db 39 bb 98 2c bc 65 c6 49 b9
       0.0102228755 0.00041783994 -0.010534461 -0.00019242761
0002e0 20 cd c0 3b e0 cf 99 bc 86 c4 7e bc 3e 15 07 3c
       0.005883828 -0.01877588 -0.0155497845 0.008244811
0002f0 4e 3d da bb db 2b ba bb 1b 58 18 bc e7 10 2c 3c
       -0.00666014 -0.0056814975 -0.00929835 0.010502077
000300 76 e0 8a bc 56 b6 4a 3a 4f a4 81 3b 24 52 83 bb
       -0.016952734 0.00077328586 0.0039563547 -0.0040075947
000310 3f 3e 13 bc be 6b 04 3c 39 c5 72 3c d8 c6 84 3c
       -0.008987009 0.008082328 0.014817529 0.016208097
000320 4e 7e 27 3a f9 85 03 3b e6 fb 35 3b 0e f7 ef bb
       0.00063893653 0.0020068868 0.0027768551 -0.0073231524
000330 99 ec 55 3c e6 05 48 bc 0b 08 51 3c 7e 66 52 3c
       0.013056898 -0.012208438 0.012758265 0.012841819
000340 4e 28 3e 3c 1d c4 90 bb 27 9a ff 3b 9f 31 17 3c
       0.011606289 -0.00441791 0.007800359 0.009228139
000350 89 8c b0 3b 5b 3e 4b bc fe d7 b5 bb 1f c6 9a 3b
       0.005387847 -0.012405003 -0.00554943 0.004723325
000360 a0 82 a6 3b 6f d5 07 bc 4d 51 05 39 da 82 a7 bc
       0.0050814897 -0.008290633 0.00012714155 -0.020448137
000370 f6 9a 5b bb ea cb 45 bc 84 90 12 3b 1e 7d 2a 3c
       -0.0033509112 -0.012072543 0.002236397 0.010405807
000380 fb fa 22 bc d9 64 21 3b e5 f7 44 bb 46 ed b8 3a
       -0.009947534 0.002462676 -0.0030054983 0.0014108799
000390 9c 8b fb 3a 52 e6 a5 bb a7 fe 08 bb 0c b5 14 3b
       0.0019191387 -0.0050628567 -0.0020903738 0.002269092
0003a0 b8 4f 0b 3c 31 b0 1c 3c 51 55 a2 3b 90 9e e1 3b
       0.008502893 0.009563492 0.004954018 0.006885357
0003b0 c1 46 2c bb a8 7a 96 3c b3 e3 85 3c 26 b5 3f 3b
       -0.002628729 0.018369034 0.016343927 0.002925226
0003c0 80 78 69 bb af 08 a2 bb 9d ed ff ba 06 66 19 bb
       -0.0035624802 -0.004944883 -0.001952577 -0.0023406758
0003d0 a9 e2 3f bc 18 dc b4 3b 68 43 99 3c f6 e6 a1 bc
       -0.011711755 0.0055194013 0.0187089 -0.019763451
0003e0 9b 53 ca 3c 6a c6 06 bb 57 b8 42 b9 ac 11 77 3c
       0.02469807 -0.0020565041 -0.00018569954 0.015079897
0003f0 de 91 52 bc a3 d2 1c 39 ec 6f a4 3b 72 87 93 3c
       -0.01285216 0.00014955788 0.005018225 0.018008921

model.model.tcn.0.net.5.bias f4 [16]
000000 cf cc 13 bc bf 7b 92 bd 50 ef 94 3d 1c 3a b4 3d
       -0.009020998 -0.07152509 0.07272208 0.08800146
000010 e0 69 73 bd 1c b4 54 bc 11 cc 9b bd e7 67 dc 3d
       -0.059427142 -0.012982395 -0.07607282 0.10762005
000020 82 58 30 bd c7 63 fc bd 42 11 00 be c7 93 22 bd
       -0.043053158 -0.123237185 -0.12506583 -0.039691713
000030 69 6e c8 bc 7b ce dc bd 79 9f c2 bd 3c 60 e5 3d
       -0.02446671 -0.107815705 -0.09503073 0.11199996

model.model.tcn.0.net.6.weight f4 [16]
000000 24 bd 80 3f 61 f2 7d 3f 95 60 7e 3f f6 c7 81 3f
       1.0057721 0.99197966 0.9936612 1.0139148
000010 11 8f 80 3f fd a1 82 3f 80 b5 7f 3f 59 1f 82 3f
       1.004366 1.0205685 0.9988632 1.0165817
000020 e4 63 80 3f 9a 98 81 3f 66 3c 82 3f ef bb 7d 3f
       1.0030484 1.0124695 1.0174682 0.9911489
000030 2c 91 81 3f 20 8e 81 3f bc 06 81 3f 46 cb 81 3f
       1.0122428 1.0121498 1.008018 1.0140159

model.model.tcn.0.net.6.bias f4 [16]
000000 84 f9 14 3b ae 5b 94 ba 22 12 f5 bb 24 58 83 3b
       0.002273173 -0.0011318827 -0.0074789682 0.00400831
000010 1e 93 d9 3a ba 54 6e 3c b9 63 9a 3b 00 f7 05 3c
       0.001659963 0.014546568 0.004711595 0.008176565
000020 a4 f7 18 ba 01 ce 89 3b 18 75 32 3c 0e 60 b1 bb
       -0.0005835241 0.004205466 0.010892175 -0.005413062
000030 a0 33 ae 3b 92 7e 03 3b 65 33 42 bb 14 c8 d7 3b
       0.005316213 0.0020064455 -0.0029632684 0.0065851305

model.model.tcn.0.net.6.running_mean f4 [16]
000000 32 ca 3a 3c f6 44 ec bd a8 3d 0f 3d e2 fd b8 3d
       0.011400746 -0.11536591 0.03497091 0.09032799
000010 38 bb 08 bd 09 a8 0c 3d 8b 2d d0 bd 34 e1 12 3e
       -0.03338167 0.03433994 -0.10164937 0.1434372
000020 ac 33 ed bc 96 7f c7 bd 5c 52 bb bd 46 26 da bd
       -0.028955303 -0.09741132 -0.09146568 -0.10651831
000030 ad 5e 85 bc 3e f0 d9 bd 5f a6 b6 bd a7 96 0a 3e
       -0.016280496 -0.10641526 -0.089184515 0.13534032

model.model.tcn.0.net.6.running_var f4 [16]
000000 ec 60 51 3b 3d 7e 3e 3b 51 7b 4e 3b f2 21 6e 3b
       0.003194864 0.0029066943 0.0031506608 0.003633615
000010 15 d3 20 3b c1 50 96 3b c9 6d 56 3b 91 30 8d 3b
       0.0024539877 0.0045872633 0.0032719246 0.004308768
000020 c6 46 09 3b f8 76 48 3b e3 9a 9d 3b 14 8f 51 3b
       0.0020946725 0.003058849 0.0048097237 0.003197615
000030 b6 44 1d 3b c7 97 9c 3a c2 d1 64 3b 87 86 3d 3b
       0.0023997254 0.0011947089 0.0034915064 0.0028919296

model.model.tcn.0.downsample.weight f4 [16, 218, 1]
000000 6e ca 9b bc 12 11 d9 3a cb 83 0f 3b 17 69 97 3c
       -0.019017424 0.0016560873 0.0021898623 0.018482728
000010 b0 97 23 3a 29 81 6a 3c 15 1f f7 3b 75 74 db bc
       0.000624056 0.014313021 0.007541547 -0.02678893
000020 f3 8f 30 3a 9a da 63 bc 79 a5 d6 3b bb d7 60 bb
       0.00067353173 -0.013907099 0.0065504876 -0.0034308273
000030 4c 61 89 3c c1 d6 1d bb 54 ec ad 3c 41 2d dc 3a
       0.016770028 -0.0024084302 0.021230854 0.0016798155
000040 cb ed 51 bb c3 4f c9 3b 23 f5 d0 bb 1e af 61 3c
       -0.0032032605 0.0061435415 -0.006376879 0.013774661
000050 10 d8 a0 bb ed 38 52 bb 29 01 2e ba 99 1a bb ba
       -0.004908569 -0.0032077387 -0.0006637746 -0.0014274894
000060 39 19 3a 3c df 92 dc 3a 19 be 0f bc 6e c2 bd 3a
       0.011358553 0.0016828439 -0.00877335 0.00144775
000070 6f 85 a0 bb f5 85 3a 3b eb 1a 08 bc 9f 9c 92 3b
       -0.004898719 0.0028461192 -0.008307199 0.004474237
000080 5a db e9 3b 66 13 69 3b f2 b0 74 3c 34 91 44 bc
       0.0071367444 0.003556454 0.014934765 -0.01199751
000090 d8 aa 0d bc 42 f8 6e 3a 6b 95 b9 bb e8 d1 49 bc
       -0.008646689 0.0009115973 -0.005663564 -0.012318112
0000a0 45 87 f3 3b e3 68 36 bc 3c f8 61 bc 16 27 30 bc
       0.007431897 -0.011133405 -0.013792094 -0.010751506
0000b0 a8 e6 cd 3b ed 98 e2 bb cc b5 94 ba 9b 83 38 3c
       0.0062836 -0.006915203 -0.0011345684 0.011261846
0000c0 99 8e 87 bc 87 87 7a 3c 1b 18 61 bc 00 f4 5b 3b
       -0.016547488 0.015291101 -0.013738657 0.0033562183
0000d0 10 48 8e 3c 4b c9 91 bb 1a 39 c0 bb d0 d0 3d 3b
       0.017368346 -0.004449045 -0.005866182 0.0028963573
0000e0 a9 0d 0f bb c6 77 8d bb a9 6f 86 bb 61 7c 3b 39
       -0.002182821 -0.0043172566 -0.0041026664 0.00017880044
0000f0 cf ae ed 3a 35 34 0f bb 62 66 93 3b 6e 04 c4 bb
       0.0018133762 -0.0021851186 0.004498289 -0.0059819734
000100 2e 25 6b bc 4e 44 c3 bb ba 4e b9 bb 88 29 71 3c
       -0.014352126 -0.0059590703 -0.005655137 0.0147193745
000110 7f 5e 6c bb df 96 24 bb 77 4a 55 bb a1 2a 0a 3c
       -0.0036067066 -0.002511434 -0.0032545605 0.008433015
000120 b8 fb e9 bc 1c f4 7a bc 39 09 05 3d 24 a5 1c 3c
       -0.028562412 -0.015316989 0.0324795 0.009560857
000130 43 18 a4 3a 93 d7 0e ba b0 f0 03 bc 4f e3 e5 ba
       0.0012519438 -0.0005448993 -0.00805299 -0.0017539057
000140 cd e3 38 bb 03 0a 51 bb ed 65 af bb b8 7f 55 3b
       -0.0028211952 -0.0031896837 -0.0053527267 0.0032577347
000150 6c b3 1e bc 5f d4 2d 3c aa 1c ae 3b 44 79 39 3c
       -0.009686332 0.010609715 0.0053134756 0.011320416
000160 8d bd ac bb a4 d5 89 3b d1 2d 29 bc d1 d7 0c ba
       -0.0052716197 0.004206376 -0.010325865 -0.00053727353
000170 a3 3b d2 bb 86 10 5f 3c a8 54 91 3c fc 71 1e 3c
       -0.0064158007 0.013614779 0.017740563 0.009670731
000180 be c3 a7 bc a9 c5 8a bb 77 57 01 bc 61 27 b7 bc
       -0.02047908 -0.0042349887 -0.007894388 -0.022357645
000190 31 76 dd 3b cf f2 67 bb 37 d2 a1 3b 45 6f fb 3a
       0.0067584743 -0.0035392528 0.0049383896 0.0019182941
0001a0 9d 32 fa bb f5 59 9d bb 17 b3 97 bb a9 23 8f 3c
       -0.007635428 -0.0048019835 -0.0046295035 0.017473059
0001b0 a5 0a 78 bb b4 a6 00 bd 97 a8 af b9 c8 3b da bb
       -0.0037848142 -0.03140898 -0.0003350421 -0.0066599585
0001c0 dd a3 18 3c c0 fd 0e bc e8 5e 26 bb 0b b2 b9 ba
       0.009316412 -0.008727491 -0.0025386158 -0.0014167441
0001d0 85 ff fd 3b f4 04 cd 3b 8e 93 03 bc 9c 93 03 3b
       0.0077514076 0.006256694 -0.008030785 0.0020076996
0001e0 76 91 b8 3b cd 40 41 3c 4b 11 b4 bb b0 de 6d bc
       0.0056325747 0.011795235 -0.0054952255 -0.014518425
0001f0 46 45 9d bb 17 57 e1 3b d5 d5 79 bc 8f 26 2b bb
       -0.004799518 0.006876837 -0.015248735 -0.0026115512
000200 2f 1d 05 bb 63 5e b6 bb cc be d9 3c 1a 55 f0 ba
       -0.0020311584 -0.005565451 0.026580237 -0.0018335909
000210 e2 d4 ff 3a 00 b0 2d bc b0 3e 21 3c 3b 1d 00 ba
       0.00195184 -0.010601044 0.009841606 -0.0004887168
000220 8a 99 aa 3a ec 93 bf ba ad f6 03 bc a8 e8 73 ba
       0.0013015729 -0.0014616228 -0.008054418 -0.0009304383
000230 69 7e fd ba 07 b1 cb bb 94 f8 2f bb 3d c0 73 3a
       -0.0019340041 -0.0062161717 -0.0026851045 0.000929836
000240 d0 63 89 38 bd 73 79 bc 78 bf 34 3c ce 51 01 bd
       6.5512606e-05 -0.015225348 0.011031978 -0.031572156
000250 13 16 11 bc eb 83 0b bc 15 f1 25 bb 11 37 95 3b
       -0.008855361 -0.008515338 -0.0025320698 0.0045536836
000260 a1 5e ff 3a 3b 71 3c 3c 72 a6 ce bb 83 b5 14 3c
       0.0019483158 0.011501606 -0.006306463 0.009076479
000270 1b 15 00 3c f1 b1 b4 bc 47 c5 9a 3b 0d 90 84 3b
       0.007817532 -0.022057505 0.0047232243 0.0040454925
000280 94 54 85 3b a7 67 4d bc 4e d3 f0 bb 84 33 3a 3c
       0.0040689204 -0.01253692 -0.007349408 0.011364821
000290 dd 7b 1a bb 1a 70 f9 3b d0 12 8a ba d1 74 9a 3b
       -0.0023572363 0.0076122405 -0.0010534171 0.0047136326
0002a0 22 b3 be 3b e6 8b 92 3c ac 97 04 bc 1b 5c be 3b
       0.005819694 0.017888974 -0.008092802 0.0058093197
0002b0 99 e2 e8 bb 3b 8b 9b bb 9f 03 06 3b 26 95 18 bb
       -0.0071070907 -0.004746822 0.0020448936 -0.0023282259
0002c0 de e3 b1 3c 1a a8 0f 3b 58 64 b5 3b 31 0e 9b bc
       0.0217151 0.0021920265 0.0055356435 -0.018927665
0002d0 c5 ac 8b 3b a2 c6 94 bb 02 c2 43 3c 4e 59 06 bc
       0.004262539 -0.0045402804 0.011948111 -0.008200003
0002e0 e0 d8 50 3c 2f 1b 14 bb ba 68 72 3b a8 ee 9b bc
       0.0127470195 -0.002259921 0.0036988691 -0.019034699
0002f0 67 19 b8 bc f9 21 a9 3b b9 76 16 bc f3 3d 1a bc
       -0.02247305 0.0051615206 -0.009183579 -0.009414184
000300 03 bd ed 3a 09 1b 13 bc 40 65 ba bb 3f 0d 96 bb
       0.0018137995 -0.008978614 -0.0056883395 -0.004579216
000310 f5 1b ee ba 9f 34 9d bc f7 07 57 bb e9 f4 6f bc
       -0.0018166291 -0.01919013 -0.0032811144 -0.0146457935
000320 37 47 04 bb 5e 15 a7 3b 46 d1 f7 bb 66 fe e5 3b
       -0.002018405 0.0050989827 -0.007562789 0.007018852
000330 0e c0 7d bc 3a 30 20 3b 29 4d 14 3c b7 14 f1 3b
       -0.015487684 0.0024442808 0.0090516 0.0073572057
000340 3f a7 58 bb 45 0a 9d bb b1 c3 3c bc ff 8b 80 ba
       -0.003305867 -0.004792484 -0.011521266 -0.0009807347
000350 ec c3 ac b9 48 3a 65 3b 9e fc 5b bb 20 97 82 3c
       -0.0003295237 0.0034977365 -0.003356732 0.015941203
000360 85 14 00 ba 56 5b b0 bb 0a 36 cd 3c e2 c3 72 3b
       -0.000488587 -0.005381982 0.025050182 0.0037043025
000370 21 5b d7 ba 96 1f ed ba 7d 54 15 bb dc 89 bb 3b
       -0.0016430357 -0.0018091078 -0.0022785955 0.005723221
000380 25 e9 60 ba 52 92 6e 3c 31 1c 58 bc 8e 71 d1 bb
       -0.0008579663 0.014561253 -0.013190315 -0.0063917106
000390 bc 0a 41 bc 35 e0 bb 3a 62 0e 44 bc 35 29 08 3a
       -0.011782344 0.0014333787 -0.01196632 0.00051941286
0003a0 d0 84 8c 3a ee ef 4e 3c a4 cc 0a bc c2 8c 05 bb
       0.0010720734 0.012630446 -0.008471642 -0.0020378088
0003b0 f8 f7 83 bb 3f b6 0a 3c 9a fc 98 bb 97 41 03 bb
       -0.004027363 0.008466302 -0.0046687843 -0.0020028108
0003c0 40 14 b3 3a d7 de e9 3b 23 b7 60 bb 1a b5 ad bb
       0.0013662651 0.0071371603 -0.0034288845 -0.00530113
0003d0 c4 d0 6f 3c 9e 2d 32 3b 80 60 81 bc f2 90 b6 3b
       0.014637176 0.0027187834 -0.015793085 0.005571478
0003e0 4b 50 b3 bc b2 86 f5 bb 69 ff 18 bc 41 ba 59 3b
       -0.021888873 -0.0074928636 -0.009338238 0.0033222588
0003f0 22 67 43 3a c0 98 49 3c 12 50 bf bb 44 c4 9c bc
       0.00074540277 0.012304485 -0.0058384025 -0.019136555

model.model.tcn.0.downsample.bias f4 [16]
000000 c6 28 89 3c 42 df 25 bd 34 0b 97 bc 53 8a 41 ba
       0.016743075 -0.04049612 -0.01843796 -0.00073829776
000010 f5 b3 df bc c3 32 d7 3c 63 ac b7 3c 4f 80 6c 3d
       -0.02730749 0.026269322 0.022421068 0.057739552
000020 79 c2 17 bc 58 bb 1c bc 83 95 6b 3d d9 24 6e bd
       -0.0092626745 -0.009566151 0.057515632 -0.05814061
000030 eb 9e 18 bc 6d 38 a2 bc b4 4d 80 bd f5 55 39 3d
       -0.009315233 -0.019802297 -0.06264821 0.04524799
