s2s/src/main/python/checkpoints/epoch=9-step=3650-v3.ckpt (torch, 282079 bytes, 143 tensors)

model.model.tcn.0.conv1.weight f4 [16, 218, 3]
000000 06 15 b0 ba b4 6c d4 3c 24 c0 e2 3c ed 4b f9 3b
       -0.0013434 0.02593074 0.02767951 0.007607928
000010 da 05 0d 3b f2 04 3c 3c 1f dd e0 3b c6 ea d1 3b
       0.002151838 0.011475788 0.006862297 0.006406161
000020 f8 dd 81 3b 66 72 78 bb 29 a1 41 bc f8 77 f8 3a
       0.0039632283 -0.0037909984 -0.011818209 0.0018956652
000030 4e 42 99 bb ec d7 25 bc d0 2d 21 3b 79 71 a3 bb
       -0.0046770936 -0.010122281 0.0024593957 -0.004987892
000040 63 76 34 bc 1f 47 2e 3c a4 43 e7 3b 8d 43 15 3c
       -0.011014554 0.010637074 0.007057624 0.009110344
000050 26 d9 6f 3b e3 50 42 bc 81 f0 bc b8 a4 8a c0 3a
       0.0036597936 -0.011860105 -9.009336e-05 0.0014689756
000060 8c 37 b6 bb 6e ec ad 3b d6 df 3e 3c 94 c0 fa 3a
       -0.005560821 0.0053077256 0.011650046 0.0019130879
000070 59 d7 6d 3c df bd b9 3b 01 ae ee bb fa 08 82 3b
       0.014516675 0.0056683864 -0.0072839265 0.0039683552
000080 43 69 2d 3a de 87 a1 bb e9 e9 7f 3b cc ad 17 bc
       0.00066151115 -0.0049295267 0.0039049333 -0.009257745
000090 1d 43 ae 3a 89 46 07 bb 6a f5 25 3b 82 d5 61 3c
       0.0013295148 -0.0020641407 0.002532328 0.013783814
0000a0 2f 11 ce 3b 7b 79 d3 bb 6a 23 82 3c ad d4 4e 3c
       0.0062886695 -0.0064536906 0.015886027 0.012623948
0000b0 7d fc 8f bb c1 30 95 bb 48 e5 93 3b a4 eb a3 3b
       -0.0043941126 -0.004552931 0.0045134164 0.005002456
0000c0 31 71 84 3c 8f 8a a7 bc f5 94 29 bb ce 80 df 3b
       0.016167255 -0.020451812 -0.0025876139 0.0068207746
0000d0 53 f3 62 3a 36 c1 8b b8 c4 c5 d9 bb d7 10 e9 ba
       0.0008657474 -6.664025e-05 -0.00664589 -0.0017781508
0000e0 d8 5a 0f bc c0 65 01 3b f6 71 63 bb 4c 2a 06 3c
       -0.008749686 0.0019744486 -0.0034705377 0.008188795
0000f0 35 a1 b2 ba 59 ad 76 bc d7 46 10 bb 20 df db 3b
       -0.0013628366 -0.015055978 -0.002201488 0.006709948
000100 94 4f 8c bb 79 47 4a 3c 27 14 41 3c f6 12 89 bb
       -0.0042819474 0.012346142 0.01178459 -0.0041831685
000110 1e 5b 04 bc c1 cb 8e bc db df 78 bb 66 01 72 bc
       -0.008078365 -0.017431142 -0.0037975225 -0.014770841
000120 8c 33 20 bc 2d 40 48 bc 63 d3 96 3c 78 b2 6c bb
       -0.009777915 -0.012222332 0.018411344 -0.0036117118
000130 e1 ec f5 ba 5d f3 8f 3c fd d6 18 3c 3c 9e 3b 3c
       -0.0018762612 0.0175721 0.009328601 0.0114513
000140 20 80 a9 3c 04 1c 89 bb 95 8e 4e 3c bf c7 bc 3b
       0.020690978 -0.004184248 0.012607236 0.0057611163
000150 0f e7 1a 3b 44 73 2d bc 2c 1f 1e bc 6c 81 0f bc
       0.0023636257 -0.0105865635 -0.009650987 -0.008758884
000160 95 b6 1b 3b 23 4b 41 bb 8d 31 70 bc 7c c5 12 bc
       0.002375995 -0.0029494248 -0.014660251 -0.008958217
000170 8a d3 fb 3b 6b fc 78 bc 99 41 d5 39 25 e8 36 3c
       0.0076851295 -0.0151969 0.000406754 0.011163746
000180 14 fa 16 3b 9d 31 32 bc b1 ff cb 3b 6d b0 a6 3c
       0.0023037242 -0.010876087 0.006225549 0.020347798
000190 d0 e5 89 38 e0 77 81 bc 87 9b 04 3c a2 0b 86 bc
       6.575475e-05 -0.015804231 0.008093721 -0.016362969
0001a0 b4 ed 32 3c 2a af 72 3b 27 97 0d bc 96 cf ae 3c
       0.010920931 0.0037030675 -0.008641995 0.021339219
0001b0 84 75 08 3c 77 33 1a 3c 24 78 c5 bb 1b b4 3c 3c
       0.008328799 0.009411684 -0.006026285 0.01151755
0001c0 c6 e0 65 b9 ab ce 47 3a 27 1c 3c 3c f6 92 14 bb
       -0.00021922876 0.00076220435 0.011481321 -0.0022670603
0001d0 4a a3 46 3c ce ad 21 3c 84 75 fe ba 4f 5a 86 bc
       0.012123892 0.009868098 -0.0019413684 -0.016400484
0001e0 63 f6 3a bc 2a ed 67 3c ec fe 71 3c a1 8f 76 3c
       -0.011411282 0.014155665 0.014770251 0.015048892
0001f0 75 34 1b bc f9 a7 1c bc 4d 11 4c 3b c1 17 0a bc
       -0.009472956 -0.009561532 0.0031138242 -0.008428515
000200 24 01 27 bb 49 ab 84 bc 5e 0a 4e 3c 01 00 5d bc
       -0.0025482858 -0.016194956 0.012575714 -0.01348877
000210 d5 f9 6f bc e0 f4 90 3a 26 ea 9e bb 71 ff fd 3a
       -0.014646967 0.0011059307 -0.00484969 0.0019378496
000220 73 96 68 3b 6d e7 09 bb 30 8a d2 3c 22 19 e3 ba
       0.0035490065 -0.0021042482 0.025700659 -0.0017326216
000230 14 83 9c bb 01 fb 89 bb 43 f3 21 bc 41 e2 02 bc
       -0.004776368 -0.00421083 -0.009884658 -0.007988513
000240 a9 92 4b 3b 0f f1 5e bc 30 c9 7d 3b 8f e0 9b 3c
       0.0031062758 -0.013607278 0.0038724653 0.019027976
000250 79 8e fd 3b 2a 03 af bb 38 79 0e bb 2a 56 f5 bb
       0.0077379313 -0.0053409534 -0.0021739732 -0.007487078
000260 c1 b3 d3 bb 68 5d 45 bc fe cb 46 3c 9a 94 d6 bb
       -0.0064606373 -0.012046196 0.012133596 -0.0065484764
000270 5a 40 c6 3b 1e 3e 02 bc 3f 68 23 bc 3d 38 41 bb
       0.006050152 -0.00794938 -0.009973585 -0.0029482984
000280 68 ca 35 3c 5d 62 27 bc c7 92 69 bc 53 2d 3c bc
       0.011095621 -0.010216323 -0.014256186 -0.0114854155
000290 d5 f9 07 3a ff 8a dd 3b e8 75 98 3c c7 d8 5a bb
       0.0005187069 0.0067609544 0.01861091 -0.003339337
0002a0 2d 05 51 bc 71 07 db bb 65 73 5c bb b4 1a 67 3c
       -0.012757582 -0.0066842367 -0.0033638116 0.014105488
0002b0 d4 45 20 3c 7f 33 82 ba 3d ca 18 bc 7c d0 4b bc
       0.009782273 -0.000993356 -0.009325561 -0.012439843
0002c0 17 03 4b 3c fb 69 2b bc bb 9d ea 3b a5 4b 37 3c
       0.012390873 -0.010462279 0.007159916 0.011187469
0002d0 75 bd 7b bc 17 ed 7a bc 2c 9c 0a bc cb c3 0f 3b
       -0.015364994 -0.015315316 -0.008460086 0.002193677
0002e0 52 75 6f 3b 94 88 0a bc 81 c7 2c bb 96 79 ee b8
       0.0036538434 -0.008455414 -0.002636403 -0.000113713715
0002f0 6f b6 bc 3b 09 30 05 ba c9 9d 71 bc b1 23 3b b8
       0.0057590525 -0.0005080705 -0.014747092 -4.4617515e-05
000300 41 6b 59 bb a3 33 1e bc 37 83 4a 3a ab 1c 6d 3c
       -0.00331755 -0.009655866 0.0007725241 0.014472167
000310 3b 00 15 ba 9d ae 9e bb 26 cb 38 bb 2b b9 97 3b
       -0.0005683933 -0.004842593 -0.0028197258 0.004630228
000320 59 39 89 3c 9e 5c 0a 3c 4c 66 d3 3b d0 4c 5f bb
       0.016750978 0.008444933 0.0064514037 -0.0034072883
000330 6e 4a 21 3c fb 7d 8a bb b9 25 fe 3b 20 5d 47 3b
       0.009844406 -0.004226444 0.0077559617 0.0030420497
000340 4a 12 88 3c 15 a4 77 bb de 47 06 bc d4 8c 82 bb
       0.016610283 -0.003778701 -0.008195845 -0.003984073
000350 2c aa eb 3c b7 96 24 3c e8 72 b7 3b 97 1a 06 bc
       0.028767668 0.010045699 0.0055984147 -0.00818505
000360 ab a3 af bb 88 63 8d 3c f0 68 4e 3c 69 60 8a 3c
       -0.005360087 0.017259374 0.012598261 0.016891675
000370 28 ab aa bc f5 de 81 bc 46 e8 2c ba 16 c6 c7 3b
       -0.020833567 -0.015853385 -0.0006595891 0.0060966117
000380 d7 02 9f 3c a3 8f 1a 3c e5 e6 75 bb 5b 50 16 3c
       0.019410534 0.00943366 -0.0037521657 0.009174432
000390 a8 d9 54 bb 4f e8 2b b9 d0 b0 69 bc 27 99 35 bb
       -0.0032478366 -0.00016394373 -0.014263347 -0.0027709694
0003a0 81 4c 59 bc 8f 55 7f 3b 5e f5 d2 3a 9d f4 d5 ba
       -0.013262869 0.003896091 0.0016094854 -0.0016323511
0003b0 8a 91 b9 3b bf d7 d8 bb 6a 02 f7 3b f9 c2 fa bb
       0.0056631016 -0.006617516 0.0075381296 -0.007652637
0003c0 d0 17 be 3a b1 f3 47 3c c4 3d c4 bb 31 3d 9f 3c
       0.0014502946 0.012204097 -0.0059888083 0.019438358
0003d0 91 2e fd 3b 12 fd a6 bb 89 ba 99 3c e4 7a 50 bc
       0.0077264984 -0.0050960863 0.018765705 -0.012724612
0003e0 9d 9c 5b bc 9c 96 77 3b f0 e6 ec bb 83 4d 85 bc
       -0.013404039 0.003777898 -0.0072296783 -0.016272312
0003f0 34 d8 58 3c 74 3a ed 3b cc c2 8c 38 8d 6e d5 bb
       0.013235141 0.007239634 6.712004e-05 -0.006513423

model.model.tcn.0.conv1.bias f4 [16]
000000 a3 57 a6 3b a1 cd 08 bd 08 27 d8 3c 90 c6 19 bd
       0.005076365 -0.033399228 0.026385799 -0.03754288
000010 1f b1 9c bc 61 13 a1 bc 7f 62 a8 bc df 81 bf bb
       -0.019127427 -0.01966256 -0.02055478 -0.0058443393
000020 cf 55 8b 3c c6 65 2e bc f5 e5 1a 3d e6 0d b1 3a
       0.01700869 -0.010644382 0.03781696 0.001350817
000030 41 76 72 3c 18 fb ad bc 33 5d 0c 3d 60 8e bd bc
       0.014798702 -0.021237895 0.03426857 -0.023139179

model.model.tcn.0.bn1.weight f4 [16]
000000 07 02 80 3f 4f cc 7e 3f a5 42 81 3f ac 0a 80 3f
       1.0000619 0.995305 1.0098463 1.0003257
000010 b1 ca 80 3f fa 50 7f 3f 2d 1a 80 3f 33 82 7f 3f
       1.0061857 0.99732935 1.0007988 0.99808043
000020 1b e6 7f 3f b3 7a 7f 3f 71 a2 7f 3f c9 0a 7f 3f
       0.9996049 0.997966 0.9985724 0.9962583
000030 41 8f 7f 3f 0f 9e 7e 3f 6f e0 7e 3f 95 d3 7f 3f
       0.99827963 0.9945993 0.9956121 0.99932224

model.model.tcn.0.bn1.bias f4 [16]
000000 81 46 d0 3b 0b 25 1f bb c7 ef 3a b9 ee 59 83 3a
       0.006356061 -0.0024283554 -0.00017827666 0.0010021308
000010 bb bc ab 37 dc 7c 11 bb 81 f7 95 ba 56 14 a4 bb
       2.0472673e-05 -0.0022199666 -0.001144156 -0.005007307
000020 44 f2 88 39 67 26 9c ba 4c f2 26 bb 7c b0 60 bb
       0.00026120443 -0.00119133 -0.002547401 -0.003428488
000030 fc a5 bc 3a d0 b2 e5 ba f9 67 17 bb b1 d5 2a bb
       0.0014392729 -0.0017524604 -0.0023102744 -0.0026067311

model.model.tcn.0.bn1.running_mean f4 [16]
000000 b4 0c 78 3b 09 e8 1e bd c7 da d3 3c 3e db 00 bd
       0.0037849369 -0.038795505 0.025861157 -0.031459086
000010 4f 73 c2 bc cc 07 a3 bc 6c ab 9c bc 2a 46 cd bc
       -0.023736624 -0.019901179 -0.01912471 -0.02505787
000020 44 93 df 3c b0 b0 1a bc aa 03 e6 3c 6a ef 1e 3b
       0.027291901 -0.00944154 0.028077919 0.0024251589
000030 62 70 62 bb 7a 9b cd bc 4d d2 3c 3d 57 11 06 bd
       -0.0034551849 -0.025098551 0.046098996 -0.03273138

model.model.tcn.0.bn1.running_var f4 [16]
000000 51 08 81 3c c3 b5 33 3d b9 5d c0 3b d4 75 95 3c
       0.015751036 0.043874513 0.0058705476 0.018244661
000010 89 2d 21 3c 62 ab 67 3c 89 57 42 3c 08 f9 9d 3d
       0.009837517 0.014139982 0.01186169 0.077135146
000020 2a c1 29 3d fb a9 2c 3c 3f 79 ac 3d 4a e2 34 3d
       0.04144398 0.010538573 0.08421563 0.04416112
000030 7d 78 72 3d 46 92 22 3d e4 14 02 3d 37 64 bb 3c
       0.059196938 0.03969028 0.031758204 0.022874935

model.model.tcn.0.conv2.weight f4 [16, 16, 3]
000000 6a 37 b8 3b 91 d5 c8 bc 26 40 53 bb c5 ed 0c bb
       0.0056218402 -0.024515899 -0.003223428 -0.0021504026
000010 d1 db ad bc 23 4a 54 bc 05 39 8a 3b 0f 57 6c 3c
       -0.02122298 -0.012957129 0.004218223 0.014425053
000020 6a 57 3a 3c c3 74 17 3c f3 c9 82 3b 40 6f 89 bc
       0.01137338 0.009244147 0.0039913594 -0.016776681
000030 68 9c aa bb 5f 1e db bb 47 fc d6 3c a0 12 08 3c
       -0.0052066334 -0.00668697 0.026243342 0.008305222
000040 3f 1f 0f 3a ea 0d 89 bb ff b6 94 3b 41 c9 cb 3b
       0.0005459673 -0.004182567 0.0045384164 0.0062190597
000050 a1 49 a5 bb e5 81 62 bc 4b c0 50 ba df 36 a0 bb
       -0.0050441776 -0.013824915 -0.0007963224 -0.0048893536
000060 7f d8 e6 3b 42 a9 e6 bb 3a a0 3b bc fe c4 27 bb
       0.0070448513 -0.00703922 -0.011451775 -0.0025599594
000070 32 e9 04 3c 74 1a ee ba 47 cd b4 3b 69 4f 6c 3a
       0.008112239 -0.0018165843 0.005517635 0.00090145186
000080 3e 4b 46 ba 48 d5 9d 3c 4e 6e 4c bc c9 a7 2c bb
       -0.00075643125 0.01926674 -0.012477471 -0.0026345125
000090 82 0c 55 bc 59 3d 24 bc f7 fb bc 3c ec 9e 9f bb
       -0.01300347 -0.010024392 0.023069365 -0.00487124
0000a0 40 a7 f6 bb 51 71 d7 3b 5d 6d 39 3c 74 2a 84 ba
       -0.007527262 0.0065747877 0.011317578 -0.0010083453
0000b0 ca 0b 7f 3c b6 6e 22 bc 8a a4 68 3b 6d 82 bd ba
       0.015566776 -0.009914091 0.0035498464 -0.0014458426
0000c0 f4 97 eb 3b d4 f7 16 bb 88 3b de 3a d6 38 c6 ba
       0.007189745 -0.00230359 0.0016954998 -0.001512314
0000d0 86 5b 9b bb 2d 6d 0d bb 98 f4 18 3c 03 2d 5a 3c
       -0.004741135 -0.0021579966 0.009335659 0.013316396
0000e0 d1 dd 21 bc b4 0d e2 3b 5f 11 17 bc b5 60 0b 3b
       -0.009879545 0.006898606 -0.00922045 0.0021267359
0000f0 69 80 16 bc d2 07 ca 3b f8 99 8d bc 80 61 8f bc
       -0.009185889 0.006165483 -0.017285332 -0.017502546
000100 9a 76 66 bc 2a 31 a8 3b 00 98 13 bc f2 1f 4c bc
       -0.014066363 0.005132814 -0.009008408 -0.012458788
000110 4d ac 91 bc 44 f3 97 bb 64 22 f3 3b 02 0f 77 3c
       -0.017782355 -0.004637154 0.007419871 0.015079262
000120 89 62 02 3c 52 a3 d6 3a 95 46 8c 3c fe 08 ae 3c
       0.007958063 0.0016375578 0.0171235 0.021244522
000130 22 a6 5e 3c 6d f1 e7 bb 5e 7d 03 3c a0 2b c0 3a
       0.013589414 -0.0070783407 0.008025495 0.0014661439
000140 49 b5 99 3b b0 b1 90 bb 1e 2d dd bb d3 cb 84 bc
       0.0046908003 -0.0044157133 -0.006749763 -0.016210472
000150 7a eb 90 bb 58 d0 ea ba 4f d6 29 3b 2d 82 6b 3c
       -0.0044226022 -0.0017914874 0.0025915091 0.014374298
000160 5a 8c 54 bc ee 8c f2 39 6b 5a 18 3a e5 9c 0a bb
       -0.012972916 0.00046262838 0.0005811813 -0.0021150645
000170 07 f0 fd bb 41 20 77 bb 71 c8 eb 3b e2 2c 6f 3c
       -0.0077495608 -0.0037708434 0.0071955253 0.014598103
000180 d5 74 f4 3b eb 3c 1d bc b4 c7 8b 3c 7e 8b 01 3c
       0.0074602165 -0.0095970435 0.017063 0.007906793
000190 87 cb 0f 3b 98 62 4e 3a 93 b7 f2 bb 1b 96 b8 3a
       0.002194138 0.0007872968 -0.0074071377 0.0014082821
0001a0 5e 7a 05 bc df 8f fa 37 2e c9 44 bc ed 1a 9f 3b
       -0.00814685 2.9869318e-05 -0.012010856 0.0048555047
0001b0 a8 c9 2d bc a8 05 1d bc 49 d2 0b 3a 7b e1 5d bb
       -0.010607161 -0.009583868 0.0005333764 -0.003385632
0001c0 71 e8 eb bb 11 2e bb bc 11 b0 bf bb 77 f2 03 bb
       -0.00719934 -0.022849115 -0.005849846 -0.0020133534
0001d0 ea eb 91 3a 51 c4 ea bb a9 77 2a bc c9 66 0b bc
       0.001113293 -0.007164516 -0.010404506 -0.008508393
0001e0 10 e0 87 3b d3 31 eb bb 80 f7 4d 39 72 1d 51 bc
       0.0041465834 -0.0071775704 0.00019642524 -0.012763368
0001f0 c4 21 b3 ba 45 a7 9a ba 31 f6 d4 bc b8 bc 19 3c
       -0.0013666679 -0.0011799118 -0.0259963 0.009383373
000200 56 71 4f bc c6 f3 e0 3a e9 06 e9 bc a5 13 94 3b
       -0.012661299 0.0017162494 -0.028445678 0.0045189434
000210 d8 63 72 bc c7 86 6d bb 0d 28 e7 3b 51 14 b6 bc
       -0.014794312 -0.0036243664 0.007054335 -0.022226484
000220 79 45 09 bb 5b db af 3b fb 4c 54 3b 4e b1 fc 3b
       -0.002094595 0.0053667254 0.0032394517 0.007711566
000230 24 84 aa 39 f9 93 9a bb 0f c3 c2 bb 77 b0 5b bb
       0.0003252338 -0.0047173467 -0.005943663 -0.003352193
000240 80 fa 91 bb 0e bd 9f bc 57 5a 11 3b fb e8 a5 3b
       -0.0044549108 -0.019499328 0.002217909 0.005063174
000250 56 ee a6 bb b3 3c 12 bc 7c b2 89 3b 59 f7 46 3c
       -0.00509433 -0.008925605 0.004202185 0.012143933
000260 57 f1 93 3c 9c 1b 7a 3b 13 08 3c ba 56 12 89 bb
       0.018059416 0.003816343 -0.0007172834 -0.004183094
000270 d2 93 41 bc 37 db 89 3b 0c 01 10 3a 95 1e d0 3a
       -0.011815028 0.0042070406 0.000549332 0.0015878255
000280 0f 09 44 3c 22 18 80 3c 76 74 e3 3b 5a 02 9a 3c
       0.01196505 0.015636507 0.0069413735 0.01879995
000290 37 99 91 3c 65 9c b1 3a 50 59 99 3c c1 01 4f bc
       0.017773254 0.0013550638 0.018719345 -0.0126346955
0002a0 f3 c2 44 3b 8f de d2 3b 8e ce 03 3a 0d de 2b ba
       0.0030023425 0.0064352225 0.00050280325 -0.00065562205
0002b0 84 de 27 bc b3 0a a3 3b df 85 36 bb bd 67 40 b9
       -0.010245923 0.0049756407 -0.002785079 -0.00018349192
0002c0 87 69 fd bb 55 ef 01 bd a8 f0 30 bc 37 c3 eb 3a
       -0.007733527 -0.031722385 -0.010799564 0.0017987256
0002d0 e5 13 02 3c 63 4c 2c ba ff 46 5a bc 5c 43 49 3a
       0.007939314 -0.0006572662 -0.013322591 0.0007677579
0002e0 b3 04 97 3b 49 4b b3 bc a8 38 ad bc 12 b1 39 3b
       0.0046087145 -0.021886485 -0.02114518 0.0028334302
0002f0 64 60 35 bc b2 73 30 bc f1 52 22 bc 7f 60 c4 3b
       -0.011070345 -0.010769771 -0.00990747 0.0059929485
000300 c9 e3 86 bc d1 e9 da ba ea c8 90 3a 6b 7d 31 ba
       -0.016466038 -0.0016701763 0.0011046205 -0.0006770703
000310 af 70 0a bc 69 71 01 3c 51 a4 7c 3c c8 85 9f 3c
       -0.008449717 0.007900574 0.015420035 0.019472972
000320 d6 39 6e 3b 98 d9 68 ba 27 35 b0 39 cc 8c 2a bc
       0.003635039 -0.00088825217 0.00033608938 -0.010409545
000330 26 99 93 3c ab 03 18 bc a6 6d 96 3c 30 ec 3d 3c
       0.018017363 -0.009278218 0.018362831 0.011591956
000340 a9 cf 1a 3c a5 9f d3 bb d0 ac a5 3b 12 47 d3 3b
       0.009448924 -0.00645824 0.0050560012 0.006447681
000350 b4 86 44 3b 4d 19 0e bc b7 33 43 bb 17 33 f3 3b
       0.0029987516 -0.008673024 -0.0029785463 0.007421862
000360 1a b8 19 3c 0f 4a d0 bb 17 d4 21 3b 51 c8 7f bc
       0.009382272 -0.0063564847 0.0024693066 -0.015611724
000370 3d 5f 84 3a 32 c6 46 bc dd 8d f4 3b 11 60 5a 3c
       0.0010099184 -0.012132214 0.0074632005 0.013328568
000380 14 cd dd bb c7 13 4e 3b a4 09 8b ba 1f d3 80 3b
       -0.006768832 0.0031444894 -0.0010607732 0.0039314176
000390 b0 65 84 3b 1a 89 79 bb be 70 17 bb 91 51 ac ba
       0.0040404424 -0.0038076104 -0.002310797 -0.0013146867
0003a0 d9 93 7a 3b 6a 62 e8 3b df 70 34 3b 4b 27 9b 3b
       0.0038235097 0.00709181 0.0027533097 0.0047349087
0003b0 33 d6 15 bb 34 a5 8f 3c 8a 78 6c 3c a4 11 0f 3b
       -0.0022863268 0.01753483 0.014433036 0.0021830583
0003c0 32 ec b3 3a a4 3c 11 bb 5c e2 fa 3a 16 54 78 3b
       0.0013727008 -0.0022161389 0.0019140947 0.0037891916
0003d0 79 cf ea bb 61 9d 5a 3c cb 1a 57 3c fe 07 e9 bc
       -0.007165846 0.013343186 0.013128947 -0.028446194
0003e0 fd 35 91 3c ba 16 07 3c c0 70 06 3c 69 90 9f 3c
       0.017725939 0.0082451645 0.008205593 0.01947804
0003f0 18 d1 85 bc 90 54 b2 ba af d9 a1 3b 4d e0 54 3c
       -0.016335055 -0.0013605524 0.00493928 0.012992931

model.model.tcn.0.conv2.bias f4 [16]
000000 3f f0 0b bc 25 36 92 bd 79 83 93 3d c1 e9 b4 3d
       -0.008541166 -0.071392335 0.07202811 0.088336475
000010 21 11 70 bd 9f 73 53 bc 14 6a 9c bd be 8b dc 3d
       -0.058610085 -0.012905984 -0.0763742 0.10768841
000020 83 93 31 bd 29 20 fb bd c6 62 fe bd f0 65 20 bd
       -0.04335357 -0.122619934 -0.12421183 -0.039159715
000030 9c ed c5 bc 1f 75 db bd 9f fd c0 bd 1c 34 e8 3d
       -0.024161153 -0.107156985 -0.094233744 0.11338064

model.model.tcn.0.bn2.weight f4 [16]
000000 15 a6 7e 3f 4d 01 7e 3f 20 6a 80 3f 2c 8f 80 3f
       0.9947217 0.99220735 1.0032387 1.0043693
000010 1c 61 80 3f 71 bd 7f 3f 84 e4 7c 3f d5 89 7d 3f
       1.0029635 0.9989844 0.9878619 0.9903844
000020 fc c6 7e 3f 03 36 7e 3f 73 f8 80 3f 82 f7 7e 3f
       0.99522376 0.99301165 1.0075821 0.99596417
000030 2e 4a 80 3f d7 51 7f 3f 21 47 7f 3f dd 4b 80 3f
       1.0022638 0.9973425 0.9971791 1.0023152

model.model.tcn.0.bn2.bias f4 [16]
000000 5b b1 1e bc 6d be 51 bb 30 00 f7 3b ad 59 f3 bb
       -0.0096858395 -0.0032004372 0.007537864 -0.0074264617
000010 41 c1 f9 3a b7 6e 4a 3a b9 9d ba bb 0c 57 87 bb
       0.0019054787 0.0007722186 -0.0056950715 -0.00413025
000020 10 e0 a7 bb 47 1c 81 bb c8 93 3b 3c b9 51 2e bb
       -0.005123146 -0.0039401385 0.011448808 -0.0026599003
000030 94 1f be 3b 9b 31 06 bc 40 56 66 bb 5f 0d fe 3b
       0.0058021042 -0.008190538 -0.0035146624 0.007753059

model.model.tcn.0.bn2.running_mean f4 [16]
000000 57 25 4a bc bb aa 98 bd 63 48 52 3c b0 d4 9a 3d
       -0.012338004 -0.07454439 0.012834641 0.07560098
000010 38 45 c8 bc 76 c4 5e 3d ff be a8 bd f4 c6 08 3e
       -0.024447069 0.05438658 -0.082395546 0.13357145
000020 03 9f ad bd ec 1b 0e be c9 03 05 be d9 00 86 bd
       -0.08477595 -0.13877839 -0.12989725 -0.065431304
000030 84 7f 97 bd 69 8a ea bd 46 74 0f be 58 b8 99 3d
       -0.073973686 -0.11452181 -0.14009199 0.07505864

model.model.tcn.0.bn2.running_var f4 [16]
000000 0f 81 17 3b a4 f9 31 3b ca 88 66 3b 3c 62 09 3b
       0.0023117696 0.0027156854 0.0035176747 0.0020963093
000010 c4 1a 20 3b 37 1c 68 3b 25 4f 06 3b 1f 55 16 3b
       0.0024430016 0.0035417208 0.002049395 0.002293892
000020 3c f5 15 3b ae 0c 27 3b 7b 6e 97 3b fe ce 0c 3b
       0.0022881767 0.0025489735 0.0046213246 0.0021485682
000030 4f 56 31 3b 12 9b 51 3a 45 e0 6d 3b 67 e7 47 3b
       0.00270595 0.00079958246 0.0036297005 0.0030502917

model.model.tcn.0.net.0.weight f4 [16, 218, 3]
000000 06 15 b0 ba b4 6c d4 3c 24 c0 e2 3c ed 4b f9 3b
       -0.0013434 0.02593074 0.02767951 0.007607928
000010 da 05 0d 3b f2 04 3c 3c 1f dd e0 3b c6 ea d1 3b
       0.002151838 0.011475788 0.006862297 0.006406161
000020 f8 dd 81 3b 66 72 78 bb 29 a1 41 bc f8 77 f8 3a
       0.0039632283 -0.0037909984 -0.011818209 0.0018956652
000030 4e 42 99 bb ec d7 25 bc d0 2d 21 3b 79 71 a3 bb
       -0.0046770936 -0.010122281 0.0024593957 -0.004987892
000040 63 76 34 bc 1f 47 2e 3c a4 43 e7 3b 8d 43 15 3c
       -0.011014554 0.010637074 0.007057624 0.009110344
000050 26 d9 6f 3b e3 50 42 bc 81 f0 bc b8 a4 8a c0 3a
       0.0036597936 -0.011860105 -9.009336e-05 0.0014689756
000060 8c 37 b6 bb 6e ec ad 3b d6 df 3e 3c 94 c0 fa 3a
       -0.005560821 0.0053077256 0.011650046 0.0019130879
000070 59 d7 6d 3c df bd b9 3b 01 ae ee bb fa 08 82 3b
       0.014516675 0.0056683864 -0.0072839265 0.0039683552
000080 43 69 2d 3a de 87 a1 bb e9 e9 7f 3b cc ad 17 bc
       0.00066151115 -0.0049295267 0.0039049333 -0.009257745
000090 1d 43 ae 3a 89 46 07 bb 6a f5 25 3b 82 d5 61 3c
       0.0013295148 -0.0020641407 0.002532328 0.013783814
0000a0 2f 11 ce 3b 7b 79 d3 bb 6a 23 82 3c ad d4 4e 3c
       0.0062886695 -0.0064536906 0.015886027 0.012623948
0000b0 7d fc 8f bb c1 30 95 bb 48 e5 93 3b a4 eb a3 3b
       -0.0043941126 -0.004552931 0.0045134164 0.005002456
0000c0 31 71 84 3c 8f 8a a7 bc f5 94 29 bb ce 80 df 3b
       0.016167255 -0.020451812 -0.0025876139 0.0068207746
0000d0 53 f3 62 3a 36 c1 8b b8 c4 c5 d9 bb d7 10 e9 ba
       0.0008657474 -6.664025e-05 -0.00664589 -0.0017781508
0000e0 d8 5a 0f bc c0 65 01 3b f6 71 63 bb 4c 2a 06 3c
       -0.008749686 0.0019744486 -0.0034705377 0.008188795
0000f0 35 a1 b2 ba 59 ad 76 bc d7 46 10 bb 20 df db 3b
       -0.0013628366 -0.015055978 -0.002201488 0.006709948
000100 94 4f 8c bb 79 47 4a 3c 27 14 41 3c f6 12 89 bb
       -0.0042819474 0.012346142 0.01178459 -0.0041831685
000110 1e 5b 04 bc c1 cb 8e bc db df 78 bb 66 01 72 bc
       -0.008078365 -0.017431142 -0.0037975225 -0.014770841
000120 8c 33 20 bc 2d 40 48 bc 63 d3 96 3c 78 b2 6c bb
       -0.009777915 -0.012222332 0.018411344 -0.0036117118
000130 e1 ec f5 ba 5d f3 8f 3c fd d6 18 3c 3c 9e 3b 3c
       -0.0018762612 0.0175721 0.009328601 0.0114513
000140 20 80 a9 3c 04 1c 89 bb 95 8e 4e 3c bf c7 bc 3b
       0.020690978 -0.004184248 0.012607236 0.0057611163
000150 0f e7 1a 3b 44 73 2d bc 2c 1f 1e bc 6c 81 0f bc
       0.0023636257 -0.0105865635 -0.009650987 -0.008758884
000160 95 b6 1b 3b 23 4b 41 bb 8d 31 70 bc 7c c5 12 bc
       0.002375995 -0.0029494248 -0.014660251 -0.008958217
000170 8a d3 fb 3b 6b fc 78 bc 99 41 d5 39 25 e8 36 3c
       0.0076851295 -0.0151969 0.000406754 0.011163746
000180 14 fa 16 3b 9d 31 32 bc b1 ff cb 3b 6d b0 a6 3c
       0.0023037242 -0.010876087 0.006225549 0.020347798
000190 d0 e5 89 38 e0 77 81 bc 87 9b 04 3c a2 0b 86 bc
       6.575475e-05 -0.015804231 0.008093721 -0.016362969
0001a0 b4 ed 32 3c 2a af 72 3b 27 97 0d bc 96 cf ae 3c
       0.010920931 0.0037030675 -0.008641995 0.021339219
0001b0 84 75 08 3c 77 33 1a 3c 24 78 c5 bb 1b b4 3c 3c
       0.008328799 0.009411684 -0.006026285 0.01151755
0001c0 c6 e0 65 b9 ab ce 47 3a 27 1c 3c 3c f6 92 14 bb
       -0.00021922876 0.00076220435 0.011481321 -0.0022670603
0001d0 4a a3 46 3c ce ad 21 3c 84 75 fe ba 4f 5a 86 bc
       0.012123892 0.009868098 -0.0019413684 -0.016400484
0001e0 63 f6 3a bc 2a ed 67 3c ec fe 71 3c a1 8f 76 3c
       -0.011411282 0.014155665 0.014770251 0.015048892
0001f0 75 34 1b bc f9 a7 1c bc 4d 11 4c 3b c1 17 0a bc
       -0.009472956 -0.009561532 0.0031138242 -0.008428515
000200 24 01 27 bb 49 ab 84 bc 5e 0a 4e 3c 01 00 5d bc
       -0.0025482858 -0.016194956 0.012575714 -0.01348877
000210 d5 f9 6f bc e0 f4 90 3a 26 ea 9e bb 71 ff fd 3a
       -0.014646967 0.0011059307 -0.00484969 0.0019378496
000220 73 96 68 3b 6d e7 09 bb 30 8a d2 3c 22 19 e3 ba
       0.0035490065 -0.0021042482 0.025700659 -0.0017326216
000230 14 83 9c bb 01 fb 89 bb 43 f3 21 bc 41 e2 02 bc
       -0.004776368 -0.00421083 -0.009884658 -0.007988513
000240 a9 92 4b 3b 0f f1 5e bc 30 c9 7d 3b 8f e0 9b 3c
       0.0031062758 -0.013607278 0.0038724653 0.019027976
000250 79 8e fd 3b 2a 03 af bb 38 79 0e bb 2a 56 f5 bb
       0.0077379313 -0.0053409534 -0.0021739732 -0.007487078
000260 c1 b3 d3 bb 68 5d 45 bc fe cb 46 3c 9a 94 d6 bb
       -0.0064606373 -0.012046196 0.012133596 -0.0065484764
000270 5a 40 c6 3b 1e 3e 02 bc 3f 68 23 bc 3d 38 41 bb
       0.006050152 -0.00794938 -0.009973585 -0.0029482984
000280 68 ca 35 3c 5d 62 27 bc c7 92 69 bc 53 2d 3c bc
       0.011095621 -0.010216323 -0.014256186 -0.0114854155
000290 d5 f9 07 3a ff 8a dd 3b e8 75 98 3c c7 d8 5a bb
       0.0005187069 0.0067609544 0.01861091 -0.003339337
0002a0 2d 05 51 bc 71 07 db bb 65 73 5c bb b4 1a 67 3c
       -0.012757582 -0.0066842367 -0.0033638116 0.014105488
0002b0 d4 45 20 3c 7f 33 82 ba 3d ca 18 bc 7c d0 4b bc
       0.009782273 -0.000993356 -0.009325561 -0.012439843
0002c0 17 03 4b 3c fb 69 2b bc bb 9d ea 3b a5 4b 37 3c
       0.012390873 -0.010462279 0.007159916 0.011187469
0002d0 75 bd 7b bc 17 ed 7a bc 2c 9c 0a bc cb c3 0f 3b
       -0.015364994 -0.015315316 -0.008460086 0.002193677
0002e0 52 75 6f 3b 94 88 0a bc 81 c7 2c bb 96 79 ee b8
       0.0036538434 -0.008455414 -0.002636403 -0.000113713715
0002f0 6f b6 bc 3b 09 30 05 ba c9 9d 71 bc b1 23 3b b8
       0.0057590525 -0.0005080705 -0.014747092 -4.4617515e-05
000300 41 6b 59 bb a3 33 1e bc 37 83 4a 3a ab 1c 6d 3c
       -0.00331755 -0.009655866 0.0007725241 0.014472167
000310 3b 00 15 ba 9d ae 9e bb 26 cb 38 bb 2b b9 97 3b
       -0.0005683933 -0.004842593 -0.0028197258 0.004630228
000320 59 39 89 3c 9e 5c 0a 3c 4c 66 d3 3b d0 4c 5f bb
       0.016750978 0.008444933 0.0064514037 -0.0034072883
000330 6e 4a 21 3c fb 7d 8a bb b9 25 fe 3b 20 5d 47 3b
       0.009844406 -0.004226444 0.0077559617 0.0030420497
000340 4a 12 88 3c 15 a4 77 bb de 47 06 bc d4 8c 82 bb
       0.016610283 -0.003778701 -0.008195845 -0.003984073
000350 2c aa eb 3c b7 96 24 3c e8 72 b7 3b 97 1a 06 bc
       0.028767668 0.010045699 0.0055984147 -0.00818505
000360 ab a3 af bb 88 63 8d 3c f0 68 4e 3c 69 60 8a 3c
       -0.005360087 0.017259374 0.012598261 0.016891675
000370 28 ab aa bc f5 de 81 bc 46 e8 2c ba 16 c6 c7 3b
       -0.020833567 -0.015853385 -0.0006595891 0.0060966117
000380 d7 02 9f 3c a3 8f 1a 3c e5 e6 75 bb 5b 50 16 3c
       0.019410534 0.00943366 -0.0037521657 0.009174432
000390 a8 d9 54 bb 4f e8 2b b9 d0 b0 69 bc 27 99 35 bb
       -0.0032478366 -0.00016394373 -0.014263347 -0.0027709694
0003a0 81 4c 59 bc 8f 55 7f 3b 5e f5 d2 3a 9d f4 d5 ba
       -0.013262869 0.003896091 0.0016094854 -0.0016323511
0003b0 8a 91 b9 3b bf d7 d8 bb 6a 02 f7 3b f9 c2 fa bb
       0.0056631016 -0.006617516 0.0075381296 -0.007652637
0003c0 d0 17 be 3a b1 f3 47 3c c4 3d c4 bb 31 3d 9f 3c
       0.0014502946 0.012204097 -0.0059888083 0.019438358
0003d0 91 2e fd 3b 12 fd a6 bb 89 ba 99 3c e4 7a 50 bc
       0.0077264984 -0.0050960863 0.018765705 -0.012724612
0003e0 9d 9c 5b bc 9c 96 77 3b f0 e6 ec bb 83 4d 85 bc
       -0.013404039 0.003777898 -0.0072296783 -0.016272312
0003f0 34 d8 58 3c 74 3a ed 3b cc c2 8c 38 8d 6e d5 bb
       0.013235141 0.007239634 6.712004e-05 -0.006513423

model.model.tcn.0.net.0.bias f4 [16]
000000 a3 57 a6 3b a1 cd 08 bd 08 27 d8 3c 90 c6 19 bd
       0.005076365 -0.033399228 0.026385799 -0.03754288
000010 1f b1 9c bc 61 13 a1 bc 7f 62 a8 bc df 81 bf bb
       -0.019127427 -0.01966256 -0.02055478 -0.0058443393
000020 cf 55 8b 3c c6 65 2e bc f5 e5 1a 3d e6 0d b1 3a
       0.01700869 -0.010644382 0.03781696 0.001350817
000030 41 76 72 3c 18 fb ad bc 33 5d 0c 3d 60 8e bd bc
       0.014798702 -0.021237895 0.03426857 -0.023139179

model.model.tcn.0.net.1.weight f4 [16]
000000 07 02 80 3f 4f cc 7e 3f a5 42 81 3f ac 0a 80 3f
       1.0000619 0.995305 1.0098463 1.0003257
000010 b1 ca 80 3f fa 50 7f 3f 2d 1a 80 3f 33 82 7f 3f
       1.0061857 0.99732935 1.0007988 0.99808043
000020 1b e6 7f 3f b3 7a 7f 3f 71 a2 7f 3f c9 0a 7f 3f
       0.9996049 0.997966 0.9985724 0.9962583
000030 41 8f 7f 3f 0f 9e 7e 3f 6f e0 7e 3f 95 d3 7f 3f
       0.99827963 0.9945993 0.9956121 0.99932224

model.model.tcn.0.net.1.bias f4 [16]
000000 81 46 d0 3b 0b 25 1f bb c7 ef 3a b9 ee 59 83 3a
       0.006356061 -0.0024283554 -0.00017827666 0.0010021308
000010 bb bc ab 37 dc 7c 11 bb 81 f7 95 ba 56 14 a4 bb
       2.0472673e-05 -0.0022199666 -0.001144156 -0.005007307
000020 44 f2 88 39 67 26 9c ba 4c f2 26 bb 7c b0 60 bb
       0.00026120443 -0.00119133 -0.002547401 -0.003428488
000030 fc a5 bc 3a d0 b2 e5 ba f9 67 17 bb b1 d5 2a bb
       0.0014392729 -0.0017524604 -0.0023102744 -0.0026067311

model.model.tcn.0.net.1.running_mean f4 [16]
000000 b4 0c 78 3b 09 e8 1e bd c7 da d3 3c 3e db 00 bd
       0.0037849369 -0.038795505 0.025861157 -0.031459086
000010 4f 73 c2 bc cc 07 a3 bc 6c ab 9c bc 2a 46 cd bc
       -0.023736624 -0.019901179 -0.01912471 -0.02505787
000020 44 93 df 3c b0 b0 1a bc aa 03 e6 3c 6a ef 1e 3b
       0.027291901 -0.00944154 0.028077919 0.0024251589
000030 62 70 62 bb 7a 9b cd bc 4d d2 3c 3d 57 11 06 bd
       -0.0034551849 -0.025098551 0.046098996 -0.03273138

model.model.tcn.0.net.1.running_var f4 [16]
000000 51 08 81 3c c3 b5 33 3d b9 5d c0 3b d4 75 95 3c
       0.015751036 0.043874513 0.0058705476 0.018244661
000010 89 2d 21 3c 62 ab 67 3c 89 57 42 3c 08 f9 9d 3d
       0.009837517 0.014139982 0.01186169 0.077135146
000020 2a c1 29 3d fb a9 2c 3c 3f 79 ac 3d 4a e2 34 3d
       0.04144398 0.010538573 0.08421563 0.04416112
000030 7d 78 72 3d 46 92 22 3d e4 14 02 3d 37 64 bb 3c
       0.059196938 0.03969028 0.031758204 0.022874935

model.model.tcn.0.net.5.weight f4 [16, 16, 3]
000000 6a 37 b8 3b 91 d5 c8 bc 26 40 53 bb c5 ed 0c bb
       0.0056218402 -0.024515899 -0.003223428 -0.0021504026
000010 d1 db ad bc 23 4a 54 bc 05 39 8a 3b 0f 57 6c 3c
       -0.02122298 -0.012957129 0.004218223 0.014425053
000020 6a 57 3a 3c c3 74 17 3c f3 c9 82 3b 40 6f 89 bc
       0.01137338 0.009244147 0.0039913594 -0.016776681
000030 68 9c aa bb 5f 1e db bb 47 fc d6 3c a0 12 08 3c
       -0.0052066334 -0.00668697 0.026243342 0.008305222
000040 3f 1f 0f 3a ea 0d 89 bb ff b6 94 3b 41 c9 cb 3b
       0.0005459673 -0.004182567 0.0045384164 0.0062190597
000050 a1 49 a5 bb e5 81 62 bc 4b c0 50 ba df 36 a0 bb
       -0.0050441776 -0.013824915 -0.0007963224 -0.0048893536
000060 7f d8 e6 3b 42 a9 e6 bb 3a a0 3b bc fe c4 27 bb
       0.0070448513 -0.00703922 -0.011451775 -0.0025599594
000070 32 e9 04 3c 74 1a ee ba 47 cd b4 3b 69 4f 6c 3a
       0.008112239 -0.0018165843 0.005517635 0.00090145186
000080 3e 4b 46 ba 48 d5 9d 3c 4e 6e 4c bc c9 a7 2c bb
       -0.00075643125 0.01926674 -0.012477471 -0.0026345125
000090 82 0c 55 bc 59 3d 24 bc f7 fb bc 3c ec 9e 9f bb
       -0.01300347 -0.010024392 0.023069365 -0.00487124
0000a0 40 a7 f6 bb 51 71 d7 3b 5d 6d 39 3c 74 2a 84 ba
       -0.007527262 0.0065747877 0.011317578 -0.0010083453
0000b0 ca 0b 7f 3c b6 6e 22 bc 8a a4 68 3b 6d 82 bd ba
       0.015566776 -0.009914091 0.0035498464 -0.0014458426
0000c0 f4 97 eb 3b d4 f7 16 bb 88 3b de 3a d6 38 c6 ba
       0.007189745 -0.00230359 0.0016954998 -0.001512314
0000d0 86 5b 9b bb 2d 6d 0d bb 98 f4 18 3c 03 2d 5a 3c
       -0.004741135 -0.0021579966 0.009335659 0.013316396
0000e0 d1 dd 21 bc b4 0d e2 3b 5f 11 17 bc b5 60 0b 3b
       -0.009879545 0.006898606 -0.00922045 0.0021267359
0000f0 69 80 16 bc d2 07 ca 3b f8 99 8d bc 80 61 8f bc
       -0.009185889 0.006165483 -0.017285332 -0.017502546
000100 9a 76 66 bc 2a 31 a8 3b 00 98 13 bc f2 1f 4c bc
       -0.014066363 0.005132814 -0.009008408 -0.012458788
000110 4d ac 91 bc 44 f3 97 bb 64 22 f3 3b 02 0f 77 3c
       -0.017782355 -0.004637154 0.007419871 0.015079262
000120 89 62 02 3c 52 a3 d6 3a 95 46 8c 3c fe 08 ae 3c
       0.007958063 0.0016375578 0.0171235 0.021244522
000130 22 a6 5e 3c 6d f1 e7 bb 5e 7d 03 3c a0 2b c0 3a
       0.013589414 -0.0070783407 0.008025495 0.0014661439
000140 49 b5 99 3b b0 b1 90 bb 1e 2d dd bb d3 cb 84 bc
       0.0046908003 -0.0044157133 -0.006749763 -0.016210472
000150 7a eb 90 bb 58 d0 ea ba 4f d6 29 3b 2d 82 6b 3c
       -0.0044226022 -0.0017914874 0.0025915091 0.014374298
000160 5a 8c 54 bc ee 8c f2 39 6b 5a 18 3a e5 9c 0a bb
       -0.012972916 0.00046262838 0.0005811813 -0.0021150645
000170 07 f0 fd bb 41 20 77 bb 71 c8 eb 3b e2 2c 6f 3c
       -0.0077495608 -0.0037708434 0.0071955253 0.014598103
000180 d5 74 f4 3b eb 3c 1d bc b4 c7 8b 3c 7e 8b 01 3c
       0.0074602165 -0.0095970435 0.017063 0.007906793
000190 87 cb 0f 3b 98 62 4e 3a 93 b7 f2 bb 1b 96 b8 3a
       0.002194138 0.0007872968 -0.0074071377 0.0014082821
0001a0 5e 7a 05 bc df 8f fa 37 2e c9 44 bc ed 1a 9f 3b
       -0.00814685 2.9869318e-05 -0.012010856 0.0048555047
0001b0 a8 c9 2d bc a8 05 1d bc 49 d2 0b 3a 7b e1 5d bb
       -0.010607161 -0.009583868 0.0005333764 -0.003385632
0001c0 71 e8 eb bb 11 2e bb bc 11 b0 bf bb 77 f2 03 bb
       -0.00719934 -0.022849115 -0.005849846 -0.0020133534
0001d0 ea eb 91 3a 51 c4 ea bb a9 77 2a bc c9 66 0b bc
       0.001113293 -0.007164516 -0.010404506 -0.008508393
0001e0 10 e0 87 3b d3 31 eb bb 80 f7 4d 39 72 1d 51 bc
       0.0041465834 -0.0071775704 0.00019642524 -0.012763368
0001f0 c4 21 b3 ba 45 a7 9a ba 31 f6 d4 bc b8 bc 19 3c
       -0.0013666679 -0.0011799118 -0.0259963 0.009383373
000200 56 71 4f bc c6 f3 e0 3a e9 06 e9 bc a5 13 94 3b
       -0.012661299 0.0017162494 -0.028445678 0.0045189434
000210 d8 63 72 bc c7 86 6d bb 0d 28 e7 3b 51 14 b6 bc
       -0.014794312 -0.0036243664 0.007054335 -0.022226484
000220 79 45 09 bb 5b db af 3b fb 4c 54 3b 4e b1 fc 3b
       -0.002094595 0.0053667254 0.0032394517 0.007711566
000230 24 84 aa 39 f9 93 9a bb 0f c3 c2 bb 77 b0 5b bb
       0.0003252338 -0.0047173467 -0.005943663 -0.003352193
000240 80 fa 91 bb 0e bd 9f bc 57 5a 11 3b fb e8 a5 3b
       -0.0044549108 -0.019499328 0.002217909 0.005063174
000250 56 ee a6 bb b3 3c 12 bc 7c b2 89 3b 59 f7 46 3c
       -0.00509433 -0.008925605 0.004202185 0.012143933
000260 57 f1 93 3c 9c 1b 7a 3b 13 08 3c ba 56 12 89 bb
       0.018059416 0.003816343 -0.0007172834 -0.004183094
000270 d2 93 41 bc 37 db 89 3b 0c 01 10 3a 95 1e d0 3a
       -0.011815028 0.0042070406 0.000549332 0.0015878255
000280 0f 09 44 3c 22 18 80 3c 76 74 e3 3b 5a 02 9a 3c
       0.01196505 0.015636507 0.0069413735 0.01879995
000290 37 99 91 3c 65 9c b1 3a 50 59 99 3c c1 01 4f bc
       0.017773254 0.0013550638 0.018719345 -0.0126346955
0002a0 f3 c2 44 3b 8f de d2 3b 8e ce 03 3a 0d de 2b ba
       0.0030023425 0.0064352225 0.00050280325 -0.00065562205
0002b0 84 de 27 bc b3 0a a3 3b df 85 36 bb bd 67 40 b9
       -0.010245923 0.0049756407 -0.002785079 -0.00018349192
0002c0 87 69 fd bb 55 ef 01 bd a8 f0 30 bc 37 c3 eb 3a
       -0.007733527 -0.031722385 -0.010799564 0.0017987256
0002d0 e5 13 02 3c 63 4c 2c ba ff 46 5a bc 5c 43 49 3a
       0.007939314 -0.0006572662 -0.013322591 0.0007677579
0002e0 b3 04 97 3b 49 4b b3 bc a8 38 ad bc 12 b1 39 3b
       0.0046087145 -0.021886485 -0.02114518 0.0028334302
0002f0 64 60 35 bc b2 73 30 bc f1 52 22 bc 7f 60 c4 3b
       -0.011070345 -0.010769771 -0.00990747 0.0059929485
000300 c9 e3 86 bc d1 e9 da ba ea c8 90 3a 6b 7d 31 ba
       -0.016466038 -0.0016701763 0.0011046205 -0.0006770703
000310 af 70 0a bc 69 71 01 3c 51 a4 7c 3c c8 85 9f 3c
       -0.008449717 0.007900574 0.015420035 0.019472972
000320 d6 39 6e 3b 98 d9 68 ba 27 35 b0 39 cc 8c 2a bc
       0.003635039 -0.00088825217 0.00033608938 -0.010409545
000330 26 99 93 3c ab 03 18 bc a6 6d 96 3c 30 ec 3d 3c
       0.018017363 -0.009278218 0.018362831 0.011591956
000340 a9 cf 1a 3c a5 9f d3 bb d0 ac a5 3b 12 47 d3 3b
       0.009448924 -0.00645824 0.0050560012 0.006447681
000350 b4 86 44 3b 4d 19 0e bc b7 33 43 bb 17 33 f3 3b
       0.0029987516 -0.008673024 -0.0029785463 0.007421862
000360 1a b8 19 3c 0f 4a d0 bb 17 d4 21 3b 51 c8 7f bc
       0.009382272 -0.0063564847 0.0024693066 -0.015611724
000370 3d 5f 84 3a 32 c6 46 bc dd 8d f4 3b 11 60 5a 3c
       0.0010099184 -0.012132214 0.0074632005 0.013328568
000380 14 cd dd bb c7 13 4e 3b a4 09 8b ba 1f d3 80 3b
       -0.006768832 0.0031444894 -0.0010607732 0.0039314176
000390 b0 65 84 3b 1a 89 79 bb be 70 17 bb 91 51 ac ba
       0.0040404424 -0.0038076104 -0.002310797 -0.0013146867
0003a0 d9 93 7a 3b 6a 62 e8 3b df 70 34 3b 4b 27 9b 3b
       0.0038235097 0.00709181 0.0027533097 0.0047349087
0003b0 33 d6 15 bb 34 a5 8f 3c 8a 78 6c 3c a4 11 0f 3b
       -0.0022863268 0.01753483 0.014433036 0.0021830583
0003c0 32 ec b3 3a a4 3c 11 bb 5c e2 fa 3a 16 54 78 3b
       0.0013727008 -0.0022161389 0.0019140947 0.0037891916
0003d0 79 cf ea bb 61 9d 5a 3c cb 1a 57 3c fe 07 e9 bc
       -0.007165846 0.013343186 0.013128947 -0.028446194
0003e0 fd 35 91 3c ba 16 07 3c c0 70 06 3c 69 90 9f 3c
       0.017725939 0.0082451645 0.008205593 0.01947804
0003f0 18 d1 85 bc 90 54 b2 ba af d9 a1 3b 4d e0 54 3c
       -0.016335055 -0.0013605524 0.00493928 0.012992931

model.model.tcn.0.net.5.bias f4 [16]
000000 3f f0 0b bc 25 36 92 bd 79 83 93 3d c1 e9 b4 3d
       -0.008541166 -0.071392335 0.07202811 0.088336475
000010 21 11 70 bd 9f 73 53 bc 14 6a 9c bd be 8b dc 3d
       -0.058610085 -0.012905984 -0.0763742 0.10768841
000020 83 93 31 bd 29 20 fb bd c6 62 fe bd f0 65 20 bd
       -0.04335357 -0.122619934 -0.12421183 -0.039159715
000030 9c ed c5 bc 1f 75 db bd 9f fd c0 bd 1c 34 e8 3d
       -0.024161153 -0.107156985 -0.094233744 0.11338064

model.model.tcn.0.net.6.weight f4 [16]
000000 15 a6 7e 3f 4d 01 7e 3f 20 6a 80 3f 2c 8f 80 3f
       0.9947217 0.99220735 1.0032387 1.0043693
000010 1c 61 80 3f 71 bd 7f 3f 84 e4 7c 3f d5 89 7d 3f
       1.0029635 0.9989844 0.9878619 0.9903844
000020 fc c6 7e 3f 03 36 7e 3f 73 f8 80 3f 82 f7 7e 3f
       0.99522376 0.99301165 1.0075821 0.99596417
000030 2e 4a 80 3f d7 51 7f 3f 21 47 7f 3f dd 4b 80 3f
       1.0022638 0.9973425 0.9971791 1.0023152

model.model.tcn.0.net.6.bias f4 [16]
000000 5b b1 1e bc 6d be 51 bb 30 00 f7 3b ad 59 f3 bb
       -0.0096858395 -0.0032004372 0.007537864 -0.0074264617
000010 41 c1 f9 3a b7 6e 4a 3a b9 9d ba bb 0c 57 87 bb
       0.0019054787 0.0007722186 -0.0056950715 -0.00413025
000020 10 e0 a7 bb 47 1c 81 bb c8 93 3b 3c b9 51 2e bb
       -0.005123146 -0.0039401385 0.011448808 -0.0026599003
000030 94 1f be 3b 9b 31 06 bc 40 56 66 bb 5f 0d fe 3b
       0.0058021042 -0.008190538 -0.0035146624 0.007753059

model.model.tcn.0.net.6.running_mean f4 [16]
000000 57 25 4a bc bb aa 98 bd 63 48 52 3c b0 d4 9a 3d
       -0.012338004 -0.07454439 0.012834641 0.07560098
000010 38 45 c8 bc 76 c4 5e 3d ff be a8 bd f4 c6 08 3e
       -0.024447069 0.05438658 -0.082395546 0.13357145
000020 03 9f ad bd ec 1b 0e be c9 03 05 be d9 00 86 bd
       -0.08477595 -0.13877839 -0.12989725 -0.065431304
000030 84 7f 97 bd 69 8a ea bd 46 74 0f be 58 b8 99 3d
       -0.073973686 -0.11452181 -0.14009199 0.07505864

model.model.tcn.0.net.6.running_var f4 [16]
000000 0f 81 17 3b a4 f9 31 3b ca 88 66 3b 3c 62 09 3b
       0.0023117696 0.0027156854 0.0035176747 0.0020963093
000010 c4 1a 20 3b 37 1c 68 3b 25 4f 06 3b 1f 55 16 3b
       0.0024430016 0.0035417208 0.002049395 0.002293892
000020 3c f5 15 3b ae 0c 27 3b 7b 6e 97 3b fe ce 0c 3b
       0.0022881767 0.0025489735 0.0046213246 0.0021485682
000030 4f 56 31 3b 12 9b 51 3a 45 e0 6d 3b 67 e7 47 3b
       0.00270595 0.00079958246 0.0036297005 0.0030502917

model.model.tcn.0.downsample.weight f4 [16, 218, 1]
000000 5b 58 83 bc 9c 5c a6 3a b1 44 c0 39 4e dd 8a 3c
       -0.016033342 0.0012692395 0.00036672273 0.01695123
000010 4c 95 75 ba 11 43 5f 3c 03 47 df 3b 69 47 de bc
       -0.0009368255 0.01362683 0.006813885 -0.02713366
000020 e3 db 6d 3a 38 4e 63 bc 7b 5d d7 3b f6 52 ab bb
       0.0009073598 -0.013873629 0.006572423 -0.0052283956
000030 a2 a0 79 3c eb f5 83 bb 55 1c ac 3c 24 8b a4 3a
       0.015236052 -0.0040271184 0.021009604 0.0012553674
000040 aa 2a 28 bb 01 34 ec 3b 38 2b bd bb 84 7b 78 3c
       -0.0025660195 0.007208348 -0.0057729743 0.015166167
000050 27 ae ad bb 90 5f 45 bb e8 41 26 39 8f 34 4d ba
       -0.0053003016 -0.0030116774 0.00015855546 -0.0007827961
000060 fc fd 5b 3c 93 74 49 3b bc 12 d7 bb a8 61 86 3b
       0.013427254 0.003073965 -0.0065635126 0.004100997
000070 8c ab a8 bb f1 95 ad 3a d8 46 30 bc 7b 77 9b 3b
       -0.005147403 0.0013243539 -0.010759078 0.004744468
000080 67 7c d1 3b c6 d9 a5 3b 3f da 86 3c b6 75 24 bc
       0.0063930037 0.005061361 0.01646149 -0.01003783
000090 eb 1e f6 bb 50 29 a2 3a b1 3d eb bb 82 39 71 bc
       -0.00751101 0.0012371931 -0.007178985 -0.014723184
0000a0 0e 5b e1 3b ad 36 34 bc e1 ba 74 bc 95 44 26 bc
       0.0068773096 -0.010999364 -0.0149371335 -0.010148187
0000b0 83 60 bf 3b 92 7c 01 bc cb 6b ba bb 4c c6 1d 3c
       0.0058403625 -0.007903235 -0.0056891195 0.009629797
0000c0 65 39 9c bc e7 ef 39 3c 81 3c 88 bc c6 6c ca ba
       -0.019070337 0.011348701 -0.016630413 -0.0015443794
0000d0 73 c4 75 3c b4 34 07 bc 68 6c 20 bc 46 03 93 3b
       0.01500045 -0.0082523115 -0.009791471 0.004486474
0000e0 fc 30 53 ba 76 dd 19 bb 59 fa b0 ba 68 e7 72 3a
       -0.00080563105 -0.0023477948 -0.0013502344 0.00092660496
0000f0 a2 d6 a7 3b c9 ed 5e bb ba 02 8f 3b d7 a7 63 bb
       0.005122022 -0.0034016243 0.0043643387 -0.0034737492
000100 c1 17 51 bc b5 23 96 bb ac 8b 71 bb 00 21 8f 3c
       -0.012762011 -0.0045818933 -0.0036856933 0.01747179
000110 8f 5c 3b bb 64 fb 50 3a 00 82 92 bb b2 f8 07 3c
       -0.0028589105 0.00079720304 -0.0044710636 0.00829904
000120 9b 6f d5 bc dd 46 62 bc 59 6f 0a 3d dc f3 3e 3c
       -0.026054194 -0.01381084 0.033797596 0.01165482
000130 0e ac 63 3b ec 02 89 38 72 b3 be bb 6e 70 08 bb
       0.0034740004 6.533213e-05 -0.0058197314 -0.0020818966
000140 a2 15 02 bb b3 9d 5f ba 28 17 7c bb 30 f0 95 3b
       -0.001984932 -0.0008530274 -0.003846595 0.0045757517
000150 3a c9 f8 bb 51 3c 52 3c b7 1b c2 3b 35 10 5e 3c
       -0.0075923475 0.012831763 0.005923714 0.013553669
000160 10 7d b7 bb cd 3c a5 3b 28 e5 02 bc 24 b2 b4 3a
       -0.0055996254 0.0050426484 -0.007989205 0.0013786
000170 53 7e 88 bb e2 c1 85 3c 72 17 a8 3c 5e da 3c 3c
       -0.0041654496 0.016327802 0.020518992 0.011526672
000180 d6 6c 9c bc 37 82 5b bb 7a 53 f2 bb bd 10 b9 bc
       -0.019094866 -0.0033494362 -0.007395205 -0.02259099
000190 da 1e 0e 3c b6 f0 a8 ba 79 b8 fa 3b 79 e6 99 3b
       0.008674348 -0.001288912 0.0076513854 0.004696664
0001a0 bf 61 bd bb c0 fc 5f bb f1 5c 75 bb 9c 3a 93 3c
       -0.0057794745 -0.003417775 -0.003743943 0.017972283
0001b0 5e aa 83 bb 52 eb 01 bd 5a 7f b9 ba 56 d2 02 bc
       -0.004018112 -0.03171856 -0.0014152334 -0.007984718
0001c0 c8 34 02 3c d5 80 17 bc 2b 9f 61 bb 7c 37 11 bb
       0.007947154 -0.009247025 -0.0034427147 -0.0022158315
0001d0 7d 15 fc 3b 49 7d c2 3b 52 04 13 bc 0b 8d ae ba
       0.0076929913 0.0059353453 -0.008973198 -0.001331718
0001e0 68 85 7d 3b 52 20 55 3c 0b e2 d7 bb 9b ab 6a bc
       0.0038684253 0.013008194 -0.0065882257 -0.0143231405
0001f0 3b 32 81 bb 17 57 e1 3b d5 d5 79 bc d0 b1 90 bb
       -0.0039427555 0.006876837 -0.015248735 -0.004415728
000200 96 05 94 bb f6 fd 1c bc de ed c5 3c 84 a9 26 bb
       -0.0045172675 -0.009582033 0.024161275 -0.002543063
000210 da b1 05 b9 d8 43 4c bc 70 42 0b 3c 2c 7d 2d bb
       -0.00012750123 -0.012467347 0.008499727 -0.0026472313
000220 d3 27 a3 b9 8b 3f 17 bb 8b 1c eb bb 56 ca 51 3a
       -0.00031119454 -0.0023078646 -0.0071750334 0.00080028677
000230 7a 1b 13 b9 15 0a 1d bb 61 75 57 3a 3e 57 4d 3b
       -0.00014029248 -0.0023962308 0.000821909 0.0031332518
000240 15 4a 77 ba 19 9e 83 bc d3 d0 20 3c e2 55 0e bd
       -0.00094333413 -0.016066598 0.009815413 -0.034749873
000250 24 dc 41 bc d2 ab 35 bc 17 02 96 39 f6 ff 0f 3c
       -0.011832271 -0.011088328 0.00028611787 0.008789053
000260 51 45 d3 3b 8f 9d 6a 3c 47 bb 07 bb 41 6c 5e 3c
       0.006447472 0.014319791 -0.0020710991 0.013575614
000270 64 c4 16 3c f9 e7 a4 bc b5 1f 00 3c 8c ee b1 3b
       0.009202097 -0.020130144 0.00782006 0.0054300483
000280 6f 7c c4 3b 8f aa 1a bc b5 90 ac bb 4d 8a 42 3c
       0.005996279 -0.009440078 -0.005266274 0.011873794
000290 b9 4e 59 bb 52 d9 1e 3c 44 ba 0e ba ac 16 76 3b
       -0.0033158495 0.009695368 -0.0005444626 0.0037550135
0002a0 5e 5a 81 3b 4a 78 81 3c df 69 1b bc e6 c8 c3 3b
       0.00394754 0.015804429 -0.009485691 0.0059748767
0002b0 02 20 dc bb b3 d6 b6 bb 70 1a 5c 3b 19 b9 9d ba
       -0.006717683 -0.0055797934 0.0033585094 -0.0012033313
0002c0 90 ab af 3c b6 e4 9c 3b 68 2c 07 3c fe a7 8e bc
       0.021444112 0.0047880067 0.008250333 -0.01741409
0002d0 37 c5 c7 3b e5 7b 89 bb 7a 5c 62 3c 67 02 0e bc
       0.006096508 -0.0041956776 0.013815993 -0.008667565
0002e0 05 43 31 3c cc 44 ac bb 10 05 1a 3b 0f 60 b6 bc
       0.010819201 -0.0052572247 0.0023501553 -0.022262601
0002f0 f8 c9 de bc bb 22 4b 3b 99 6f 07 bc b0 16 b4 bb
       -0.027195916 0.0030996043 -0.008266353 -0.0054958686
000300 ee 18 82 b9 ea 13 04 bc 86 ff e7 ba af 72 8d bb
       -0.00024814106 -0.0080613885 -0.0017700053 -0.00431665
000310 9a d9 fc b7 9a de 83 bc e4 d2 45 bb e2 af 52 bc
       -3.014207e-05 -0.016097356 -0.0030185515 -0.012859317
000320 01 d0 8c 3a 6b 03 8e 3b b5 90 14 bc 18 22 b0 3b
       0.0010743142 0.0043339035 -0.009067704 0.005375158
000330 85 24 85 bc 51 3f 76 3a e0 bd f2 3b 5e 0b f2 3b
       -0.016252765 0.000939359 0.007407889 0.007386609
000340 29 2d 51 bb 61 76 b1 bb b0 75 12 bc 84 5f 09 ba
       -0.0031917787 -0.005415723 -0.008939192 -0.0005240368
000350 2c d0 73 3a 9c 0c 39 3b 73 da 0f ba d9 4b 8b 3c
       0.00093007344 0.0028236276 -0.00054875686 0.01700394
000360 d4 84 9c ba 4c 08 c0 bb 89 a7 61 3c 06 b9 b5 3b
       -0.0011941441 -0.005860364 0.013772854 0.005545738
000370 88 06 2d 3a 10 a3 5d 3a f9 ee be 39 63 13 dd 3b
       0.00066003995 0.0008454779 0.00036417673 0.006746696
000380 bc d2 8f 3a 95 82 74 3c 1a f1 43 bc c0 76 af bb
       0.0010972838 0.014923711 -0.011959339 -0.0053547323
000390 c0 70 22 bc fc cb 85 3b b4 7c 10 bc 8f f6 78 3b
       -0.009914577 0.0040831547 -0.008818794 0.0037988757
0003a0 a1 a1 11 3b a2 16 6b 3c 3a 41 0b bc f4 ee c7 ba
       0.0022221582 0.014348658 -0.008499438 -0.0015253709
0003b0 c2 56 83 bb 8b a4 0b 3c 64 1f 65 bb 79 12 43 ba
       -0.004008145 0.008523117 -0.0034961337 -0.00074414123
0003c0 fd d9 fe 3a 19 f3 ec 3b 2e 4d 8c bb a5 9d c4 bb
       0.0019443628 0.007231128 -0.0042816615 -0.006000238
0003d0 aa b9 5f 3c 0a 48 1c 3a 0d 6a 31 bc e7 0a 26 3c
       0.013655106 0.00059616624 -0.010828507 0.010134435
0003e0 dc 7c 88 bc 16 3d c5 bb f8 be 1f bb b8 30 70 3b
       -0.0166611 -0.006019245 -0.00243753 0.0036650132
0003f0 e7 e6 fe 3b f7 d4 7e 3c 87 97 d4 bb 13 32 8c bc
       0.0077789905 0.015553704 -0.00648779 -0.017113721

model.model.tcn.0.downsample.bias f4 [16]
000000 06 00 6f 3c 2b 1a 31 bd 5e ed a7 39 eb 5a 14 bc
       0.014587408 -0.043237846 0.00032029575 -0.00905488
000010 bf 5c ca bc b9 ff af 3c 49 67 8f 3c 4f 05 45 3d
       -0.024702428 0.021484243 0.017505305 0.048100766
000020 a4 6a 71 bc 1a b8 71 bc b4 9c 88 3d 67 7f 86 bd
       -0.014734898 -0.014753366 0.06670514 -0.06567269
000030 1d 45 70 bb e2 16 e8 bc 25 f0 86 bd d7 dc 57 3d
       -0.0036662288 -0.028331224 -0.06588773 0.052700844
