s2s/src/main/python/checkpoints/epoch=9-step=3650-v2.ckpt (torch, 287455 bytes, 143 tensors)

model.model.tcn.0.conv1.weight f4 [16, 225, 3]
00000000: 9dbf df3b 1fb6 71b9 72b3 d63c 0bd7 acba
00000010: 959b f6ba 0256 bdbb 09d1 5e3c 1dbe 94bc
00000020: df43 dc3b 501c 8fba 5d38 b83c ea85 0ebb
00000030: 7dc1 23bc d3ce dd3b c4da 45bc d228 ce38
00000040: 8d3b 70bc 5207 bdba 276d 723a 48de 813c
00000050: 2d77 663c 22db 2fbb ae47 093c 921f 0b3c
00000060: 798c 8e3a 0e35 ee3a 15aa 5d3c 9fae b6bc
00000070: f871 253c e35a 74bc 2e4c 733b 674a 79bb
00000080: 78af 193c aa94 13bc fa1f 453c 67a2 2cba
00000090: ac3d 3a3c ec6c 213c 4825 083c 6aab 403c
000000a0: c1ed 233a bd8a d23b 0cab 803a b30b 76bb
000000b0: d6b3 36bb 36f4 85bb ad7f 2d3a 1668 03bc
000000c0: 1c01 cdbb 92c2 5e3c 1701 b6ba 7f94 c3bc
000000d0: 2c9b 2d3c 57c9 93bc d063 82bb 78d9 55bc
000000e0: 143f 19bb 3014 063c 12f0 cebb de4e 86b9
000000f0: b365 953b cc86 2f3c ba25 2b3c 5ce1 a8ba
00000100: fa81 1c3c fe31 e5bb 331e 11bc d106 eebb
00000110: d334 d9bb bc6f 893c ab9c 643c 610a 96ba
00000120: 98b0 2fba f065 a93c 0a06 3e3c c3c3 e8bb
00000130: 99b8 7e3c a633 fc3b 2410 ca3a 3158 b9bb
00000140: 0a3e 85bc c296 32ba b87d e7bb a41d eebb
00000150: 8872 4d3a a972 3cbc 6f35 f73b 605c 213b
00000160: bd67 373b 767a 2a3c 9715 673b 1060 ba3b
00000170: 5726 b73c baf5 debb 14c4 38ba c10c edbb
00000180: 7237 f1b9 c86c 55bc 2ba8 3c3c d7d9 e3ba
00000190: 0eff 613c 4e53 64bb acfd 80bb 1f80 eebb
000001a0: f829 913b dc0a 6dbc 2702 133c 8524 a6bb
000001b0: 4266 963c 4a03 1f3c a73f 26bc ba1e db3b
000001c0: e372 3e3b ec7b d03b 3e4e 3739 d01c 223b
000001d0: e615 b1bb 7020 653c 0819 773c 3c52 1c3c
000001e0: 4572 2e3c 36b1 d8bb 682a 4a3c b29f d1bb
000001f0: 6b7c 363c 9264 1bbc 8533 c93b 5a2e 613b
00000200: 613c 493c 72a8 af3c 4f28 47bc bbbb 903c
00000210: 9319 5bbc e83e fcbb 7217 eabb 1eb5 8fbc
00000220: 469d d4ba 7e44 a13c d238 3d3a 7a02 81bb
00000230: b119 96bc 4c2a 823c eb00 0f3b 6a16 fe3b
00000240: 8214 22bb aa2c 88bb d80c 0b3b 4612 383b
00000250: 7d67 1a3b bc6e 463a 2818 643c 6c00 16bc
00000260: 0352 103c a080 523c 191c 583b d6f8 193b
00000270: 9131 3e3c 5b79 e83b 79e3 1b3b 48ba 5f3c
00000280: 95e6 683c abb3 9a3a efa7 853a 0606 d6bb
00000290: 65c7 46bb 3b4a cebc 9bb9 0b3d c82f 8eba
000002a0: 2952 85bc d164 a33b 4694 333c 3dd6 27bc
000002b0: d633 ee3c 4f6b 813b 6080 873b b8aa b1bc
000002c0: ea0d a63b d3de 783b 9b20 403b 90ac ca3b
000002d0: 7799 ee3b a171 4ebb be8d 2339 a9c5 5e3c
000002e0: 023f 823b d64e b6bb 8114 823c 736c 39bc
000002f0: a161 8fbc 269c 603c 9c7c e8bb 6281 5f3c
00000300: 8e21 e5ba 3f09 94bc 9c43 31bb cad3 46bc
00000310: 1f9c 923b e148 79bb a3c5 e8bb 27dc 6c3c
00000320: 4a84 023d 059d 58bc 6c5b 213b 7ec2 3c3c
00000330: 801e aab9 374c b0b9 1a75 94b9 f362 633c
00000340: bfab c03b ef7a acbb 56a2 873c 5784 e93b
00000350: 177f fa39 fa0b dcbb 83cc 5f3a 9d2a 5b3b
00000360: 4be9 babb b4fa 3e3b a451 16bb b97d 1e3c
00000370: b9cd 993c 3769 eb3a db48 cd3b db9c 9eba
00000380: 89e6 48bb c1ab 433c 8c82 25bc 0c60 7fbc
00000390: 5a54 b9bb 68c5 6f3c 5547 e03b 753f 39bb
000003a0: 7800 e8bb 1d14 a3bc 528e f9bc 2dd5 193b
000003b0: b519 2b3b c083 1d3a d386 89bb 9545 13bc
000003c0: ca06 223c 6cdc ef3a 7b4e 03bb 0563 5e3b
000003d0: 0adc 333c 335a 16b9 8e16 98bb 606f 873b
000003e0: 4283 6c3c ec49 16bc 985b 0bbc 22f0 073c
000003f0: 03b6 c03a 8295 27bc 02df dbbb e3c4 473a
0.006828262 -0.00023051396 0.026208613 -0.0013186646 -0.0018814678 -0.005778075 0.013599643 -0.01815706
0.006721958 -0.0010918472 0.022487814 -0.00217473 -0.009994862 0.00676904 -0.012076084 9.830449e-05
-0.0146626355 -0.0014421737 0.00092478323 0.015853062 0.0140665 -0.0026833494 0.008378906 0.008491414
0.0010875604 0.001817377 0.01352932 -0.022300063 0.010097973 -0.014914247 0.0037124264 -0.0038038732
0.009380214 -0.009007612 0.01203155 -0.0006585479 0.011367243 0.009852629 0.00830967 0.011759618
0.00062533846 0.0064252303 0.0009816601 -0.0037543594 -0.0027878187 -0.00408795 0.00066184514 -0.0080204215
-0.0062562358 0.013596194 -0.0013885823 -0.02387452 0.010596078 -0.018040342 -0.0039791837 -0.013052337
-0.0023383545 0.008183524 -0.0063152397 -0.00025617232 0.0045592426 0.01071329 0.010446006 -0.0012884545
0.009552473 -0.006994485 -0.008857298 -0.007263996 -0.0066286116 0.016776912 0.013953368 -0.0011447185
-0.0006702035 0.02067849 0.0115981195 -0.0071034147 0.015546941 0.0076965867 0.0015416187 -0.005656265
-0.016264934 -0.0006812626 -0.0070645474 -0.007266717 0.0007837196 -0.0115019465 0.0075442116 0.002462171
0.0027985417 0.0104051735 0.0035260671 0.005687721 0.022357149 -0.006804195 -0.0007048261 -0.0072341864
-0.00046008412 -0.013026424 0.011514704 -0.0017383647 0.01379372 -0.0034839693 -0.00393649 -0.007278457
0.004430052 -0.014467921 0.008972681 -0.0050702714 0.018359307 0.009705374 -0.010147012 0.0066870125
0.0029060177 0.006362429 0.00017481387 0.0024736412 -0.005404222 0.0139847845 0.0150816515 0.009541091
0.010647361 -0.006612922 0.012339212 -0.006397211 0.011138062 -0.009484427 0.006140175 0.0034359903
0.012282462 0.021442626 -0.012155606 0.017667642 -0.013372797 -0.0076979287 -0.007143908 -0.017542418
-0.0016221188 0.01968598 0.0007218245 -0.003937063 -0.018322797 0.01588931 0.0021820616 0.007754137
-0.0024731462 -0.004155715 0.0021217372 0.0028087064 0.002356022 0.00075696013 0.013921775 -0.009155374
0.008808616 0.012848049 0.0032975732 0.0023494265 0.011608497 0.007094545 0.0023786707 0.013655253
0.014215131 0.0011802813 0.0010197143 -0.00653148 -0.003033125 -0.02518188 0.034112554 -0.001084798
-0.016274529 0.0049863835 0.010960644 -0.0102439495 0.029077452 0.0039495598 0.0041351765 -0.02168785
0.0050675767 0.003797461 0.002931631 0.006185122 0.007281478 -0.0031500834 0.00015597694 0.013596931
0.0039747963 -0.005563597 0.015878918 -0.01131736 -0.017502608 0.013709104 -0.0070949327 0.013641687
-0.0017481314 -0.018070815 -0.0027048355 -0.012135455 0.0044741775 -0.0038037824 -0.0071036383 0.014456785
0.031864442 -0.01322103 0.0024621142 0.01152098 -0.0003244765 -0.0003362612 -0.00028316007 0.013878572
0.0058798487 -0.0052636783 0.0165569 0.007126372 0.00047778405 -0.006715295 0.00085372495 0.0033442148
-0.00570408 0.002914113 -0.0022936845 0.009673529 0.018774854 0.0017960434 0.0062647886 -0.001210119
-0.0030654988 0.011942805 -0.010101926 -0.015586864 -0.0056558074 0.014634468 0.006844441 -0.0028266583
-0.007080134 -0.019907052 -0.030463371 0.002347301 0.0026107852 0.0006008707 -0.0041969805 -0.008988758
0.009889314 0.0018299944 -0.0020035792 0.0033933532 0.010977754 -0.00014338717 -0.0046413606 0.00413315
0.014435591 -0.009172898 -0.008505724 0.008296998 0.0014702681 -0.0102285165 -0.006709934 0.0007620586

model.model.tcn.0.conv1.bias f4 [16]
00000000: c418 703c 5ff5 183d e363 06bb 4cdf 9a3c
00000010: be67 563c 9a6d de3c 8d8e 283c 3a79 7a3c
00000020: 56ce c73c 3412 9ebc b4d9 43bc 926e 793c
00000030: c795 e3bc f67f 32bc 976e 57bc 9dbf 0bbb
0.014654342 0.03734338 -0.0020506314 0.018905304 0.0130862575 0.027151871 0.010287893 0.015287692
0.02439038 -0.01929579 -0.01195376 0.015224116 -0.02778138 -0.010894766 -0.013148925 -0.0021323927

model.model.tcn.0.bn1.weight f4 [16]
00000000: 21fc 7b3f b212 823f 190a 813f 1654 7c3f
00000010: 9fef 813f 28c7 7f3f faf8 793f 4cd8 803f
00000020: 8b55 7e3f 1acc 7d3f d21a 803f 9ab5 7c3f
00000030: a381 7f3f bbd4 7e3f 8c6d 7d3f 2ff8 7b3f
0.98431593 1.0161955 1.0081207 0.98565805 1.0151252 0.99913263 0.97645533 1.0066009
0.9934928 0.9913956 1.0008185 0.987146 0.99807185 0.9954335 0.9899528 0.98425573

model.model.tcn.0.bn1.bias f4 [16]
00000000: a1a8 f1bb c2b7 613a 944d 81ba dc69 72bc
00000010: 539e 8d3b f460 2fb8 a68b 94bc c749 73ba
00000020: 40ee 37bb e238 8fbb 6d9a 04bb 0b9a 13bc
00000030: ec48 2f3b c5ab 59bb 8f10 a7bb 90c8 97bb
-0.0073748385 0.0008610451 -0.0009865039 -0.014795747 0.0043218522 -4.1813546e-05 -0.018132996 -0.0009280708
-0.0028065592 -0.0043707946 -0.0020233647 -0.009008895 0.0026746346 -0.0033213955 -0.0050984095 -0.004632063

model.model.tcn.0.bn1.running_mean f4 [16]
00000000: 7fbb 473c 124b 133d 0e4b b1bb d74e a93c
00000010: 24b2 223c 3c1c d83c de1e a43c 6b6d 493c
00000020: ae8a d23c 4d03 b5bc f651 68bc 7046 c73c
00000030: dafe d0bc 7e50 48bc 8356 87bb a592 8f3b
0.012190699 0.035960265 -0.0054105585 0.020667477 0.009930167 0.02638065 0.02003425 0.012294154
0.025700893 -0.0220963 -0.014179697 0.02432558 -0.025512148 -0.012226222 -0.004130186 0.004381495

model.model.tcn.0.bn1.running_var f4 [16]
00000000: 335d bb3c 5104 053c f8e3 fb3b 21d7 c53d
00000010: 92eb 213c e16e 9f3c b0db 403e fed3 dd3b
00000020: 69d5 db3c c1ed ed3c 6c3e 373c e6ef df3d
00000030: f257 8e3c 4d30 ee3c 4949 7e3d 478e 4f3d
0.02287159 0.008118705 0.007687088 0.09660173 0.0098828245 0.01946205 0.18833804 0.006769656
0.02683516 0.029044034 0.011184316 0.10934429 0.01737592 0.029075766 0.06208161 0.050672796

model.model.tcn.0.conv2.weight f4 [16, 16, 3]
00000000: f371 51bb dcd9 a138 1216 f9ba a7d2 573c
00000010: c959 f13b 0da4 4e3c b86a 853b e91f b53b
00000020: e112 ae3c 6435 3bb9 e810 abbb d02a 363b
00000030: f59b 5d3b 330a 8c3c 95c2 413c c918 293b
00000040: 4008 323c c968 3a3c a4da e13b 95aa 36bc
00000050: 70e4 a3bb bbdb e63b 9d35 f43b 6bf1 bc3b
00000060: a676 f93a 5e66 e7bb 6f26 8bbb c5a9 60bc
00000070: de9e 5339 ac99 58bb 81c1 f83a 7824 673c
00000080: 098a 103b d652 163c 4fd5 43bc 254e 073c
00000090: 7e58 973b 0c04 d9bb ab74 90bb 7b61 cb3a
000000a0: 2b33 5b3a cb9d 893b 17a5 d3bb 6941 0abb
000000b0: 131c a13a 3527 95bb f1d9 4b3b a81d 03bb
000000c0: b608 7fbb d974 38bb d1d9 78bb d193 993c
000000d0: 9454 393c 7e88 8a3c 7db5 4b3b 9e3c 9d3c
000000e0: a14e efbb fa4a 77bc 1596 d73c 2c8d f43b
000000f0: 0458 bf3b 6ac9 643c 07aa 533c 03fc 8d3b
00000100: 854d 003c a370 1d3c 8e8c a7bb deaf 7e39
00000110: 07d1 38bc 234c 673c 6a78 593c d13f d63c
00000120: a96b 0bbc 98d9 e439 912f 1abc bf46 89bb
00000130: 8163 2dbc 0667 863b d2c6 233c 98cc 7b3c
00000140: 5f98 46ba 2cab 6fba d73e b2bb 6d46 7abc
00000150: 7f93 1cbb 42a0 25bc bad9 79ba 4732 4c3b
00000160: 6396 cbba f3bb 7c3b b462 b1bb c2b2 4c3c
00000170: 295f 51bb 492a 86bc 4720 f03b 2ded b93a
00000180: 1b2f 893b 1f6d 09bc f770 41bb 1a8b 58bb
00000190: 5e0c 3b3c cc73 b53c 2aba a0bb 39a3 ef3b
000001a0: d0dc 883c 8ff8 243c e64d 7c3a 1c1d 00bc
000001b0: cee2 313b 959a 6b3c f621 7b3b 8227 9c3a
000001c0: 2f2c a73b 7bf7 f83b ba5c 9f3c 6135 92ba
000001d0: 3f91 b43a 629a f1bb d8b0 303c 2fc3 363c
000001e0: c901 28bb fd0d 56bb cb8c 0fbc b900 a3bb
000001f0: f871 b1bb 016b 09bc f31a 6fba 1338 873b
00000200: b589 263c a842 6bbc acb3 423c e34a aebc
00000210: fe42 38bb dd29 d7bb 0931 d1bb 19e5 eb39
00000220: a942 b7b9 1dc4 5b3c 9d2f 08bc 78d5 843b
00000230: 8615 643b edd5 83bc 225e 2a3b 4d14 703b
00000240: 3f7f 62ba 7dfb c2bb 8247 b9bb cbd5 e33b
00000250: 808a 103b 9253 a73c bd1f 02ba e7c3 0b3c
00000260: dd29 793c 286e 8f3c 74ee 9cbb 85dc 8b3b
00000270: ef62 16bb da82 8b3b 5b67 8a3c 7e77 c83a
00000280: 9329 a73c bf48 ce3b 81f6 db3b d745 63bc
00000290: 9efe cf3a 2349 acbb ae03 2d3c 98c8 ad3b
000002a0: 9747 e13b f617 c8bb 2d34 bfba 393a 0bbc
000002b0: 2dee 6cbc 9507 2cba 1145 cdbb c846 7ebb
000002c0: a13a 3a3c f500 a2bb 2b05 81bb 2783 feba
000002d0: 0937 a53b e598 4abc a5da f0bb 964e 0fbc
000002e0: f34b 0c3b 3277 193c 1528 93bb 5442 8f3b
000002f0: 6148 6abc 3232 83ba 0598 123b b6ec 333b
00000300: 9cac 853a 7ee5 c53a 3555 95ba 8e36 2c3c
00000310: 96ae e23b 5ed9 2e3c fed3 b93b c91e b93c
00000320: da93 143c 090c a6bb a0cc 553c 9c7a 213b
00000330: 174f bb3b 9acc be3b f120 563b dd93 fb3b
00000340: 65f9 033b 801e 103c ea58 44bc 845f b7bb
00000350: f727 29bc e5b6 2b3c 9a9b 053a a2a9 043c
00000360: a4fd 16bb c9be 273c 7d56 ffbb 3004 5fbb
00000370: 3281 8abb 960b eb3b 6edd 1b3b 2c59 b63b
00000380: 0850 e53b 153f 8e3b 0020 82bb e731 a3bb
00000390: 1fa8 303c e2c8 a23a 9d8e 59bc 6900 f63b
000003a0: 842b 37bc d497 ca3a eee9 85bb 4115 0a3c
000003b0: 09b6 813b 1c16 433c 3a58 daba 42d7 18bc
000003c0: 6cad 323a 4eab 95ba 6769 12bb af35 aebb
000003d0: a6eb 453c 8a5f c63b 8a32 563b d1e6 b1ba
000003e0: e6ce c93c 7ff6 963b a3fd 61bc a10e 793b
000003f0: 900e 1dbb b5a5 9738 e9e2 6f3c 1574 943b
-0.0031958788 7.717658e-05 -0.001900377 0.013172782 0.0073654396 0.012612355 0.0040715598 0.0055274856
0.021249237 -0.000178536 -0.0052205212 0.0027796514 0.0033814881 0.017094707 0.011826177 0.0025802127
0.010866225 0.011377522 0.006892519 -0.011149068 -0.005001597 0.007045237 0.0074526803 0.005766084
0.0019032552 -0.0070617637 -0.004246525 -0.013712351 0.0002018171 -0.003305058 0.0018978567 0.014107816
0.0022054932 0.009175023 -0.011952712 0.008258377 0.0046187034 -0.006622797 -0.004408439 0.0015516722
0.00083618116 0.0041997186 -0.006458889 -0.0021096116 0.0012291692 -0.004551793 0.0031105245 -0.002000669
-0.0038915104 -0.0028145819 -0.0037971626 0.018747242 0.011311669 0.016910788 0.0031083517 0.019193944
-0.0073030745 -0.015093559 0.026316682 0.007463118 0.0058393497 0.0139640365 0.012918956 0.0043330207
0.007830982 0.009609374 -0.005113191 0.00024288843 -0.011280305 0.0141172735 0.013273338 0.026153477
-0.008509555 0.0004364967 -0.009410755 -0.004189342 -0.010582806 0.004101637 0.009996133 0.015368603
-0.00075758056 -0.0009142633 -0.00543962 -0.01527558 -0.0023891625 -0.010109009 -0.000953104 0.0031157897
-0.001553249 0.0038564175 -0.0054133777 0.012493791 -0.003194759 -0.016377585 0.0073280665 0.0014185064
0.0041865236 -0.008387833 -0.0029516795 -0.0033041895 0.011416523 0.022149943 -0.004905005 0.007313159
0.016706854 0.010069027 0.0009624645 -0.00781944 0.0027143243 0.014380117 0.0038319803 0.001191363
0.0051017026 0.0075978613 0.019453395 -0.0011154824 0.0013776197 -0.00737314 0.01078435 0.011154934
-0.002563583 -0.0032662146 -0.008761595 -0.0049744514 -0.0054151975 -0.008387328 -0.0009121142 0.0041265576
0.010164668 -0.014359154 0.011883657 -0.021275943 -0.0028116102 -0.00656627 -0.0063840193 0.00044993384
-0.00034954146 0.013413456 -0.008312133 0.004053768 0.0034802868 -0.016093219 0.002599605 0.0036633194
-0.0008640177 -0.00595039 -0.0056542763 0.0069529763 0.0022055209 0.020425592 -0.0004963836 0.0085305935
0.015207735 0.017508581 -0.004789168 0.0042682313 -0.0022947153 0.004257542 0.016894987 0.00152944
0.020405566 0.006295293 0.006712735 -0.013871632 0.0015868729 -0.005257742 0.010559959 0.0053034537
0.0068749893 -0.006106372 -0.0014587693 -0.008497768 -0.014461082 -0.0006562409 -0.006264337 -0.0038799513
0.011366517 -0.0049439617 -0.0039373836 -0.0019417749 0.005041961 -0.012365554 -0.007350283 -0.008746764
0.0021407574 0.009366797 -0.004490862 0.0043719206 -0.014299483 -0.0010009466 0.0022368443 0.0027454323
0.0010198536 0.0015098301 -0.0011393192 0.010511054 0.006917785 0.010671942 0.0056710234 0.022597687
0.009068454 -0.0050673527 0.013049275 0.0024639731 0.0057162154 0.0058227303 0.0032673443 0.007677539
0.0020137664 0.008796334 -0.011984089 -0.005596103 -0.01032447 0.010480617 0.0005096734 0.008097084
-0.0023039365 0.010238358 -0.0077922926 -0.0034029596 -0.004226827 0.007173012 0.0023783105 0.0055648293
0.006998066 0.004341016 -0.0039711 -0.004980314 0.010782271 0.0012419487 -0.013278631 0.007507373
-0.0111798085 0.0015456625 -0.0040867245 0.008427919 0.003958468 0.011907127 -0.0016658374 -0.009328665
0.0006816003 -0.0011418851 -0.0022340657 -0.005316458 0.012080109 0.0060538696 0.0032683932 -0.0013572817
0.02463479 0.0046070213 -0.013793382 0.0038003104 -0.0023964979 7.2311064e-05 0.014641502 0.0045304396

model.model.tcn.0.conv2.bias f4 [16]
00000000: c4a1 1fbc 5964 99bc d260 f2bd 2063 2a3c
00000010: 5c21 0d3e dc52 7ebd a693 d03d 4b18 09be
00000020: 869f 023d a9e3 4b3d ea7c a6bd 61d1 903d
00000030: 97c7 bfbc ef81 c13d 8461 1bbd 2014 cebd
-0.009743158 -0.018724607 -0.11834873 0.01039961 0.13782257 -0.06209074 0.10184412 -0.13388173
0.031890415 0.04977766 -0.08129294 0.07071186 -0.023410602 0.09448611 -0.037934795 -0.10062432

model.model.tcn.0.bn2.weight f4 [16]
00000000: 0523 843f 68be 833f f011 843f 8185 833f
00000010: 9086 823f b677 813f c59b 843f c154 843f
00000020: c242 833f 5d9b 843f a88d 823f a982 803f
00000030: 5b19 843f 15d8 823f 1a51 833f dd63 833f
1.0323187 1.0292482 1.0317974 1.0275117 1.0197315 1.0114658 1.0360037 1.0338365
1.0254748 1.0359913 1.019948 1.0039874 1.0320238 1.0222193 1.0259125 1.0264851

model.model.tcn.0.bn2.bias f4 [16]
00000000: eb71 f03c 1c99 d03c 5a53 ab3c 80b9 513c
00000010: f67c 913c 7c50 4e3c 533a 043d 1044 c03c
00000020: 43e5 bc3c e934 cb3c bc65 c23c 25b2 1a3c
00000030: 1773 653c afa4 8f3c 9cfc 9b3c 3f71 9c3c
0.029351195 0.025463633 0.020913769 0.012800574 0.017759781 0.012592431 0.032282185 0.023469955
0.02305854 0.024805503 0.023730151 0.009441887 0.01400449 0.017534582 0.019041352 0.019096969

model.model.tcn.0.bn2.running_mean f4 [16]
00000000: 4a96 d73c 3a73 b53c 155f ccbd 0fea df3c
00000010: c1b5 343e f4cc 14bd 27ec 0e3e cce6 e2bd
00000020: c742 833d fe46 963d cd82 46bd feed 1f3d
00000030: 9987 9cbb 888c ee3d 0e03 93bc 13f6 9dbd
0.02631678 0.02214967 -0.09979073 0.027333288 0.17647459 -0.03632827 0.13957272 -0.11079177
0.06409221 0.073377594 -0.048464585 0.039045326 -0.0047769067 0.11647898 -0.017945793 -0.077129506

model.model.tcn.0.bn2.running_var f4 [16]
00000000: 9516 933b b5b0 053c 27fd 683b bc20 373b
00000010: ce76 5e3b ab57 623b 156d c63b 5759 913b
00000020: 58f7 8c3b ed82 613b f6f8 933b 289e 593b
00000030: 5fe0 8b3b 84b3 483b e7df 673b 551e 703b
0.004488776 0.008159806 0.0035551281 0.0027943095 0.0033945325 0.0034537117 0.006055484 0.004435699
0.0043019466 0.0034410313 0.0045157624 0.003320584 0.0042686905 0.0030624578 0.003538126 0.0036639173

model.model.tcn.0.net.0.weight f4 [16, 225, 3]
00000000: 9dbf df3b 1fb6 71b9 72b3 d63c 0bd7 acba
00000010: 959b f6ba 0256 bdbb 09d1 5e3c 1dbe 94bc
00000020: df43 dc3b 501c 8fba 5d38 b83c ea85 0ebb
00000030: 7dc1 23bc d3ce dd3b c4da 45bc d228 ce38
00000040: 8d3b 70bc 5207 bdba 276d 723a 48de 813c
00000050: 2d77 663c 22db 2fbb ae47 093c 921f 0b3c
00000060: 798c 8e3a 0e35 ee3a 15aa 5d3c 9fae b6bc
00000070: f871 253c e35a 74bc 2e4c 733b 674a 79bb
00000080: 78af 193c aa94 13bc fa1f 453c 67a2 2cba
00000090: ac3d 3a3c ec6c 213c 4825 083c 6aab 403c
000000a0: c1ed 233a bd8a d23b 0cab 803a b30b 76bb
000000b0: d6b3 36bb 36f4 85bb ad7f 2d3a 1668 03bc
000000c0: 1c01 cdbb 92c2 5e3c 1701 b6ba 7f94 c3bc
000000d0: 2c9b 2d3c 57c9 93bc d063 82bb 78d9 55bc
000000e0: 143f 19bb 3014 063c 12f0 cebb de4e 86b9
000000f0: b365 953b cc86 2f3c ba25 2b3c 5ce1 a8ba
00000100: fa81 1c3c fe31 e5bb 331e 11bc d106 eebb
00000110: d334 d9bb bc6f 893c ab9c 643c 610a 96ba
00000120: 98b0 2fba f065 a93c 0a06 3e3c c3c3 e8bb
00000130: 99b8 7e3c a633 fc3b 2410 ca3a 3158 b9bb
00000140: 0a3e 85bc c296 32ba b87d e7bb a41d eebb
00000150: 8872 4d3a a972 3cbc 6f35 f73b 605c 213b
00000160: bd67 373b 767a 2a3c 9715 673b 1060 ba3b
00000170: 5726 b73c baf5 debb 14c4 38ba c10c edbb
00000180: 7237 f1b9 c86c 55bc 2ba8 3c3c d7d9 e3ba
00000190: 0eff 613c 4e53 64bb acfd 80bb 1f80 eebb
000001a0: f829 913b dc0a 6dbc 2702 133c 8524 a6bb
000001b0: 4266 963c 4a03 1f3c a73f 26bc ba1e db3b
000001c0: e372 3e3b ec7b d03b 3e4e 3739 d01c 223b
000001d0: e615 b1bb 7020 653c 0819 773c 3c52 1c3c
000001e0: 4572 2e3c 36b1 d8bb 682a 4a3c b29f d1bb
000001f0: 6b7c 363c 9264 1bbc 8533 c93b 5a2e 613b
00000200: 613c 493c 72a8 af3c 4f28 47bc bbbb 903c
00000210: 9319 5bbc e83e fcbb 7217 eabb 1eb5 8fbc
00000220: 469d d4ba 7e44 a13c d238 3d3a 7a02 81bb
00000230: b119 96bc 4c2a 823c eb00 0f3b 6a16 fe3b
00000240: 8214 22bb aa2c 88bb d80c 0b3b 4612 383b
00000250: 7d67 1a3b bc6e 463a 2818 643c 6c00 16bc
00000260: 0352 103c a080 523c 191c 583b d6f8 193b
00000270: 9131 3e3c 5b79 e83b 79e3 1b3b 48ba 5f3c
00000280: 95e6 683c abb3 9a3a efa7 853a 0606 d6bb
00000290: 65c7 46bb 3b4a cebc 9bb9 0b3d c82f 8eba
000002a0: 2952 85bc d164 a33b 4694 333c 3dd6 27bc
000002b0: d633 ee3c 4f6b 813b 6080 873b b8aa b1bc
000002c0: ea0d a63b d3de 783b 9b20 403b 90ac ca3b
000002d0: 7799 ee3b a171 4ebb be8d 2339 a9c5 5e3c
000002e0: 023f 823b d64e b6bb 8114 823c 736c 39bc
000002f0: a161 8fbc 269c 603c 9c7c e8bb 6281 5f3c
00000300: 8e21 e5ba 3f09 94bc 9c43 31bb cad3 46bc
00000310: 1f9c 923b e148 79bb a3c5 e8bb 27dc 6c3c
00000320: 4a84 023d 059d 58bc 6c5b 213b 7ec2 3c3c
00000330: 801e aab9 374c b0b9 1a75 94b9 f362 633c
00000340: bfab c03b ef7a acbb 56a2 873c 5784 e93b
00000350: 177f fa39 fa0b dcbb 83cc 5f3a 9d2a 5b3b
00000360: 4be9 babb b4fa 3e3b a451 16bb b97d 1e3c
00000370: b9cd 993c 3769 eb3a db48 cd3b db9c 9eba
00000380: 89e6 48bb c1ab 433c 8c82 25bc 0c60 7fbc
00000390: 5a54 b9bb 68c5 6f3c 5547 e03b 753f 39bb
000003a0: 7800 e8bb 1d14 a3bc 528e f9bc 2dd5 193b
000003b0: b519 2b3b c083 1d3a d386 89bb 9545 13bc
000003c0: ca06 223c 6cdc ef3a 7b4e 03bb 0563 5e3b
000003d0: 0adc 333c 335a 16b9 8e16 98bb 606f 873b
000003e0: 4283 6c3c ec49 16bc 985b 0bbc 22f0 073c
000003f0: 03b6 c03a 8295 27bc 02df dbbb e3c4 473a
0.006828262 -0.00023051396 0.026208613 -0.0013186646 -0.0018814678 -0.005778075 0.013599643 -0.01815706
0.006721958 -0.0010918472 0.022487814 -0.00217473 -0.009994862 0.00676904 -0.012076084 9.830449e-05
-0.0146626355 -0.0014421737 0.00092478323 0.015853062 0.0140665 -0.0026833494 0.008378906 0.008491414
0.0010875604 0.001817377 0.01352932 -0.022300063 0.010097973 -0.014914247 0.0037124264 -0.0038038732
0.009380214 -0.009007612 0.01203155 -0.0006585479 0.011367243 0.009852629 0.00830967 0.011759618
0.00062533846 0.0064252303 0.0009816601 -0.0037543594 -0.0027878187 -0.00408795 0.00066184514 -0.0080204215
-0.0062562358 0.013596194 -0.0013885823 -0.02387452 0.010596078 -0.018040342 -0.0039791837 -0.013052337
-0.0023383545 0.008183524 -0.0063152397 -0.00025617232 0.0045592426 0.01071329 0.010446006 -0.0012884545
0.009552473 -0.006994485 -0.008857298 -0.007263996 -0.0066286116 0.016776912 0.013953368 -0.0011447185
-0.0006702035 0.02067849 0.0115981195 -0.0071034147 0.015546941 0.0076965867 0.0015416187 -0.005656265
-0.016264934 -0.0006812626 -0.0070645474 -0.007266717 0.0007837196 -0.0115019465 0.0075442116 0.002462171
0.0027985417 0.0104051735 0.0035260671 0.005687721 0.022357149 -0.006804195 -0.0007048261 -0.0072341864
-0.00046008412 -0.013026424 0.011514704 -0.0017383647 0.01379372 -0.0034839693 -0.00393649 -0.007278457
0.004430052 -0.014467921 0.008972681 -0.0050702714 0.018359307 0.009705374 -0.010147012 0.0066870125
0.0029060177 0.006362429 0.00017481387 0.0024736412 -0.005404222 0.0139847845 0.0150816515 0.009541091
0.010647361 -0.006612922 0.012339212 -0.006397211 0.011138062 -0.009484427 0.006140175 0.0034359903
0.012282462 0.021442626 -0.012155606 0.017667642 -0.013372797 -0.0076979287 -0.007143908 -0.017542418
-0.0016221188 0.01968598 0.0007218245 -0.003937063 -0.018322797 0.01588931 0.0021820616 0.007754137
-0.0024731462 -0.004155715 0.0021217372 0.0028087064 0.002356022 0.00075696013 0.013921775 -0.009155374
0.008808616 0.012848049 0.0032975732 0.0023494265 0.011608497 0.007094545 0.0023786707 0.013655253
0.014215131 0.0011802813 0.0010197143 -0.00653148 -0.003033125 -0.02518188 0.034112554 -0.001084798
-0.016274529 0.0049863835 0.010960644 -0.0102439495 0.029077452 0.0039495598 0.0041351765 -0.02168785
0.0050675767 0.003797461 0.002931631 0.006185122 0.007281478 -0.0031500834 0.00015597694 0.013596931
0.0039747963 -0.005563597 0.015878918 -0.01131736 -0.017502608 0.013709104 -0.0070949327 0.013641687
-0.0017481314 -0.018070815 -0.0027048355 -0.012135455 0.0044741775 -0.0038037824 -0.0071036383 0.014456785
0.031864442 -0.01322103 0.0024621142 0.01152098 -0.0003244765 -0.0003362612 -0.00028316007 0.013878572
0.0058798487 -0.0052636783 0.0165569 0.007126372 0.00047778405 -0.006715295 0.00085372495 0.0033442148
-0.00570408 0.002914113 -0.0022936845 0.009673529 0.018774854 0.0017960434 0.0062647886 -0.001210119
-0.0030654988 0.011942805 -0.010101926 -0.015586864 -0.0056558074 0.014634468 0.006844441 -0.0028266583
-0.007080134 -0.019907052 -0.030463371 0.002347301 0.0026107852 0.0006008707 -0.0041969805 -0.008988758
0.009889314 0.0018299944 -0.0020035792 0.0033933532 0.010977754 -0.00014338717 -0.0046413606 0.00413315
0.014435591 -0.009172898 -0.008505724 0.008296998 0.0014702681 -0.0102285165 -0.006709934 0.0007620586

model.model.tcn.0.net.0.bias f4 [16]
00000000: c418 703c 5ff5 183d e363 06bb 4cdf 9a3c
00000010: be67 563c 9a6d de3c 8d8e 283c 3a79 7a3c
00000020: 56ce c73c 3412 9ebc b4d9 43bc 926e 793c
00000030: c795 e3bc f67f 32bc 976e 57bc 9dbf 0bbb
0.014654342 0.03734338 -0.0020506314 0.018905304 0.0130862575 0.027151871 0.010287893 0.015287692
0.02439038 -0.01929579 -0.01195376 0.015224116 -0.02778138 -0.010894766 -0.013148925 -0.0021323927

model.model.tcn.0.net.1.weight f4 [16]
00000000: 21fc 7b3f b212 823f 190a 813f 1654 7c3f
00000010: 9fef 813f 28c7 7f3f faf8 793f 4cd8 803f
00000020: 8b55 7e3f 1acc 7d3f d21a 803f 9ab5 7c3f
00000030: a381 7f3f bbd4 7e3f 8c6d 7d3f 2ff8 7b3f
0.98431593 1.0161955 1.0081207 0.98565805 1.0151252 0.99913263 0.97645533 1.0066009
0.9934928 0.9913956 1.0008185 0.987146 0.99807185 0.9954335 0.9899528 0.98425573

model.model.tcn.0.net.1.bias f4 [16]
00000000: a1a8 f1bb c2b7 613a 944d 81ba dc69 72bc
00000010: 539e 8d3b f460 2fb8 a68b 94bc c749 73ba
00000020: 40ee 37bb e238 8fbb 6d9a 04bb 0b9a 13bc
00000030: ec48 2f3b c5ab 59bb 8f10 a7bb 90c8 97bb
-0.0073748385 0.0008610451 -0.0009865039 -0.014795747 0.0043218522 -4.1813546e-05 -0.018132996 -0.0009280708
-0.0028065592 -0.0043707946 -0.0020233647 -0.009008895 0.0026746346 -0.0033213955 -0.0050984095 -0.004632063

model.model.tcn.0.net.1.running_mean f4 [16]
00000000: 7fbb 473c 124b 133d 0e4b b1bb d74e a93c
00000010: 24b2 223c 3c1c d83c de1e a43c 6b6d 493c
00000020: ae8a d23c 4d03 b5bc f651 68bc 7046 c73c
00000030: dafe d0bc 7e50 48bc 8356 87bb a592 8f3b
0.012190699 0.035960265 -0.0054105585 0.020667477 0.009930167 0.02638065 0.02003425 0.012294154
0.025700893 -0.0220963 -0.014179697 0.02432558 -0.025512148 -0.012226222 -0.004130186 0.004381495

model.model.tcn.0.net.1.running_var f4 [16]
00000000: 335d bb3c 5104 053c f8e3 fb3b 21d7 c53d
00000010: 92eb 213c e16e 9f3c b0db 403e fed3 dd3b
00000020: 69d5 db3c c1ed ed3c 6c3e 373c e6ef df3d
00000030: f257 8e3c 4d30 ee3c 4949 7e3d 478e 4f3d
0.02287159 0.008118705 0.007687088 0.09660173 0.0098828245 0.01946205 0.18833804 0.006769656
0.02683516 0.029044034 0.011184316 0.10934429 0.01737592 0.029075766 0.06208161 0.050672796

model.model.tcn.0.net.5.weight f4 [16, 16, 3]
00000000: f371 51bb dcd9 a138 1216 f9ba a7d2 573c
00000010: c959 f13b 0da4 4e3c b86a 853b e91f b53b
00000020: e112 ae3c 6435 3bb9 e810 abbb d02a 363b
00000030: f59b 5d3b 330a 8c3c 95c2 413c c918 293b
00000040: 4008 323c c968 3a3c a4da e13b 95aa 36bc
00000050: 70e4 a3bb bbdb e63b 9d35 f43b 6bf1 bc3b
00000060: a676 f93a 5e66 e7bb 6f26 8bbb c5a9 60bc
00000070: de9e 5339 ac99 58bb 81c1 f83a 7824 673c
00000080: 098a 103b d652 163c 4fd5 43bc 254e 073c
00000090: 7e58 973b 0c04 d9bb ab74 90bb 7b61 cb3a
000000a0: 2b33 5b3a cb9d 893b 17a5 d3bb 6941 0abb
000000b0: 131c a13a 3527 95bb f1d9 4b3b a81d 03bb
000000c0: b608 7fbb d974 38bb d1d9 78bb d193 993c
000000d0: 9454 393c 7e88 8a3c 7db5 4b3b 9e3c 9d3c
000000e0: a14e efbb fa4a 77bc 1596 d73c 2c8d f43b
000000f0: 0458 bf3b 6ac9 643c 07aa 533c 03fc 8d3b
00000100: 854d 003c a370 1d3c 8e8c a7bb deaf 7e39
00000110: 07d1 38bc 234c 673c 6a78 593c d13f d63c
00000120: a96b 0bbc 98d9 e439 912f 1abc bf46 89bb
00000130: 8163 2dbc 0667 863b d2c6 233c 98cc 7b3c
00000140: 5f98 46ba 2cab 6fba d73e b2bb 6d46 7abc
00000150: 7f93 1cbb 42a0 25bc bad9 79ba 4732 4c3b
00000160: 6396 cbba f3bb 7c3b b462 b1bb c2b2 4c3c
00000170: 295f 51bb 492a 86bc 4720 f03b 2ded b93a
00000180: 1b2f 893b 1f6d 09bc f770 41bb 1a8b 58bb
00000190: 5e0c 3b3c cc73 b53c 2aba a0bb 39a3 ef3b
000001a0: d0dc 883c 8ff8 243c e64d 7c3a 1c1d 00bc
000001b0: cee2 313b 959a 6b3c f621 7b3b 8227 9c3a
000001c0: 2f2c a73b 7bf7 f83b ba5c 9f3c 6135 92ba
000001d0: 3f91 b43a 629a f1bb d8b0 303c 2fc3 363c
000001e0: c901 28bb fd0d 56bb cb8c 0fbc b900 a3bb
000001f0: f871 b1bb 016b 09bc f31a 6fba 1338 873b
00000200: b589 263c a842 6bbc acb3 423c e34a aebc
00000210: fe42 38bb dd29 d7bb 0931 d1bb 19e5 eb39
00000220: a942 b7b9 1dc4 5b3c 9d2f 08bc 78d5 843b
00000230: 8615 643b edd5 83bc 225e 2a3b 4d14 703b
00000240: 3f7f 62ba 7dfb c2bb 8247 b9bb cbd5 e33b
00000250: 808a 103b 9253 a73c bd1f 02ba e7c3 0b3c
00000260: dd29 793c 286e 8f3c 74ee 9cbb 85dc 8b3b
00000270: ef62 16bb da82 8b3b 5b67 8a3c 7e77 c83a
00000280: 9329 a73c bf48 ce3b 81f6 db3b d745 63bc
00000290: 9efe cf3a 2349 acbb ae03 2d3c 98c8 ad3b
000002a0: 9747 e13b f617 c8bb 2d34 bfba 393a 0bbc
000002b0: 2dee 6cbc 9507 2cba 1145 cdbb c846 7ebb
000002c0: a13a 3a3c f500 a2bb 2b05 81bb 2783 feba
000002d0: 0937 a53b e598 4abc a5da f0bb 964e 0fbc
000002e0: f34b 0c3b 3277 193c 1528 93bb 5442 8f3b
000002f0: 6148 6abc 3232 83ba 0598 123b b6ec 333b
00000300: 9cac 853a 7ee5 c53a 3555 95ba 8e36 2c3c
00000310: 96ae e23b 5ed9 2e3c fed3 b93b c91e b93c
00000320: da93 143c 090c a6bb a0cc 553c 9c7a 213b
00000330: 174f bb3b 9acc be3b f120 563b dd93 fb3b
00000340: 65f9 033b 801e 103c ea58 44bc 845f b7bb
00000350: f727 29bc e5b6 2b3c 9a9b 053a a2a9 043c
00000360: a4fd 16bb c9be 273c 7d56 ffbb 3004 5fbb
00000370: 3281 8abb 960b eb3b 6edd 1b3b 2c59 b63b
00000380: 0850 e53b 153f 8e3b 0020 82bb e731 a3bb
00000390: 1fa8 303c e2c8 a23a 9d8e 59bc 6900 f63b
000003a0: 842b 37bc d497 ca3a eee9 85bb 4115 0a3c
000003b0: 09b6 813b 1c16 433c 3a58 daba 42d7 18bc
000003c0: 6cad 323a 4eab 95ba 6769 12bb af35 aebb
000003d0: a6eb 453c 8a5f c63b 8a32 563b d1e6 b1ba
000003e0: e6ce c93c 7ff6 963b a3fd 61bc a10e 793b
000003f0: 900e 1dbb b5a5 9738 e9e2 6f3c 1574 943b
-0.0031958788 7.717658e-05 -0.001900377 0.013172782 0.0073654396 0.012612355 0.0040715598 0.0055274856
0.021249237 -0.000178536 -0.0052205212 0.0027796514 0.0033814881 0.017094707 0.011826177 0.0025802127
0.010866225 0.011377522 0.006892519 -0.011149068 -0.005001597 0.007045237 0.0074526803 0.005766084
0.0019032552 -0.0070617637 -0.004246525 -0.013712351 0.0002018171 -0.003305058 0.0018978567 0.014107816
0.0022054932 0.009175023 -0.011952712 0.008258377 0.0046187034 -0.006622797 -0.004408439 0.0015516722
0.00083618116 0.0041997186 -0.006458889 -0.0021096116 0.0012291692 -0.004551793 0.0031105245 -0.002000669
-0.0038915104 -0.0028145819 -0.0037971626 0.018747242 0.011311669 0.016910788 0.0031083517 0.019193944
-0.0073030745 -0.015093559 0.026316682 0.007463118 0.0058393497 0.0139640365 0.012918956 0.0043330207
0.007830982 0.009609374 -0.005113191 0.00024288843 -0.011280305 0.0141172735 0.013273338 0.026153477
-0.008509555 0.0004364967 -0.009410755 -0.004189342 -0.010582806 0.004101637 0.009996133 0.015368603
-0.00075758056 -0.0009142633 -0.00543962 -0.01527558 -0.0023891625 -0.010109009 -0.000953104 0.0031157897
-0.001553249 0.0038564175 -0.0054133777 0.012493791 -0.003194759 -0.016377585 0.0073280665 0.0014185064
0.0041865236 -0.008387833 -0.0029516795 -0.0033041895 0.011416523 0.022149943 -0.004905005 0.007313159
0.016706854 0.010069027 0.0009624645 -0.00781944 0.0027143243 0.014380117 0.0038319803 0.001191363
0.0051017026 0.0075978613 0.019453395 -0.0011154824 0.0013776197 -0.00737314 0.01078435 0.011154934
-0.002563583 -0.0032662146 -0.008761595 -0.0049744514 -0.0054151975 -0.008387328 -0.0009121142 0.0041265576
0.010164668 -0.014359154 0.011883657 -0.021275943 -0.0028116102 -0.00656627 -0.0063840193 0.00044993384
-0.00034954146 0.013413456 -0.008312133 0.004053768 0.0034802868 -0.016093219 0.002599605 0.0036633194
-0.0008640177 -0.00595039 -0.0056542763 0.0069529763 0.0022055209 0.020425592 -0.0004963836 0.0085305935
0.015207735 0.017508581 -0.004789168 0.0042682313 -0.0022947153 0.004257542 0.016894987 0.00152944
0.020405566 0.006295293 0.006712735 -0.013871632 0.0015868729 -0.005257742 0.010559959 0.0053034537
0.0068749893 -0.006106372 -0.0014587693 -0.008497768 -0.014461082 -0.0006562409 -0.006264337 -0.0038799513
0.011366517 -0.0049439617 -0.0039373836 -0.0019417749 0.005041961 -0.012365554 -0.007350283 -0.008746764
0.0021407574 0.009366797 -0.004490862 0.0043719206 -0.014299483 -0.0010009466 0.0022368443 0.0027454323
0.0010198536 0.0015098301 -0.0011393192 0.010511054 0.006917785 0.010671942 0.0056710234 0.022597687
0.009068454 -0.0050673527 0.013049275 0.0024639731 0.0057162154 0.0058227303 0.0032673443 0.007677539
0.0020137664 0.008796334 -0.011984089 -0.005596103 -0.01032447 0.010480617 0.0005096734 0.008097084
-0.0023039365 0.010238358 -0.0077922926 -0.0034029596 -0.004226827 0.007173012 0.0023783105 0.0055648293
0.006998066 0.004341016 -0.0039711 -0.004980314 0.010782271 0.0012419487 -0.013278631 0.007507373
-0.0111798085 0.0015456625 -0.0040867245 0.008427919 0.003958468 0.011907127 -0.0016658374 -0.009328665
0.0006816003 -0.0011418851 -0.0022340657 -0.005316458 0.012080109 0.0060538696 0.0032683932 -0.0013572817
0.02463479 0.0046070213 -0.013793382 0.0038003104 -0.0023964979 7.2311064e-05 0.014641502 0.0045304396

model.model.tcn.0.net.5.bias f4 [16]
00000000: c4a1 1fbc 5964 99bc d260 f2bd 2063 2a3c
00000010: 5c21 0d3e dc52 7ebd a693 d03d 4b18 09be
00000020: 869f 023d a9e3 4b3d ea7c a6bd 61d1 903d
00000030: 97c7 bfbc ef81 c13d 8461 1bbd 2014 cebd
-0.009743158 -0.018724607 -0.11834873 0.01039961 0.13782257 -0.06209074 0.10184412 -0.13388173
0.031890415 0.04977766 -0.08129294 0.07071186 -0.023410602 0.09448611 -0.037934795 -0.10062432

model.model.tcn.0.net.6.weight f4 [16]
00000000: 0523 843f 68be 833f f011 843f 8185 833f
00000010: 9086 823f b677 813f c59b 843f c154 843f
00000020: c242 833f 5d9b 843f a88d 823f a982 803f
00000030: 5b19 843f 15d8 823f 1a51 833f dd63 833f
1.0323187 1.0292482 1.0317974 1.0275117 1.0197315 1.0114658 1.0360037 1.0338365
1.0254748 1.0359913 1.019948 1.0039874 1.0320238 1.0222193 1.0259125 1.0264851

model.model.tcn.0.net.6.bias f4 [16]
00000000: eb71 f03c 1c99 d03c 5a53 ab3c 80b9 513c
00000010: f67c 913c 7c50 4e3c 533a 043d 1044 c03c
00000020: 43e5 bc3c e934 cb3c bc65 c23c 25b2 1a3c
00000030: 1773 653c afa4 8f3c 9cfc 9b3c 3f71 9c3c
0.029351195 0.025463633 0.020913769 0.012800574 0.017759781 0.012592431 0.032282185 0.023469955
0.02305854 0.024805503 0.023730151 0.009441887 0.01400449 0.017534582 0.019041352 0.019096969

model.model.tcn.0.net.6.running_mean f4 [16]
00000000: 4a96 d73c 3a73 b53c 155f ccbd 0fea df3c
00000010: c1b5 343e f4cc 14bd 27ec 0e3e cce6 e2bd
00000020: c742 833d fe46 963d cd82 46bd feed 1f3d
00000030: 9987 9cbb 888c ee3d 0e03 93bc 13f6 9dbd
0.02631678 0.02214967 -0.09979073 0.027333288 0.17647459 -0.03632827 0.13957272 -0.11079177
0.06409221 0.073377594 -0.048464585 0.039045326 -0.0047769067 0.11647898 -0.017945793 -0.077129506

model.model.tcn.0.net.6.running_var f4 [16]
00000000: 9516 933b b5b0 053c 27fd 683b bc20 373b
00000010: ce76 5e3b ab57 623b 156d c63b 5759 913b
00000020: 58f7 8c3b ed82 613b f6f8 933b 289e 593b
00000030: 5fe0 8b3b 84b3 483b e7df 673b 551e 703b
0.004488776 0.008159806 0.0035551281 0.0027943095 0.0033945325 0.0034537117 0.006055484 0.004435699
0.0043019466 0.0034410313 0.0045157624 0.003320584 0.0042686905 0.0030624578 0.003538126 0.0036639173

model.model.tcn.0.downsample.weight f4 [16, 225, 1]
00000000: 5631 14bd b3b0 ccbb 6192 88bc eafc 62bb
00000010: 335b e9bc 5f8d 81bc 31c0 36bd 31ed 8ebc
00000020: 4772 443a c14a 9dbc 9c14 3ebc bae2 32ba
00000030: 22cf b9b9 2a84 133c f5e5 fbb7 a728 49bc
00000040: 3960 913b 6eff e5bb 4f3d 21bc f285 9b3c
00000050: 2562 1b3c b86d c5bb d727 853b a8b6 b43c
00000060: d4e9 46bc 7d8c f33c 1164 e53c 5f3a 05bb
00000070: 9ae2 c93b f115 99bb db67 4bbc ea84 14bb
00000080: 0930 81bc f31e acbc e562 a2bb 7e94 e2bc
00000090: c130 bfbc e878 84bc e6cd 76bc f54e 99bc
000000a0: b902 5fbc 55bd f3bc 7a3c 8bbc b07a a6bb
000000b0: 0c96 9abc 2590 c0bc b393 c5bb 6f9c 95bc
000000c0: 93ff 3abc ab14 c6bc cc21 61bc 0a8e 6d3b
000000d0: cdf7 38bc d176 44bc c8c8 f4bc a0c6 8d3c
000000e0: 5fe0 99ba bf97 af3c 833b 453a e9fe 313c
000000f0: cf3a eb3c 7801 f33b dbd1 6c3b d326 4f3c
00000100: 960b a33c 76c5 033b 9580 9f3b 3487 e43b
00000110: ada8 283d 9827 e43b 7c21 173c ddb9 f33c
00000120: 2d0f 803c 44ff a0bc 47ad 823c f746 973c
00000130: fa45 04bc b699 023c 2656 533a dfaa 473a
00000140: f8f5 7c3c 54d3 113c cb75 b43b ece5 963c
00000150: 5e65 d23b 65a3 30bc 919d 6f3a b1d8 c5bb
00000160: ab23 803b 8092 b43b 1fcb 7bbc 0cc9 833c
00000170: 9b53 003d 5108 553b e9e9 193b 4af0 8dba
00000180: 7bdf ffbb 0787 04ba ee4c 20bc f8f1 92ba
00000190: f4db 683c 6f0f 523c aca2 2bbc e637 23bb
000001a0: 3d48 1bbb 3d26 ffbb b5f0 7eba 3e35 08bc
000001b0: 482e 5ebc 1216 9bbc 706b b2bb f90a 93bc
000001c0: 4747 c5bc d892 163b fbf7 04bc 7389 84bb
000001d0: ada6 edbc 7f61 d9ba 652d 7ebc 1699 33bc
000001e0: c495 3e3a 485c a0bb 03af ddbc 176e 95bc
000001f0: 2fb2 4ebc 47f1 253c 1e6a bebb 591b 2cbc
00000200: c3e6 45bc 22dc 97bc a1ad 91ba 4ffe 84bc
00000210: 827a d1bc 7c53 283c df7a a3ba 6b2f f6bb
00000220: b39c afbc adb4 d4bb 6192 143c 3b12 9c3b
00000230: 8d0f 31bc 2cac 2abc 4fb6 80bc cff5 37bc
00000240: 8cb1 bebb 3667 09ba 778a 85bc e70c 733b
00000250: c7dd d4bb c10b b53b 050a c3ba 3c8f a93c
00000260: f0a8 a53b 96fd f5b8 36be 643c ee1d 04bc
00000270: 923d 153c b0dc 6dbc 0e2f 40bb e905 66bc
00000280: 9db0 4abb de63 c13a 5a1a 35bb 5fea 1cbc
00000290: f77b abbc 0c32 3ebb 15d3 26bc a16c b0bc
000002a0: d78b 8abc f45c febc 42dd eb39 4856 7fbc
000002b0: f9d5 74bb 54b6 dbbc ccb5 10bc c013 8e3b
000002c0: 09b6 b63a ff84 bc3a 5c5b 20ba 3655 18bc
000002d0: db13 8cb9 11ec 813b 6d58 bc3a 2069 f6bb
000002e0: 472b 8c3b b9f7 563c 33b0 94bb 3581 843b
000002f0: b10b 1cbc c2fb 383c 52bd 0dbc d455 063c
00000300: 5eb6 71bc ba6e 0a3a edf5 843b f3e3 d2ba
00000310: 8be0 933b 1218 363c 6e50 81bc d463 28bb
00000320: fda3 733b f415 a3bc 4b45 64bc 8138 c1bc
00000330: 98ff 61bc f677 e6bc 7c31 74bc 81fb 263b
00000340: 4e56 3bbc 0734 b8bc 30fa b3bc a4e4 853b
00000350: a238 dabb e5ce c23a cdd6 cfbb 0653 afbb
00000360: f078 b73b 0856 103c add5 60bc c94f 243b
00000370: abcf f73a c69c 69bc e6cd bbbb 2cac 13bb
00000380: 7ff1 943b d51e 0dbd 1697 bcbb 357a 41bb
00000390: c3be be3c 1f29 a0bc 36ac 213c 6c8f 08bc
000003a0: adf4 2e3c b23a 43bc b1d7 31bc f745 223c
000003b0: 1ffe 93bc c8ab 46bc cc8b 2c3c ce9a 3b3c
000003c0: 9867 8939 de57 9f3b d062 d9bb 99e0 18bc
000003d0: c932 1a3c cab6 313c f509 7b39 4440 95bb
000003e0: 4e67 683c 6852 cebb 3ee7 f93b be90 fd3c
000003f0: 63e0 35bc 9991 8abc 8cf9 6dbc e2fd 97bb
-0.036179863 -0.00624665 -0.016671361 -0.0034635612 -0.02848587 -0.015814481 -0.04461688 -0.017447086
0.00074938353 -0.019200685 -0.011601593 -0.0006823946 -0.00035440276 0.009003678 -3.0028614e-05 -0.012277759
0.0044365195 -0.007018975 -0.009841277 0.018984769 0.009483849 -0.0060250424 0.004063587 0.022059754
-0.01214071 0.029730076 0.028001817 -0.0020328981 0.006161046 -0.004671805 -0.012414898 -0.002266223
-0.015769975 -0.021010851 -0.004955637 -0.027658697 -0.023338677 -0.016170934 -0.015063738 -0.018714407
-0.013611489 -0.029753366 -0.01699661 -0.0050805435 -0.018870376 -0.023506233 -0.00602957 -0.01826307
-0.011413473 -0.024179777 -0.013740968 0.0036247992 -0.011289549 -0.011991219 -0.029880896 0.017306626
-0.0011739841 0.021434663 0.00075238216 0.010863998 0.028714566 0.0074159466 0.0036135826 0.012643534
0.019902986 0.002010671 0.004867623 0.0069741253 0.041176487 0.0069627278 0.009224292 0.029751712
0.015632236 -0.01965297 0.015951766 0.018466456 -0.008073324 0.007971218 0.00080618483 0.00076167093
0.015439503 0.008900482 0.005507206 0.018420182 0.0064207753 -0.010781144 0.00091406057 -0.0060377945
0.003910502 0.005510628 -0.015368252 0.016087078 0.031329732 0.0032506178 0.0023485369 -0.0010829058
-0.0078086234 -0.0005055521 -0.0097839665 -0.0011211028 0.014212597 0.0128210625 -0.010475796 -0.0024905144
-0.002369418 -0.007786541 -0.0009725199 -0.008313475 -0.013560839 -0.018931422 -0.0054449365 -0.017949568
-0.02408184 0.002297571 -0.008115764 -0.0040447055 -0.029010141 -0.0016584842 -0.015513753 -0.0109617915
0.00072702416 -0.0048938133 -0.027060991 -0.018240971 -0.0126157245 0.010128326 -0.00581099 -0.010504567
-0.012078944 -0.018537585 -0.0011114368 -0.016234545 -0.025571112 0.0102738105 -0.0012472532 -0.007512977
-0.021437025 -0.006491265 0.009068103 0.0047629154 -0.01080693 -0.010417026 -0.015711932 -0.011228039
-0.005819505 -0.0005241515 -0.016301377 0.0037086548 -0.0064961645 0.005525083 -0.0014880305 0.020698182
0.0050555393 -0.000117297444 0.013961365 -0.008063776 0.009108918 -0.014517948 -0.0029324922 -0.014039495
-0.0030928024 0.0014754494 -0.0027634115 -0.009577363 -0.020933134 -0.002902153 -0.010182162 -0.021536173
-0.016912384 -0.031050183 0.00044987543 -0.015584536 -0.0037358983 -0.02682034 -0.008832406 0.0043358505
0.0013939749 0.0014382898 -0.0006117129 -0.00929766 -0.00026717674 0.003964909 0.0014369615 -0.007519856
0.00427762 0.013120585 -0.004537606 0.004043723 -0.009524272 0.0112904925 -0.0086510945 0.008199174
-0.014752952 0.0005280782 0.004057637 -0.0016089663 0.0045128516 0.011114137 -0.015785422 -0.0025694268
0.0037176602 -0.019907929 -0.013932536 -0.023586513 -0.013793848 -0.028133374 -0.014904376 0.0025479498
-0.011434151 -0.022485746 -0.021969885 0.004086094 -0.006659583 0.0014862685 -0.006342745 -0.0053504733
0.0055991337 0.008809574 -0.013722819 0.002507197 0.0018906494 -0.014258569 -0.005731332 -0.0022533042
0.00454539 -0.03445323 -0.0057553155 -0.0029522304 0.023284322 -0.019550858 0.009867718 -0.008334976
0.010678452 -0.0119158495 -0.0108546475 0.009904376 -0.01806551 -0.012125917 0.010531377 0.0114504825
0.0002620786 0.0048627695 -0.006634094 -0.009330892 0.009411522 0.010846803 0.00023940935 -0.00455478
0.014184786 -0.0062964447 0.007626443 0.030952808 -0.011100861 -0.01691513 -0.014524829 -0.0046384195

model.model.tcn.0.downsample.bias f4 [16]
00000000: 0ad3 3f3d 1aa3 0c3d b432 b3ba 95ad 9b3d
00000010: f6a0 8dbb 50f6 9d3d 558d 863d 2bf7 343d
00000020: 5be0 edbc 4015 903a fae9 dcbb c734 13bd
00000030: a05c 8b3c cb07 583d 0bf4 c03c 8715 803c
0.046832122 0.034335233 -0.0013671727 0.076014675 -0.0043221666 0.07712996 0.06569926 0.04418103
-0.029037645 0.0010992661 -0.0067417594 -0.035939004 0.01701194 0.052741807 0.023553869 0.015635265

model.model.tcn.1.conv1.weight f4 [16, 16, 3]
00000000: 8098 af3a f3cc c2bb 5bd7 9e3a 1e02 043b
00000010: 4466 dd3a 2a5d 323b 25c9 283c d50c 19bc
00000020: 386e ea3b 3e22 9e3a a84c 2b3c 3d8e 513c
00000030: d2ee c93b 6201 83bc 9474 42b8 5e1a 07bb
00000040: edb9 3c3c db78 143c bdce f43a c875 2d3c
00000050: 8564 ec3b 2f37 dc3b bf2a 96bb d32c da3c
00000060: 96f7 fc39 6712 08bc 768f cd3b e76d bc3b
00000070: 512b 2bba a321 c73b b7c8 a9bc 0ed2 07bb
00000080: c770 1cbc dd36 a93b 6ba8 b23a cded 88bc
00000090: 265d ad3a 695e 86bb e7d4 6d3c 8260 9b3a
000000a0: 76db 0a3c 58a9 cbba d5df 423b 8bca 3c3b
000000b0: 5edb 2939 5c90 ea3c 5f7d 323c b2c2 413b
000000c0: ba8f 963c 8d10 043c ed58 c13b f17e afbb
000000d0: 6f72 62bb 11b3 4eba 4f94 233b bd8a 3abc
000000e0: e848 8cbb c7d4 b63b 104e c03b 2de7 8bbb
000000f0: 0194 31bc a0e3 e0ba f242 24bb b55b a93b
00000100: b4c0 65bc a488 923c 6954 e33b 53e3 5abc
00000110: 397b ddba 4626 e63a 64fc aabc 0edc 84bb
00000120: 94dc b53a 3582 6039 ae0d d23b b9c6 d93b
00000130: 3cb0 ecba d595 bfba 6f92 52bb 516f afbb
00000140: fedd 573b 7113 dd3b 69a7 3bbb a7b9 30bc
00000150: 2259 37bc 1dd2 44bb 22e5 05bb ad83 87bc
00000160: 3317 45ba 54fd ccbc 7a67 153c e28d 97bc
00000170: 47e0 e7bb 8a57 b9bb 12a0 acbc 37eb a6bb
00000180: 41b7 0ebc e729 8a3a ecc7 893b 43ba 56bc
00000190: 1557 b83a 2376 1d3c 03cf 1b3c ccbe 2c3b
000001a0: b9e7 823c 5916 1f3c 1133 1abc 3b66 89ba
000001b0: c340 063c 56a2 49bb 935b dbbb f19d fabb
000001c0: bbea ec3a a4a5 d63b 4bee 793b 6293 ea3b
000001d0: 81e0 323c 879e 08bb 7e04 343c 2744 453b
000001e0: 57e3 33bc 3d41 2abb 6c55 ff3b 7738 95b9
000001f0: 28ed e3b9 9905 e2bb b970 be3b 185f e43b
00000200: 4485 96bc f491 103b 7a18 f1bb 7a2f a8bb
00000210: 25de f73a cb85 8f3c b6e3 463b 0080 b53b
00000220: a768 113c 9642 3a3c babb c63b 402e 333b
00000230: 8aca 3c3c 21c9 843c f8c2 023c e1cf 313c
00000240: 4dfc 153c 5900 423c 6521 2c3b 19e4 923b
00000250: 8461 cabb 38c7 7ebb d327 62bb 1930 b6bb
00000260: fba6 da3b ba33 683b dca1 4ebb 3750 103c
00000270: e4c6 fe3b d74b 83bc 518d 5039 b992 fb3b
00000280: 9a7a 04bc 34bf ad3b 820e 6dbc bb34 ca3b
00000290: f836 8e3b 3e1a 25bb f595 52bc f183 413b
000002a0: 2211 8ebb a1dd fa3a 1152 6b3b ffae 4abc
000002b0: ddd4 6bbb 11ff ea3a cc5c 723c 7281 1abb
000002c0: 487f 8ebc b04a 0b3b 4c15 c5bb bf10 8bbc
000002d0: e0f2 fcbb ed3c 8dbc 17b2 573b 0cff a03b
000002e0: a3be 0bbd d110 2b3c 253b d6bb a9ca a1ba
000002f0: e20b 0b3c 007d 47bc 9ec9 1dbc 8af5 28bb
00000300: 2b40 46ba 88b4 0b3c 3249 be3b 4791 12bc
00000310: e3ab c93a 7351 c0bb 9b05 ea3b bae3 a6bb
00000320: ac50 1cbc eee5 833b 9bb0 093c 0a54 05bb
00000330: 08da 943c 772e b23b 1ba3 66bb 5cb8 1bbc
00000340: b37d 38bc a429 abbc f739 ee3b 3156 993b
00000350: 5b89 9bbb 1398 3a3c 781e c93b 6e3f 75bc
00000360: c106 32bc 39c5 9e3b c97a 123b ce58 f33b
00000370: a7fa 013c 44cd 383b 2047 2dbc 1041 363c
00000380: a42a 1bbb 3697 10bb ae54 1abc 3aa3 333b
00000390: 329d 0b3c 1cb2 623c 497a 0a3b ad7e 18bc
000003a0: e652 b939 5d85 ecbb d5c6 753c d6ca 963c
000003b0: 4fa0 05bb 130a 2cbc 495d 113c f10e 3bbc
000003c0: 1c94 96bb d2ba fbbb e8dc 44bb 8189 363c
000003d0: 6a24 6abc 0740 2b3b be38 0b3a f390 8abc
000003e0: 6b05 90ba 638d 9cbb 89e5 a1bc b0f7 233c
000003f0: f02c 5bbb 7eb0 1cbb 49cd d0bb 5ab4 3e3c
0.0013396889 -0.005944842 0.0012118624 0.0020142864 0.001689144 0.0027216175 0.010301863 -0.009341438
0.0071542524 0.0012064648 0.010455288 0.01279026 0.006162503 -0.01599187 -4.6361776e-05 -0.0020615081
0.011518938 0.009062017 0.0018677335 0.010587163 0.0072141313 0.0067204456 -0.0045827325 0.026632702
0.0004824965 -0.008305169 0.0062732054 0.005750406 -0.0006529587 0.006077008 -0.020725591 -0.0020724568
-0.009548373 0.005164011 0.0013630515 -0.016714955 0.0013226613 -0.00410061 0.014516092 0.0011854323
0.008475175 -0.0015538139 0.0029735465 0.0028807248 0.00016198817 0.028633289 0.010894149 0.002956551
0.018379081 0.008060587 0.0059004934 -0.0053557088 -0.003455307 -0.00078849593 0.0024960225 -0.011385617
-0.004281152 0.0055795643 0.005868681 -0.0042695017 -0.01083851 -0.0017157681 -0.0025064317 0.005168403
-0.014022995 0.017887421 0.0069375527 -0.013359862 -0.0016897685 0.0017559014 -0.020872302 -0.004054553
0.0013874942 0.0002141081 0.006410322 0.006646004 -0.0018057893 -0.0014616797 -0.0032130738 -0.005353846
0.0032938714 0.0067467024 -0.002863372 -0.0107864505 -0.0111906845 -0.0030032464 -0.0020430763 -0.01654228
-0.00075184106 -0.02502314 0.009118909 -0.018500272 -0.0070762965 -0.0056561874 -0.021072421 -0.0050939578
-0.008710683 0.0010541052 0.0042047407 -0.013105932 0.0014064038 0.0096106855 0.009509805 0.002635884
0.015979635 0.009709918 -0.009411589 -0.0010482738 0.008194151 -0.0030766926 -0.006694266 -0.0076482226
0.0018075326 0.0065505076 0.0038136418 0.0071586827 0.010917784 -0.0020846443 0.010987399 0.0030100436
-0.010979495 -0.0025978826 0.0077921655 -0.00028461564 -0.0004347351 -0.00689764 0.0058117774 0.006969344
-0.018374093 0.002205965 -0.007357654 -0.005132613 0.0018910809 0.017519852 0.0030348129 0.0055389404
0.008875049 0.011368414 0.006064859 0.00273408 0.011522898 0.016209187 0.0079810545 0.010852785
0.0091543915 0.011840903 0.0026265022 0.0044827578 -0.0061761755 -0.0038876068 -0.00345086 -0.005559933
0.0066727377 0.0035431222 -0.0031529581 0.008808187 0.0077751745 -0.016027374 0.0001988907 0.007677403
-0.008085871 0.005302334 -0.014468791 0.0061708367 0.004340049 -0.0025192644 -0.012853135 0.0029528106
-0.0043355385 0.0019139537 0.003590707 -0.012370824 -0.003598503 0.0017928799 0.014792632 -0.002357569
-0.017394677 0.0021254234 -0.0060145017 -0.016975759 -0.0077193826 -0.017240966 0.0032912546 0.0049132165
-0.034117352 0.010441021 -0.0065378123 -0.0012343723 0.00848672 -0.012175798 -0.009630589 -0.0025781118
-0.00075626624 0.008526929 0.0058070654 -0.00894577 0.0015386309 -0.0058690845 0.0071417815 -0.005093065
-0.009540718 0.0040252125 0.008403922 -0.002034428 0.018170372 0.005437668 -0.0035192433 -0.009504404
-0.011260438 -0.02089388 0.0072700935 0.0046794643 -0.0047465987 0.011388796 0.0061376654 -0.014968736
-0.010865868 0.004845288 0.0022351018 0.007426358 0.007933295 0.002819852 -0.01057604 0.011123911
-0.002367654 -0.0022062785 -0.009419603 0.0027410523 0.008521365 0.01383641 0.0021130017 -0.009307546
0.00035347714 -0.0072180466 0.0150010185 0.018407267 -0.002038974 -0.010500449 0.008872339 -0.0114171365
-0.0045952927 -0.007682183 -0.0030038897 0.011141182 -0.014290908 0.0026130693 0.00053108844 -0.01691482
-0.0010987943 -0.004777597 -0.019762771 0.010007784 -0.0033443533 -0.0023908908 -0.006372128 0.011639679

model.model.tcn.1.conv1.bias f4 [16]
00000000: b312 f23d f597 00be dd56 f4bd 8f85 ab3d
00000010: c7f1 ad3d d3d5 f23d ca6e 92bd 11b0 60bd
00000020: 0716 053e 9fb7 283d 460c 9c3c a9e0 013d
00000030: f3db e3bd 44b2 dd3d da7e 05be 2509 0c3e
0.11819973 -0.12557967 -0.1193063 0.08375084 0.08493381 0.1185719 -0.071500376 -0.05485541
0.12996684 0.04119074 0.019048821 0.031708393 -0.11125936 0.10825017 -0.13036671 0.13675363

model.model.tcn.1.bn1.weight f4 [16]
00000000: c63a 803f a8f5 7c3f a1ca 7b3f 692f 7d3f
00000010: 132b 803f 3bbb 7e3f 7554 7b3f 90fe 7d3f
00000020: 8058 7b3f f4a9 7d3f e3fe 7d3f d2c4 803f
00000030: 782c 813f b732 813f caab 7f3f 332c 803f
1.0017936 0.9881234 0.9835606 0.9890047 1.0013145 0.9950444 0.98175746 0.99216557
0.98181915 0.9908745 0.9921705 1.0060065 1.0091696 1.0093602 0.99871504 1.0013489

model.model.tcn.1.bn1.bias f4 [16]
00000000: b1aa 5a3a 0746 07bb ce36 d7bb c442 71bc
00000010: 06b6 d7bb b96a 43bc 6b00 59bc 7239 beba
00000020: 2699 5cbc c6f3 2fbc a821 1c3b 79f2 0dbc
00000030: d652 a5bb eda0 9b3b b8e4 a4bb 84b9 d7b9
0.0008341475 -0.0020641105 -0.0065678125 -0.014725391 -0.006582978 -0.0119273 -0.013244729 -0.001451297
-0.013464248 -0.010739272 0.0023823772 -0.008663767 -0.005045275 0.0047494085 -0.005032148 -0.00041146216

model.model.tcn.1.bn1.running_mean f4 [16]
00000000: 7d37 243e ae68 29be a3f5 9cbd e2d0 633d
00000010: aac0 b53d 0f5a e83d 4bc7 d5bd 1b1c e2bd
00000020: b4a6 b63d e322 353d 4d35 36bd 1173 d53c
00000030: ae58 efbd 7eac 053e 06e2 ecbd 5a46 283e
0.16036792 -0.16543838 -0.07664039 0.055619128 0.088746384 0.11345302 -0.10438403 -0.11040517
0.08918515 0.044222724 -0.044484425 0.026055845 -0.11686836 0.13054082 -0.11566548 0.16433087

model.model.tcn.1.bn1.running_var f4 [16]
00000000: 8071 033c a607 0f3c 7eb6 173c 5df0 b93b
00000010: 54fa 9e3b 43e3 5a3b 1922 8a3b c63b 213c
00000020: a42f 0e3c a2f9 c83a e9b2 803c e169 f43a
00000030: 227b d33a 8db5 c83b f780 0d3c ca4e b33b
0.008022666 0.008729851 0.009259818 0.0056744055 0.004851619 0.0033399619 0.0042154905 0.009840911
0.008678351 0.0015333185 0.015710311 0.0018647277 0.0016134719 0.006125158 0.008636705 0.005472039
