s2s/src/main/python/checkpoints/epoch=9-step=3650.ckpt (torch, 282847 bytes, 143 tensors)

model.model.tcn.0.conv1.weight f4 [16, 219, 3]
00000000: 2310 21bc 6e5a 83bc 02b2 1ebc 9c28 1abb
00000010: b468 05bb a8ea 483c 6e21 ed3b 4af2 7e3a
00000020: d993 013c a079 d239 7bd8 913c e001 1ebc
00000030: 2ecd 3fbc 5380 1cbb 7906 be3c 245d 31b9
00000040: c31b e6b9 6a94 263c 75fb 9c3b 0910 b0bb
00000050: 0e42 0abc 30b9 2c3b 5d65 abbb 7aff b93c
00000060: 5ced d93b da87 f23b 9b91 7c3b 47ca f53a
00000070: 4642 bc3a eeb0 0f3b fd9e 7f3b 7990 d3bb
00000080: f5d6 eebb b73d 4dbb 86fd a4bb bc62 e83b
00000090: 5a5f 7f3b 3a2e 29bc 4536 06bb 611b 8eba
000000a0: fd59 ac3a 902f d8bb 0909 853a abe3 6fbc
000000b0: 1492 dfbb 94dd 93bc 6d14 16bc 2a3e 5ebb
000000c0: 5537 503c 1143 ccba 3d1f 2bbc e82a a4bb
000000d0: fbee 8dbc b214 08bb 13e7 2f3c d4c4 50bc
000000e0: d68f 583b 7a14 193c b826 d53c 87c9 94bc
000000f0: 4257 cb3b 94e1 46ba f5a3 27bc c3cf b5bc
00000100: 4268 16bc 5925 0f3a 8a32 39bc 6eed 42bb
00000110: 0102 fdba ef2f aeba 6ffd 1b3c 6ff8 07bb
00000120: aa43 a73c 4492 72bb ea89 fcbb 615a 9bbb
00000130: 0ef6 61bb 39fc fbb8 145c b439 77c5 2dbc
00000140: 93aa 0d3c 9b70 3bbc 1a7f d5bb 282a 90bc
00000150: dbaf 3cbb ebb6 2a3b 65a8 d7bb 156d 11bb
00000160: 7b12 643c bf68 853a ebc6 ea3b 7db5 cbbb
00000170: fff6 273c 62aa 303c c142 5e3b 2b84 c5ba
00000180: e331 a9bc 2214 09bc 2fbc afbb 08c8 5f3c
00000190: 93a6 7f3c 1b61 113b 7f19 87bb abee 0fbc
000001a0: 430a 55bc eab3 a1bc 9f99 46bc c6a1 45bc
000001b0: 1efd 3e3b f308 b63a 08d2 cf3b 52a3 803b
000001c0: 134f bdbb 91ba 15bc de5e 1fbb 2631 c23b
000001d0: c96b a73b 06d5 9f3b 1c12 99ba 426f 153c
000001e0: a149 3f3c e08c 193c f87a 9cbb 3024 34bc
000001f0: a050 2ebb c490 03bc 97b7 773b 9545 493a
00000200: 20ba eebb 171d 313b ba2f 6abb 49fc 82bc
00000210: e3c0 913b a295 163c 5e8b 3a3c 58f8 093c
00000220: 9205 a8bb fb2b efba 020a f8bb fc4a cd3c
00000230: a36d 533b 5d2a d63b b8e5 5c3a b2ce aa3b
00000240: aa0d a5bc 1432 b0bb fa24 193a cb96 42bc
00000250: 4548 ea3a 393a e0b9 4a49 30bc 8ba4 39bc
00000260: 9505 feb9 a4cf b4bb c0bd 6d3c f071 a8bc
00000270: d27f 7d3a 1593 9dbc ebd2 163c 1450 383c
00000280: 0abd 133c 08f6 983b bef0 9c3c 32b1 b1bb
00000290: 396d 15bc 7ce3 973a e697 83bb 39ac 0dbb
000002a0: 0fe0 b6bb 6db5 0cbc ed95 ba3c c7c9 5ebc
000002b0: 04ec c73a 12df 013b 600e a13c deb5 163c
000002c0: 7c6a c9bc 833b 883c bdc0 e43b 59a0 92bc
000002d0: d7a7 403b aee2 153c 2430 a3ba 434c b93b
000002e0: 0e78 5d3b d7e7 2dbc 0273 b33a e801 c0bb
000002f0: 1e6d 173c 173d e03b 51bd e8bb fdd3 c73b
00000300: 2fc5 3cbc 844f 8c3b 915a b73a c9e2 0dbb
00000310: d1db d93a 5f5a 28bc 3e09 95bb ec4e 913a
00000320: bbee 8c3a cf4d 88bb 3c43 e13a ea03 873b
00000330: 589b 863c 830d efbb 9dcb 0bbc 569d d2bb
00000340: a401 893a ed30 9f3c 6eaf 4abc 7a69 3ebc
00000350: b5ca f8bb 4abe f1b9 3e8a 583a 5095 1c3c
00000360: 0786 bfbb 1abb c5b9 c1cc 0ebc 1bd6 afbb
00000370: 38f7 463b 14ad 8cba 2465 03bc ee60 173c
00000380: cd80 41bc 1223 373b e78b a139 c625 f93b
00000390: 781f d43b 3de2 b9bc 5a09 9cbc 719e 5f3c
000003a0: 8e44 45bc 4f4b 82bc c20b 1e3b 8f45 333c
000003b0: c23c dd3b 3f97 853b 24c3 31bc d04b d6bb
000003c0: 449d 62bc fa2d 553c aea9 c2ba bfd2 d3bb
000003d0: 3513 a63b 3e1f a4bc fd18 333c beac 1abc
000003e0: f17e 143b 8cd3 10bc 64f5 443b 732c 4eba
000003f0: 786e 6e3b 55df 7fbb 5df8 333c de15 833c
-0.009830507 -0.016034331 -0.009685995 -0.002352274 -0.0020356597 0.012262978 0.007236651 0.0009725435
0.007908785 0.0004014494 0.017803421 -0.009644002 -0.0117066335 -0.0023880198 0.023196446 -0.00016914733
-0.00043889703 0.010167221 0.004790718 -0.0053730053 -0.0084386 0.0026355498 -0.0052305893 0.022704829
0.00665061 0.0074014487 0.0038538936 0.00187523 0.0014363013 0.0021925527 0.0039004677 -0.0064564315
-0.0072888085 -0.0031317302 -0.005035105 0.007091848 0.0038966746 -0.010325963 -0.0020479125 -0.00108419
0.0013149377 -0.0065974668 0.0010149787 -0.014641683 -0.006822834 -0.018049993 -0.009160143 -0.0033911564
0.012708505 -0.0015583952 -0.0104444595 -0.0050099976 -0.017325869 -0.0020764288 0.010736245 -0.01274224
0.0033044717 0.009343261 0.02601944 -0.018162502 0.0062054703 -0.00075867143 -0.0102319615 -0.022193795
-0.00918013 0.00054605823 -0.011303553 -0.002974357 -0.0019302965 -0.0013289432 0.0095208725 -0.0020747443
0.020418007 -0.003701345 -0.0077068703 -0.0047409986 -0.0034478935 -0.00012015593 0.0003440088 -0.010606161
0.008646625 -0.011440421 -0.006515396 -0.017598227 -0.0028791341 0.002604897 -0.0065813535 -0.0022190262
0.013920422 0.0010178311 0.007164826 -0.0062167034 0.01025176 0.01078281 0.00339143 -0.0015069296
-0.02065367 -0.008366616 -0.0053630094 0.013658531 0.015603679 0.0022183124 -0.0041229124 -0.00878493
-0.013002935 -0.01973911 -0.012121587 -0.012062496 0.0029142569 0.0013888165 0.0063421763 0.0039257193
-0.0057772486 -0.009138719 -0.002431802 0.005926269 0.0051092845 0.0048776893 -0.0011678371 0.009120764
0.011675269 0.009371966 -0.004775401 -0.010994956 -0.002659835 -0.00803012 0.0037798637 0.000767791
-0.0072853714 0.0027025396 -0.0035734014 -0.01598944 0.0044480427 0.009190949 0.011385767 0.008421026
-0.005127617 -0.001824736 -0.0075695524 0.02506017 0.0032261393 0.006535812 0.0008426565 0.0052126283
-0.020148117 -0.0053770635 0.0005841997 -0.011876772 0.0017874321 -0.0004276799 -0.010759661 -0.011330734
-0.00048450814 -0.0055179168 0.014510572 -0.020562142 0.0009670231 -0.019235173 0.00920556 0.011249561
0.009017238 0.004668001 0.019157764 -0.0054227347 -0.009120279 0.0011588181 -0.0040159104 -0.0021617545
-0.005580909 -0.008588177 0.022776568 -0.013597912 0.0015252833 0.0019816798 0.019660175 0.009198634
-0.024586909 0.01662994 0.006980984 -0.017898725 0.0029396915 0.009148283 -0.001245026 0.005654843
0.0033793482 -0.010614357 0.0013690891 -0.0058596022 0.009242324 0.00684322 -0.0071026464 0.006098269
-0.011521622 0.00428194 0.0013988783 -0.0021650067 0.0016621297 -0.010275452 -0.004548221 0.0011086143
0.00107523 -0.004159666 0.0017186175 0.0041203396 0.016431496 -0.007295312 -0.008532432 -0.0064274473
0.001045276 0.01943251 -0.012370927 -0.011621827 -0.007592524 -0.00046108878 0.0008260346 0.009557083
-0.0058448347 -0.0003771417 -0.008715809 -0.0053660995 0.0030359756 -0.0010732734 -0.008019719 0.009239418
-0.011810494 0.0027944488 0.00030812548 0.00760338 0.006473478 -0.022690887 -0.019047428 0.013648615
-0.0120402705 -0.01590505 0.0024115895 0.010941877 0.0067516277 0.004076868 -0.010849748 -0.0065397993
-0.01383144 0.01301145 -0.0014851594 -0.006464332 0.0050682076 -0.020034429 0.010931251 -0.009440599
0.002265867 -0.008839499 0.003005349 -0.00078649 0.0036381762 -0.0039043028 0.010984507 0.016001638

model.model.tcn.0.conv1.bias f4 [16]
00000000: 8f41 b03b 7a32 c0bc 2ae6 ac3c 360c cf3c
00000010: 21fa 733c f44b b7bc c7b1 913a 4862 b0bc
00000020: ebee bebc a308 cf3c bbc7 833c 6772 933c
00000030: 95d1 cebb e39f efbc 65e7 c33b 18a5 1dbd
0.005378909 -0.02346157 0.021105845 0.025274377 0.014891178 -0.022375084 0.0011115604 -0.02153124
-0.023307284 0.025272673 0.01608645 0.017998887 -0.006311605 -0.029251045 0.005978512 -0.038487524

model.model.tcn.0.bn1.weight f4 [16]
00000000: 1ca6 7f3f 7535 7f3f 090c 803f 31ae 7f3f
00000010: 9c06 7f3f ca40 803f fa29 813f fb6d 7f3f
00000020: edd9 7e3f 152c 7f3f 7b32 803f 8e71 803f
00000030: 4434 803f 74cd 803f e1a4 7e3f 66a2 7f3f
0.9986284 0.99690944 1.0003673 0.9987517 0.9961946 1.0019772 1.0090935 0.9977719
0.9955128 0.9967664 1.0015405 1.0034654 1.001595 1.0062699 0.99470335 0.99857175

model.model.tcn.0.bn1.bias f4 [16]
00000000: f859 3fba 0de4 d638 6e7c d03b 9ff0 313b
00000010: c8ae df3a 4ce4 f03b 11cb 403c c297 6339
00000020: 4162 72bb 1db8 bcba c2ee c63b 63a8 fc3a
00000030: 6fd7 a23b edc7 103c 56a2 b3bb 5888 8a3b
-0.0007299478 0.00010246793 0.0063624894 0.0027151478 0.0017065639 0.007351434 0.011767165 0.00021704941
-0.0036984833 -0.0014398132 0.0060709426 0.0019276257 0.0049695293 0.0088367285 -0.0054819984 0.004227679

model.model.tcn.0.bn1.running_mean f4 [16]
00000000: 60c3 50b8 dc79 bebc cb12 023d 57b7 db3c
00000010: 53b7 603c edab bbbc 14d8 cd3a 580b 96bc
00000020: dcdc 00bd bf88 af3c c0af 873c 7240 ce3c
00000030: acd8 32bc 1a4a cebc 8451 453b c11e 36bd
-4.977302e-05 -0.023251466 0.031756204 0.026820822 0.013715583 -0.022909129 0.0015704655 -0.018315956
-0.031460628 0.02142751 0.016563296 0.025177214 -0.010915916 -0.025181819 0.0030108402 -0.044462923

model.model.tcn.0.bn1.running_var f4 [16]
00000000: 43ba ca3c 2c51 f93c f80e cd3c 8d07 993c
00000010: 70b0 b93c 2fac bc3c d9c5 513c adee 233d
00000020: 7832 e13c 1a06 ad3c 7321 d23c ee6d 993c
00000030: ccc8 de3c 523a 703c ae30 5e3c c8ac f83c
0.02474702 0.030434214 0.025031552 0.018680358 0.02266714 0.023031322 0.012803518 0.04002254
0.027489886 0.021121074 0.025650715 0.018729176 0.027195357 0.014662342 0.013561411 0.030355826

model.model.tcn.0.conv2.weight f4 [16, 16, 3]
00000000: e990 173c 74d2 d3ba e7ee 813b daf8 423b
00000010: 37eb 293c d24c faba ffee a8ba 1e99 af3c
00000020: 5172 913c cd4c 99bc 2aa9 393c c077 ccbb
00000030: b345 4cba 87ac 96bb 3c4d cbbb a33e 38bc
00000040: 2425 b8bb d76d 913b 6744 7dbc 22f6 cf3b
00000050: 74f0 143c c672 f23b b988 233c dc73 a13c
00000060: 601d b4bb 853c 663c ee9b 553b d3da a9bc
00000070: 3cec 3d3b c952 7ebb f193 91bc 77d5 873a
00000080: fb60 6cbc 6de7 c63c 0263 d1bb 0508 783c
00000090: 7a8f c2bc be46 553b b4e9 2ebb fc97 323c
000000a0: 6202 d73b 4f2e 363c beeb 5039 5ec8 82bb
000000b0: 2f40 823c 89fa 55bc e3b2 fabb c42b 6d3c
000000c0: 7162 d6ba 0194 ff3a cc6d 6b3b 0f46 643c
000000d0: 15e9 76bc ebf9 273c a912 503b a29f 413c
000000e0: b354 b33b 0fca d3bb 400b 273c 3d2f afbb
000000f0: cb7d c3ba 69f5 53ba cb6c 463c cff5 623c
00000100: 7fdb fcba 365f cb3b 34ba 0e3c 8f73 de3b
00000110: 12e2 fe3b 6406 f33b 49c4 ed38 d5ed e93b
00000120: 8df0 d5b9 f098 9e3c 3e6d 083c ebc4 edbb
00000130: 5a48 8239 be28 7b3b 49f1 653c 4e42 c03b
00000140: 1739 9dbb 5adf 3d3b 4851 ec3b 15bc f53b
00000150: e009 de3b f385 ac3c 041c f7bb 10f5 693b
00000160: 7ee6 273b 5a1c c23c 9b62 233c 1f83 b93b
00000170: f129 7f3a d2a2 ed3b 4811 7b3b db7e f73b
00000180: b151 963c c72b 83bb e897 a4b5 88a2 443b
00000190: b537 42bb cb0a 3c3c 9c8a b7bb adf4 323c
000001a0: 37a4 69bc 3634 87bc 1e28 493b 2fe6 43ba
000001b0: c12d 8dbb 80ca a03b de20 8a3b c9f6 b1ba
000001c0: 7f76 183b 2c40 923c 8f09 833b 4585 933c
000001d0: 031f 1d3c 9623 a8bc ec93 a83b c941 e83b
000001e0: 12b9 ea3b ab25 573c a2e1 35bc e321 93ba
000001f0: 7458 b43c 1a70 843c 4fe5 0239 c6af 803b
00000200: e15b 8a3b b2a8 e1bb 5e26 053c 2560 b53c
00000210: 6082 82bc 8420 fa3a 09dc 95bb 0efd 143c
00000220: 7678 b6b8 fd4a f43b d301 1bbb 83eb 5bbc
00000230: 1eac 0b3c e7d8 563c 6f59 a73b 5464 07bc
00000240: 1834 77bb 9ef1 4439 5a7f a9ba 087f cdbb
00000250: d382 07bc 4d11 2cbb c54f 483b 892e 583c
00000260: 5bf5 fa3b a891 07bc 9328 21bc 7763 013c
00000270: 9afb 74b8 0d93 b83b 5611 b33c 150d 673a
00000280: d60b d93c f5e4 d939 89b8 2d3b 2dbe 9cbb
00000290: 3693 9f3c 8005 60bc baf9 a63b b351 eb3b
000002a0: 504a f03b 5d5a 643c be32 343c ad35 8d3c
000002b0: 7ccc 8d3b 8024 f73a dcbc 3b3a e254 0dbc
000002c0: 4cc2 353c 6b1a 823a 3be6 843c 9164 2a3c
000002d0: d2b7 683b 7f9c 873c 7a52 2a3b 3f1b abba
000002e0: a3f6 6c3c b0ad 41bb 2a65 00bc 890e ae3a
000002f0: 37ba 213c 39a9 8d3b 0147 483b 9013 983b
00000300: a869 cebb 7264 3d3c 1b71 553c 1e44 653c
00000310: 50e0 a1bb aaee 9ebb 4c74 35bc 1c82 02bb
00000320: c9b7 5e3c df70 143a 50d0 033c 9440 0dbc
00000330: 1b4b d2bb dfb6 cc3c 7733 1bbc 8fa0 bbbb
00000340: ddcc 6e3b cfb2 9e3c e72a 2fbc 6ad0 d63c
00000350: 510d a23a a5cf 583c 5db6 05bc bca0 8dbc
00000360: 6b1e 0f3b 2b7e 5abc 626e 9aba 0a7d c53a
00000370: fd51 4e3c 9169 83bb fe80 2cbb bd49 30bc
00000380: 40b1 653b dcc3 3f3b 7f24 5abb 603b 363c
00000390: 4718 493c bc2c 89ba 6ece 8f3c a0b5 483c
000003a0: 7a18 8b3c dfaf 6e3c e98a 5bbb 8181 b33b
000003b0: b41c 133b b5e2 81bb 9395 4e3b 64ef b33c
000003c0: b777 733c 739f c43b b4c0 e53b d568 c5bb
000003d0: df67 6f3b 9091 fb3b aba9 133b 31e4 5e3c
000003e0: 1da9 c43b f5a7 373b e1ad bb3b 6aea 80ba
000003f0: ea26 b53c 284e a0bc ca5f 223c a52c 56bb
0.009250858 -0.0016160742 0.003965247 0.0029750378 0.010371021 -0.001909638 -0.0012888609 0.021435317
0.017754706 -0.01871338 0.011331836 -0.0062398612 -0.00077923684 -0.0045982036 -0.0062042754 -0.0112454025
-0.005619662 0.0044381428 -0.015458203 0.00634648 0.009090532 0.007398936 0.009981328 0.019708566
-0.005496666 0.014052515 0.0032594162 -0.020734226 0.0028979918 -0.0038806668 -0.01777074 0.00103633
-0.014427419 0.024280274 -0.0063899765 0.015138631 -0.023750056 0.0032543386 -0.002668959 0.010900494
0.0065615634 0.011119439 0.00019924247 -0.003991171 0.015899746 -0.0130602205 -0.0076507195 0.014475767
-0.0016356242 0.0019499065 0.0035923598 0.013932719 -0.0150702195 0.010252456 0.0031749404 0.011817845
0.0054727434 -0.0064632962 0.010195553 -0.0053462074 -0.0014914809 -0.000808558 0.012110899 0.013852551
-0.0019291489 0.0062064184 0.0087113865 0.006788678 0.0077784145 0.0074165333 0.000113376016 0.0071389475
-0.0004080575 0.019360036 0.008326827 -0.0072561405 0.00024849438 0.0038323845 0.014034578 0.005867279
-0.0047980654 0.002897224 0.007211838 0.0074992278 0.0067760795 0.021059966 -0.0075411815 0.0035699047
0.0025619562 0.02369516 0.00997224 0.005661383 0.0009733728 0.0072520757 0.003830986 0.007552964
0.0183495 -0.0040030214 -1.2263163e-06 0.0030004103 -0.0029635255 0.011477183 -0.0056012403 0.010922593
-0.014260343 -0.016504388 0.0030694078 -0.00074729597 -0.004308433 0.0049069524 0.004215344 -0.0013577576
0.0023263989 0.017852865 0.003998942 0.018007884 0.009589913 -0.020524781 0.005144587 0.0070879203
0.0071631754 0.013131539 -0.011101158 -0.0011225309 0.022014834 0.016166735 0.0001248319 0.003927204
0.0042223786 -0.006886565 0.008126823 0.022140572 -0.015931308 0.0019083177 -0.0045733494 0.009093536
-8.700874e-05 0.0074552284 -0.002365221 -0.01342285 0.008524923 0.013113237 0.005107097 -0.008263666
-0.003772026 0.00018782026 -0.001293163 -0.006271247 -0.008270937 -0.002625543 0.0030565124 0.013194689
0.007658643 -0.008274473 -0.009836334 0.007897249 -5.8408456e-05 0.005632764 0.021858852 0.00088139
0.026494902 0.00041560052 0.0026507697 -0.004783413 0.019479375 -0.013673186 0.0050956877 0.00718137
0.0073330775 0.01393756 0.010998426 0.017237509 0.004327355 0.0018855482 0.0007161626 -0.008626195
0.011093687 0.0009926086 0.016223064 0.010399953 0.0035509956 0.016554115 0.0025989101 -0.0013054385
0.0144631 -0.0029552989 -0.007836619 0.0013279478 0.009871057 0.0043231514 0.00305599 0.004641004
-0.0062992163 0.011559593 0.013027455 0.013993291 -0.00494007 -0.0048502283 -0.011075091 -0.0019913977
0.0135936225 0.0005662571 0.008045271 -0.008621354 -0.0064176447 0.024989543 -0.009472719 -0.005725927
0.0036438026 0.019372372 -0.010691381 0.026222426 0.0012363588 0.0132331 -0.008161155 -0.017288558
0.00218382 -0.013335745 -0.0011782164 0.0015067172 0.01259279 -0.004010387 -0.0026322003 -0.010759768
0.0035048276 0.0029261028 -0.0033285914 0.011122555 0.012273855 -0.0010465602 0.017554488 0.012250334
0.016979445 0.014568298 -0.0033499545 0.0054780846 0.0022447528 -0.003963793 0.0031522259 0.021964736
0.014860085 0.006000453 0.0070114974 -0.00602446 0.0036530418 0.0076772645 0.002253155 0.01360421
0.006001605 0.0028023694 0.005727515 -0.0009835486 0.022113282 -0.019568518 0.009910533 -0.0032680419

model.model.tcn.0.conv2.bias f4 [16]
00000000: a183 81bd 65e2 6fbd 0f9d f5bc 4c0e d23d
00000010: 87c0 32bc 2926 2f3d c9e9 ad3d 5276 013d
00000020: 3dc8 b0bd 1ed6 13be 2286 99bd 4386 0dbe
00000030: 0031 52bd 9ca3 d8bd 5b25 af3d 5687 c0bc
-0.06323934 -0.058565516 -0.029982118 0.10256633 -0.01091016 0.042761 0.084918566 0.03160698
-0.086319424 -0.14437148 -0.07496287 -0.13820748 -0.05131626 -0.10578081 0.08552047 -0.023502033

model.model.tcn.0.bn2.weight f4 [16]
00000000: 7218 833f 632c 833f 89a0 833f 1c9a 843f
00000010: e255 833f 1d47 823f eb5c 823f 31ee 843f
00000020: 3a9a 813f a461 853f 33ac 843f d604 853f
00000030: 6985 843f be2d 823f 230c 833f 7aae 833f
1.0241835 1.0247921 1.0283366 1.035953 1.0260584 1.0177952 1.0184606 1.038519
1.0125191 1.0420423 1.0365051 1.0392101 1.0353214 1.017021 1.0238079 1.0287621

model.model.tcn.0.bn2.bias f4 [16]
00000000: 8886 f73c bd5b a43c b01f 0b3d 5f97 1e3d
00000010: 483c ed3c 83dc 9a3c 925e b83c e578 143d
00000020: 4cf4 883c 7696 203d 642d 1a3d 2d4a 2a3d
00000030: 5fc6 1f3d 454e db3c 9aad f63c 0325 fe3c
0.030215517 0.020063275 0.033965766 0.038718577 0.028959408 0.018903976 0.022506032 0.036248107
0.016718052 0.03920599 0.037640944 0.041574646 0.03900754 0.02677072 0.030112077 0.031023508

model.model.tcn.0.bn2.running_mean f4 [16]
00000000: b5a6 2bbd 804f a63c 9c66 4f3c ba83 2b3e
00000010: d227 223d 3539 b23d 9a74 e83d 0f17 f73d
00000020: 0e34 89bc a651 34bd 7bb3 6bbc 69dd bfbd
00000030: 02cf a4bb b778 b6bd 6250 133e fd92 2e3d
-0.04190703 0.02030158 0.012658741 0.16749468 0.039588757 0.087023176 0.11350365 0.12064945
-0.016748454 -0.04402318 -0.014386053 -0.093684025 -0.00502956 -0.08909743 0.14386132 0.042620648

model.model.tcn.0.bn2.running_var f4 [16]
00000000: 10c9 813b 7f64 803b c745 493b f9ff 863b
00000010: 3e27 4b3b ab50 213b a089 333b 2e84 a03b
00000020: d712 6f3b 7c70 ce3b 05f2 7e3b cc0f 043b
00000030: a654 6d3b 6b1a 1d3b 1781 7a3b 5d92 8c3b
0.003960736 0.00391823 0.0030711757 0.00411987 0.0030998732 0.0024614732 0.0027395263 0.0048985695
0.0036479735 0.0063000303 0.003890158 0.0020151017 0.0036213784 0.0023972045 0.0038223916 0.004289909

model.model.tcn.0.net.0.weight f4 [16, 219, 3]
00000000: 2310 21bc 6e5a 83bc 02b2 1ebc 9c28 1abb
00000010: b468 05bb a8ea 483c 6e21 ed3b 4af2 7e3a
00000020: d993 013c a079 d239 7bd8 913c e001 1ebc
00000030: 2ecd 3fbc 5380 1cbb 7906 be3c 245d 31b9
00000040: c31b e6b9 6a94 263c 75fb 9c3b 0910 b0bb
00000050: 0e42 0abc 30b9 2c3b 5d65 abbb 7aff b93c
00000060: 5ced d93b da87 f23b 9b91 7c3b 47ca f53a
00000070: 4642 bc3a eeb0 0f3b fd9e 7f3b 7990 d3bb
00000080: f5d6 eebb b73d 4dbb 86fd a4bb bc62 e83b
00000090: 5a5f 7f3b 3a2e 29bc 4536 06bb 611b 8eba
000000a0: fd59 ac3a 902f d8bb 0909 853a abe3 6fbc
000000b0: 1492 dfbb 94dd 93bc 6d14 16bc 2a3e 5ebb
000000c0: 5537 503c 1143 ccba 3d1f 2bbc e82a a4bb
000000d0: fbee 8dbc b214 08bb 13e7 2f3c d4c4 50bc
000000e0: d68f 583b 7a14 193c b826 d53c 87c9 94bc
000000f0: 4257 cb3b 94e1 46ba f5a3 27bc c3cf b5bc
00000100: 4268 16bc 5925 0f3a 8a32 39bc 6eed 42bb
00000110: 0102 fdba ef2f aeba 6ffd 1b3c 6ff8 07bb
00000120: aa43 a73c 4492 72bb ea89 fcbb 615a 9bbb
00000130: 0ef6 61bb 39fc fbb8 145c b439 77c5 2dbc
00000140: 93aa 0d3c 9b70 3bbc 1a7f d5bb 282a 90bc
00000150: dbaf 3cbb ebb6 2a3b 65a8 d7bb 156d 11bb
00000160: 7b12 643c bf68 853a ebc6 ea3b 7db5 cbbb
00000170: fff6 273c 62aa 303c c142 5e3b 2b84 c5ba
00000180: e331 a9bc 2214 09bc 2fbc afbb 08c8 5f3c
00000190: 93a6 7f3c 1b61 113b 7f19 87bb abee 0fbc
000001a0: 430a 55bc eab3 a1bc 9f99 46bc c6a1 45bc
000001b0: 1efd 3e3b f308 b63a 08d2 cf3b 52a3 803b
000001c0: 134f bdbb 91ba 15bc de5e 1fbb 2631 c23b
000001d0: c96b a73b 06d5 9f3b 1c12 99ba 426f 153c
000001e0: a149 3f3c e08c 193c f87a 9cbb 3024 34bc
000001f0: a050 2ebb c490 03bc 97b7 773b 9545 493a
00000200: 20ba eebb 171d 313b ba2f 6abb 49fc 82bc
00000210: e3c0 913b a295 163c 5e8b 3a3c 58f8 093c
00000220: 9205 a8bb fb2b efba 020a f8bb fc4a cd3c
00000230: a36d 533b 5d2a d63b b8e5 5c3a b2ce aa3b
00000240: aa0d a5bc 1432 b0bb fa24 193a cb96 42bc
00000250: 4548 ea3a 393a e0b9 4a49 30bc 8ba4 39bc
00000260: 9505 feb9 a4cf b4bb c0bd 6d3c f071 a8bc
00000270: d27f 7d3a 1593 9dbc ebd2 163c 1450 383c
00000280: 0abd 133c 08f6 983b bef0 9c3c 32b1 b1bb
00000290: 396d 15bc 7ce3 973a e697 83bb 39ac 0dbb
000002a0: 0fe0 b6bb 6db5 0cbc ed95 ba3c c7c9 5ebc
000002b0: 04ec c73a 12df 013b 600e a13c deb5 163c
000002c0: 7c6a c9bc 833b 883c bdc0 e43b 59a0 92bc
000002d0: d7a7 403b aee2 153c 2430 a3ba 434c b93b
000002e0: 0e78 5d3b d7e7 2dbc 0273 b33a e801 c0bb
000002f0: 1e6d 173c 173d e03b 51bd e8bb fdd3 c73b
00000300: 2fc5 3cbc 844f 8c3b 915a b73a c9e2 0dbb
00000310: d1db d93a 5f5a 28bc 3e09 95bb ec4e 913a
00000320: bbee 8c3a cf4d 88bb 3c43 e13a ea03 873b
00000330: 589b 863c 830d efbb 9dcb 0bbc 569d d2bb
00000340: a401 893a ed30 9f3c 6eaf 4abc 7a69 3ebc
00000350: b5ca f8bb 4abe f1b9 3e8a 583a 5095 1c3c
00000360: 0786 bfbb 1abb c5b9 c1cc 0ebc 1bd6 afbb
00000370: 38f7 463b 14ad 8cba 2465 03bc ee60 173c
00000380: cd80 41bc 1223 373b e78b a139 c625 f93b
00000390: 781f d43b 3de2 b9bc 5a09 9cbc 719e 5f3c
000003a0: 8e44 45bc 4f4b 82bc c20b 1e3b 8f45 333c
000003b0: c23c dd3b 3f97 853b 24c3 31bc d04b d6bb
000003c0: 449d 62bc fa2d 553c aea9 c2ba bfd2 d3bb
000003d0: 3513 a63b 3e1f a4bc fd18 333c beac 1abc
000003e0: f17e 143b 8cd3 10bc 64f5 443b 732c 4eba
000003f0: 786e 6e3b 55df 7fbb 5df8 333c de15 833c
-0.009830507 -0.016034331 -0.009685995 -0.002352274 -0.0020356597 0.012262978 0.007236651 0.0009725435
0.007908785 0.0004014494 0.017803421 -0.009644002 -0.0117066335 -0.0023880198 0.023196446 -0.00016914733
-0.00043889703 0.010167221 0.004790718 -0.0053730053 -0.0084386 0.0026355498 -0.0052305893 0.022704829
0.00665061 0.0074014487 0.0038538936 0.00187523 0.0014363013 0.0021925527 0.0039004677 -0.0064564315
-0.0072888085 -0.0031317302 -0.005035105 0.007091848 0.0038966746 -0.010325963 -0.0020479125 -0.00108419
0.0013149377 -0.0065974668 0.0010149787 -0.014641683 -0.006822834 -0.018049993 -0.009160143 -0.0033911564
0.012708505 -0.0015583952 -0.0104444595 -0.0050099976 -0.017325869 -0.0020764288 0.010736245 -0.01274224
0.0033044717 0.009343261 0.02601944 -0.018162502 0.0062054703 -0.00075867143 -0.0102319615 -0.022193795
-0.00918013 0.00054605823 -0.011303553 -0.002974357 -0.0019302965 -0.0013289432 0.0095208725 -0.0020747443
0.020418007 -0.003701345 -0.0077068703 -0.0047409986 -0.0034478935 -0.00012015593 0.0003440088 -0.010606161
0.008646625 -0.011440421 -0.006515396 -0.017598227 -0.0028791341 0.002604897 -0.0065813535 -0.0022190262
0.013920422 0.0010178311 0.007164826 -0.0062167034 0.01025176 0.01078281 0.00339143 -0.0015069296
-0.02065367 -0.008366616 -0.0053630094 0.013658531 0.015603679 0.0022183124 -0.0041229124 -0.00878493
-0.013002935 -0.01973911 -0.012121587 -0.012062496 0.0029142569 0.0013888165 0.0063421763 0.0039257193
-0.0057772486 -0.009138719 -0.002431802 0.005926269 0.0051092845 0.0048776893 -0.0011678371 0.009120764
0.011675269 0.009371966 -0.004775401 -0.010994956 -0.002659835 -0.00803012 0.0037798637 0.000767791
-0.0072853714 0.0027025396 -0.0035734014 -0.01598944 0.0044480427 0.009190949 0.011385767 0.008421026
-0.005127617 -0.001824736 -0.0075695524 0.02506017 0.0032261393 0.006535812 0.0008426565 0.0052126283
-0.020148117 -0.0053770635 0.0005841997 -0.011876772 0.0017874321 -0.0004276799 -0.010759661 -0.011330734
-0.00048450814 -0.0055179168 0.014510572 -0.020562142 0.0009670231 -0.019235173 0.00920556 0.011249561
0.009017238 0.004668001 0.019157764 -0.0054227347 -0.009120279 0.0011588181 -0.0040159104 -0.0021617545
-0.005580909 -0.008588177 0.022776568 -0.013597912 0.0015252833 0.0019816798 0.019660175 0.009198634
-0.024586909 0.01662994 0.006980984 -0.017898725 0.0029396915 0.009148283 -0.001245026 0.005654843
0.0033793482 -0.010614357 0.0013690891 -0.0058596022 0.009242324 0.00684322 -0.0071026464 0.006098269
-0.011521622 0.00428194 0.0013988783 -0.0021650067 0.0016621297 -0.010275452 -0.004548221 0.0011086143
0.00107523 -0.004159666 0.0017186175 0.0041203396 0.016431496 -0.007295312 -0.008532432 -0.0064274473
0.001045276 0.01943251 -0.012370927 -0.011621827 -0.007592524 -0.00046108878 0.0008260346 0.009557083
-0.0058448347 -0.0003771417 -0.008715809 -0.0053660995 0.0030359756 -0.0010732734 -0.008019719 0.009239418
-0.011810494 0.0027944488 0.00030812548 0.00760338 0.006473478 -0.022690887 -0.019047428 0.013648615
-0.0120402705 -0.01590505 0.0024115895 0.010941877 0.0067516277 0.004076868 -0.010849748 -0.0065397993
-0.01383144 0.01301145 -0.0014851594 -0.006464332 0.0050682076 -0.020034429 0.010931251 -0.009440599
0.002265867 -0.008839499 0.003005349 -0.00078649 0.0036381762 -0.0039043028 0.010984507 0.016001638

model.model.tcn.0.net.0.bias f4 [16]
00000000: 8f41 b03b 7a32 c0bc 2ae6 ac3c 360c cf3c
00000010: 21fa 733c f44b b7bc c7b1 913a 4862 b0bc
00000020: ebee bebc a308 cf3c bbc7 833c 6772 933c
00000030: 95d1 cebb e39f efbc 65e7 c33b 18a5 1dbd
0.005378909 -0.02346157 0.021105845 0.025274377 0.014891178 -0.022375084 0.0011115604 -0.02153124
-0.023307284 0.025272673 0.01608645 0.017998887 -0.006311605 -0.029251045 0.005978512 -0.038487524

model.model.tcn.0.net.1.weight f4 [16]
00000000: 1ca6 7f3f 7535 7f3f 090c 803f 31ae 7f3f
00000010: 9c06 7f3f ca40 803f fa29 813f fb6d 7f3f
00000020: edd9 7e3f 152c 7f3f 7b32 803f 8e71 803f
00000030: 4434 803f 74cd 803f e1a4 7e3f 66a2 7f3f
0.9986284 0.99690944 1.0003673 0.9987517 0.9961946 1.0019772 1.0090935 0.9977719
0.9955128 0.9967664 1.0015405 1.0034654 1.001595 1.0062699 0.99470335 0.99857175

model.model.tcn.0.net.1.bias f4 [16]
00000000: f859 3fba 0de4 d638 6e7c d03b 9ff0 313b
00000010: c8ae df3a 4ce4 f03b 11cb 403c c297 6339
00000020: 4162 72bb 1db8 bcba c2ee c63b 63a8 fc3a
00000030: 6fd7 a23b edc7 103c 56a2 b3bb 5888 8a3b
-0.0007299478 0.00010246793 0.0063624894 0.0027151478 0.0017065639 0.007351434 0.011767165 0.00021704941
-0.0036984833 -0.0014398132 0.0060709426 0.0019276257 0.0049695293 0.0088367285 -0.0054819984 0.004227679

model.model.tcn.0.net.1.running_mean f4 [16]
00000000: 60c3 50b8 dc79 bebc cb12 023d 57b7 db3c
00000010: 53b7 603c edab bbbc 14d8 cd3a 580b 96bc
00000020: dcdc 00bd bf88 af3c c0af 873c 7240 ce3c
00000030: acd8 32bc 1a4a cebc 8451 453b c11e 36bd
-4.977302e-05 -0.023251466 0.031756204 0.026820822 0.013715583 -0.022909129 0.0015704655 -0.018315956
-0.031460628 0.02142751 0.016563296 0.025177214 -0.010915916 -0.025181819 0.0030108402 -0.044462923

model.model.tcn.0.net.1.running_var f4 [16]
00000000: 43ba ca3c 2c51 f93c f80e cd3c 8d07 993c
00000010: 70b0 b93c 2fac bc3c d9c5 513c adee 233d
00000020: 7832 e13c 1a06 ad3c 7321 d23c ee6d 993c
00000030: ccc8 de3c 523a 703c ae30 5e3c c8ac f83c
0.02474702 0.030434214 0.025031552 0.018680358 0.02266714 0.023031322 0.012803518 0.04002254
0.027489886 0.021121074 0.025650715 0.018729176 0.027195357 0.014662342 0.013561411 0.030355826

model.model.tcn.0.net.5.weight f4 [16, 16, 3]
00000000: e990 173c 74d2 d3ba e7ee 813b daf8 423b
00000010: 37eb 293c d24c faba ffee a8ba 1e99 af3c
00000020: 5172 913c cd4c 99bc 2aa9 393c c077 ccbb
00000030: b345 4cba 87ac 96bb 3c4d cbbb a33e 38bc
00000040: 2425 b8bb d76d 913b 6744 7dbc 22f6 cf3b
00000050: 74f0 143c c672 f23b b988 233c dc73 a13c
00000060: 601d b4bb 853c 663c ee9b 553b d3da a9bc
00000070: 3cec 3d3b c952 7ebb f193 91bc 77d5 873a
00000080: fb60 6cbc 6de7 c63c 0263 d1bb 0508 783c
00000090: 7a8f c2bc be46 553b b4e9 2ebb fc97 323c
000000a0: 6202 d73b 4f2e 363c beeb 5039 5ec8 82bb
000000b0: 2f40 823c 89fa 55bc e3b2 fabb c42b 6d3c
000000c0: 7162 d6ba 0194 ff3a cc6d 6b3b 0f46 643c
000000d0: 15e9 76bc ebf9 273c a912 503b a29f 413c
000000e0: b354 b33b 0fca d3bb 400b 273c 3d2f afbb
000000f0: cb7d c3ba 69f5 53ba cb6c 463c cff5 623c
00000100: 7fdb fcba 365f cb3b 34ba 0e3c 8f73 de3b
00000110: 12e2 fe3b 6406 f33b 49c4 ed38 d5ed e93b
00000120: 8df0 d5b9 f098 9e3c 3e6d 083c ebc4 edbb
00000130: 5a48 8239 be28 7b3b 49f1 653c 4e42 c03b
00000140: 1739 9dbb 5adf 3d3b 4851 ec3b 15bc f53b
00000150: e009 de3b f385 ac3c 041c f7bb 10f5 693b
00000160: 7ee6 273b 5a1c c23c 9b62 233c 1f83 b93b
00000170: f129 7f3a d2a2 ed3b 4811 7b3b db7e f73b
00000180: b151 963c c72b 83bb e897 a4b5 88a2 443b
00000190: b537 42bb cb0a 3c3c 9c8a b7bb adf4 323c
000001a0: 37a4 69bc 3634 87bc 1e28 493b 2fe6 43ba
000001b0: c12d 8dbb 80ca a03b de20 8a3b c9f6 b1ba
000001c0: 7f76 183b 2c40 923c 8f09 833b 4585 933c
000001d0: 031f 1d3c 9623 a8bc ec93 a83b c941 e83b
000001e0: 12b9 ea3b ab25 573c a2e1 35bc e321 93ba
000001f0: 7458 b43c 1a70 843c 4fe5 0239 c6af 803b
00000200: e15b 8a3b b2a8 e1bb 5e26 053c 2560 b53c
00000210: 6082 82bc 8420 fa3a 09dc 95bb 0efd 143c
00000220: 7678 b6b8 fd4a f43b d301 1bbb 83eb 5bbc
00000230: 1eac 0b3c e7d8 563c 6f59 a73b 5464 07bc
00000240: 1834 77bb 9ef1 4439 5a7f a9ba 087f cdbb
00000250: d382 07bc 4d11 2cbb c54f 483b 892e 583c
00000260: 5bf5 fa3b a891 07bc 9328 21bc 7763 013c
00000270: 9afb 74b8 0d93 b83b 5611 b33c 150d 673a
00000280: d60b d93c f5e4 d939 89b8 2d3b 2dbe 9cbb
00000290: 3693 9f3c 8005 60bc baf9 a63b b351 eb3b
000002a0: 504a f03b 5d5a 643c be32 343c ad35 8d3c
000002b0: 7ccc 8d3b 8024 f73a dcbc 3b3a e254 0dbc
000002c0: 4cc2 353c 6b1a 823a 3be6 843c 9164 2a3c
000002d0: d2b7 683b 7f9c 873c 7a52 2a3b 3f1b abba
000002e0: a3f6 6c3c b0ad 41bb 2a65 00bc 890e ae3a
000002f0: 37ba 213c 39a9 8d3b 0147 483b 9013 983b
00000300: a869 cebb 7264 3d3c 1b71 553c 1e44 653c
00000310: 50e0 a1bb aaee 9ebb 4c74 35bc 1c82 02bb
00000320: c9b7 5e3c df70 143a 50d0 033c 9440 0dbc
00000330: 1b4b d2bb dfb6 cc3c 7733 1bbc 8fa0 bbbb
00000340: ddcc 6e3b cfb2 9e3c e72a 2fbc 6ad0 d63c
00000350: 510d a23a a5cf 583c 5db6 05bc bca0 8dbc
00000360: 6b1e 0f3b 2b7e 5abc 626e 9aba 0a7d c53a
00000370: fd51 4e3c 9169 83bb fe80 2cbb bd49 30bc
00000380: 40b1 653b dcc3 3f3b 7f24 5abb 603b 363c
00000390: 4718 493c bc2c 89ba 6ece 8f3c a0b5 483c
000003a0: 7a18 8b3c dfaf 6e3c e98a 5bbb 8181 b33b
000003b0: b41c 133b b5e2 81bb 9395 4e3b 64ef b33c
000003c0: b777 733c 739f c43b b4c0 e53b d568 c5bb
000003d0: df67 6f3b 9091 fb3b aba9 133b 31e4 5e3c
000003e0: 1da9 c43b f5a7 373b e1ad bb3b 6aea 80ba
000003f0: ea26 b53c 284e a0bc ca5f 223c a52c 56bb
0.009250858 -0.0016160742 0.003965247 0.0029750378 0.010371021 -0.001909638 -0.0012888609 0.021435317
0.017754706 -0.01871338 0.011331836 -0.0062398612 -0.00077923684 -0.0045982036 -0.0062042754 -0.0112454025
-0.005619662 0.0044381428 -0.015458203 0.00634648 0.009090532 0.007398936 0.009981328 0.019708566
-0.005496666 0.014052515 0.0032594162 -0.020734226 0.0028979918 -0.0038806668 -0.01777074 0.00103633
-0.014427419 0.024280274 -0.0063899765 0.015138631 -0.023750056 0.0032543386 -0.002668959 0.010900494
0.0065615634 0.011119439 0.00019924247 -0.003991171 0.015899746 -0.0130602205 -0.0076507195 0.014475767
-0.0016356242 0.0019499065 0.0035923598 0.013932719 -0.0150702195 0.010252456 0.0031749404 0.011817845
0.0054727434 -0.0064632962 0.010195553 -0.0053462074 -0.0014914809 -0.000808558 0.012110899 0.013852551
-0.0019291489 0.0062064184 0.0087113865 0.006788678 0.0077784145 0.0074165333 0.000113376016 0.0071389475
-0.0004080575 0.019360036 0.008326827 -0.0072561405 0.00024849438 0.0038323845 0.014034578 0.005867279
-0.0047980654 0.002897224 0.007211838 0.0074992278 0.0067760795 0.021059966 -0.0075411815 0.0035699047
0.0025619562 0.02369516 0.00997224 0.005661383 0.0009733728 0.0072520757 0.003830986 0.007552964
0.0183495 -0.0040030214 -1.2263163e-06 0.0030004103 -0.0029635255 0.011477183 -0.0056012403 0.010922593
-0.014260343 -0.016504388 0.0030694078 -0.00074729597 -0.004308433 0.0049069524 0.004215344 -0.0013577576
0.0023263989 0.017852865 0.003998942 0.018007884 0.009589913 -0.020524781 0.005144587 0.0070879203
0.0071631754 0.013131539 -0.011101158 -0.0011225309 0.022014834 0.016166735 0.0001248319 0.003927204
0.0042223786 -0.006886565 0.008126823 0.022140572 -0.015931308 0.0019083177 -0.0045733494 0.009093536
-8.700874e-05 0.0074552284 -0.002365221 -0.01342285 0.008524923 0.013113237 0.005107097 -0.008263666
-0.003772026 0.00018782026 -0.001293163 -0.006271247 -0.008270937 -0.002625543 0.0030565124 0.013194689
0.007658643 -0.008274473 -0.009836334 0.007897249 -5.8408456e-05 0.005632764 0.021858852 0.00088139
0.026494902 0.00041560052 0.0026507697 -0.004783413 0.019479375 -0.013673186 0.0050956877 0.00718137
0.0073330775 0.01393756 0.010998426 0.017237509 0.004327355 0.0018855482 0.0007161626 -0.008626195
0.011093687 0.0009926086 0.016223064 0.010399953 0.0035509956 0.016554115 0.0025989101 -0.0013054385
0.0144631 -0.0029552989 -0.007836619 0.0013279478 0.009871057 0.0043231514 0.00305599 0.004641004
-0.0062992163 0.011559593 0.013027455 0.013993291 -0.00494007 -0.0048502283 -0.011075091 -0.0019913977
0.0135936225 0.0005662571 0.008045271 -0.008621354 -0.0064176447 0.024989543 -0.009472719 -0.005725927
0.0036438026 0.019372372 -0.010691381 0.026222426 0.0012363588 0.0132331 -0.008161155 -0.017288558
0.00218382 -0.013335745 -0.0011782164 0.0015067172 0.01259279 -0.004010387 -0.0026322003 -0.010759768
0.0035048276 0.0029261028 -0.0033285914 0.011122555 0.012273855 -0.0010465602 0.017554488 0.012250334
0.016979445 0.014568298 -0.0033499545 0.0054780846 0.0022447528 -0.003963793 0.0031522259 0.021964736
0.014860085 0.006000453 0.0070114974 -0.00602446 0.0036530418 0.0076772645 0.002253155 0.01360421
0.006001605 0.0028023694 0.005727515 -0.0009835486 0.022113282 -0.019568518 0.009910533 -0.0032680419

model.model.tcn.0.net.5.bias f4 [16]
00000000: a183 81bd 65e2 6fbd 0f9d f5bc 4c0e d23d
00000010: 87c0 32bc 2926 2f3d c9e9 ad3d 5276 013d
00000020: 3dc8 b0bd 1ed6 13be 2286 99bd 4386 0dbe
00000030: 0031 52bd 9ca3 d8bd 5b25 af3d 5687 c0bc
-0.06323934 -0.058565516 -0.029982118 0.10256633 -0.01091016 0.042761 0.084918566 0.03160698
-0.086319424 -0.14437148 -0.07496287 -0.13820748 -0.05131626 -0.10578081 0.08552047 -0.023502033

model.model.tcn.0.net.6.weight f4 [16]
00000000: 7218 833f 632c 833f 89a0 833f 1c9a 843f
00000010: e255 833f 1d47 823f eb5c 823f 31ee 843f
00000020: 3a9a 813f a461 853f 33ac 843f d604 853f
00000030: 6985 843f be2d 823f 230c 833f 7aae 833f
1.0241835 1.0247921 1.0283366 1.035953 1.0260584 1.0177952 1.0184606 1.038519
1.0125191 1.0420423 1.0365051 1.0392101 1.0353214 1.017021 1.0238079 1.0287621

model.model.tcn.0.net.6.bias f4 [16]
00000000: 8886 f73c bd5b a43c b01f 0b3d 5f97 1e3d
00000010: 483c ed3c 83dc 9a3c 925e b83c e578 143d
00000020: 4cf4 883c 7696 203d 642d 1a3d 2d4a 2a3d
00000030: 5fc6 1f3d 454e db3c 9aad f63c 0325 fe3c
0.030215517 0.020063275 0.033965766 0.038718577 0.028959408 0.018903976 0.022506032 0.036248107
0.016718052 0.03920599 0.037640944 0.041574646 0.03900754 0.02677072 0.030112077 0.031023508

model.model.tcn.0.net.6.running_mean f4 [16]
00000000: b5a6 2bbd 804f a63c 9c66 4f3c ba83 2b3e
00000010: d227 223d 3539 b23d 9a74 e83d 0f17 f73d
00000020: 0e34 89bc a651 34bd 7bb3 6bbc 69dd bfbd
00000030: 02cf a4bb b778 b6bd 6250 133e fd92 2e3d
-0.04190703 0.02030158 0.012658741 0.16749468 0.039588757 0.087023176 0.11350365 0.12064945
-0.016748454 -0.04402318 -0.014386053 -0.093684025 -0.00502956 -0.08909743 0.14386132 0.042620648

model.model.tcn.0.net.6.running_var f4 [16]
00000000: 10c9 813b 7f64 803b c745 493b f9ff 863b
00000010: 3e27 4b3b ab50 213b a089 333b 2e84 a03b
00000020: d712 6f3b 7c70 ce3b 05f2 7e3b cc0f 043b
00000030: a654 6d3b 6b1a 1d3b 1781 7a3b 5d92 8c3b
0.003960736 0.00391823 0.0030711757 0.00411987 0.0030998732 0.0024614732 0.0027395263 0.0048985695
0.0036479735 0.0063000303 0.003890158 0.0020151017 0.0036213784 0.0023972045 0.0038223916 0.004289909

model.model.tcn.0.downsample.weight f4 [16, 219, 1]
00000000: 113a dbbc 9d4f 603b 0326 923c b798 933b
00000010: 8dda 663c dc96 b3bb 9e9a e73a 2276 2d3c
00000020: 66e6 673c 101d 0e3c 8f76 2a3c a16d 8abc
00000030: 8657 69bb 8311 1c3c 336b cd3b d528 75bb
00000040: 3ba0 c5bb c61a 9a3c bf58 763b d5f0 453c
00000050: 6628 953c b77f eeba 6a95 e53c f591 ac3c
00000060: da49 9cbb a7a4 cc39 dd8d acbb 1d9d 813b
00000070: a613 bc3c 7820 b739 7b40 c7bb 20ed 5e3c
00000080: 459f ac3b 61bc 993b a846 9e3c 6fac 213b
00000090: 9f3a ba3c 9b95 163c 357c 53bb 959a 3b3c
000000a0: 9784 01bc 7c39 ed3b 4b6b 4abc 8f95 a93c
000000b0: 06cd 483c f22b e63b 5faa 4c3c 6651 813b
000000c0: a85c 033c 2e4f 08bc ede5 9c3c 10e4 4b3b
000000d0: 30b7 eb3a 88fc 893b 9080 9b3b a158 bf3b
000000e0: 8805 30bc 1a85 bcbb 21c2 44ba a856 57bb
000000f0: 05b5 23bb 2f6b c1bb d705 10bc 8e72 f7b9
00000100: 0e00 57bc add5 693a ca8f 60bc 0c9f 683b
00000110: 6b0e bf3b 7df2 953c c5a5 9ebb 72c5 80bc
00000120: 15a1 a53c 8430 803c 28f3 153b 23f7 82b8
00000130: 93ca e1bb 3bd3 8abb 9069 89bb d0ce d63b
00000140: a6dc 22bc 46df 293b 215d b5bb 71d2 fdbb
00000150: 81cb 773b d576 c4bc 97bf 2e3a 1459 723c
00000160: fe48 3b3b 137e db3a d4c3 fabb d5ac 0ebc
00000170: d4cf 1b3b 3689 84bc 8b2b 39bc af04 093c
00000180: b54c febb b3fe c4bb 1a9b adba e1f4 a43b
00000190: 9c0e 13bc 27d4 51bb 76a1 c23a 7d2f c6bc
000001a0: 16c0 f2bb 1fba 05ba 2f89 c33b a1ce 183c
000001b0: ab29 dcb9 5eea eebb 03db 16bb ecde 273c
000001c0: 24c9 3c3a 7ef8 2b3c d194 fdba 2792 103c
000001d0: c94d 38bc ef9c a0bb 1ad2 0c3a 0fdd 433c
000001e0: 75cf 8d3c 5c62 2a3c 545f 9f3b 54e1 873b
000001f0: a2c6 c33b dda3 dfb9 4bea c1b9 8c11 e5bb
00000200: 76c5 893a c251 e8ba e6ea 2cbb cdd3 463c
00000210: 07db 87bc a171 a0bb 244f 75ba abbc c0ba
00000220: f34f a4bc 8b02 03bc eadb 013c b07a bf3c
00000230: 261e 43bc ff1b 24bb 2402 3f3c daba 593b
00000240: 5e93 3abb 9ec4 023d 7d55 5c3c 2d31 d4b9
00000250: 4632 8139 ddc7 8a3c ecab 5c3c 7c25 39bc
00000260: 81a5 1d3b 3ff2 da3b 9829 aabb 314f ff3a
00000270: fde9 83bc 16f7 0abb 39c9 dbbb 2e67 58bc
00000280: 7b37 4ebc ae4a 67bc a809 053c 5bfa d1bb
00000290: 8d32 18bc 39ee 913c 3fc4 3abc 6412 8abc
000002a0: 528b 0f3c 85bc 713c 7ec3 673c c019 19ba
000002b0: 3d28 f3bb 7ebb 85bc 30a9 b73b 281e 8bbc
000002c0: 74db 963b 4243 a83b dc3d c83b 5b54 98b7
000002d0: 87a2 d43b a2a7 6f3b 9b5b c43b 17be 0a3c
000002e0: 6fb1 5fbc 172a 193c e978 01bc 7cc7 613c
000002f0: 98c6 dabb 4ed8 08bb cb57 95bb 54e6 a43c
00000300: fb0f c7b9 a860 123c 1500 11bc d014 8cbc
00000310: 4935 eabb f5e6 64bc 2a7b 0ebc f75c 7fbc
00000320: 7948 2dbc 3ff8 bdbc 9cae 1c3b 63b6 83bc
00000330: b440 56bc 9e6d 9d3b 97c3 b4bb 9d5d 09bc
00000340: 81cb 4dbb ae4a 593c 950b 893b e40a f7bc
00000350: b665 493b 4e38 133c a4ff 58bb a284 293c
00000360: d0ec 25bc 8a24 14bc e776 133c af54 13bb
00000370: 594d ddbb a547 81bc d68c 193c ab94 b9b6
00000380: b001 f03a ece7 8fbc d004 bbba 57b4 32bc
00000390: 224f 42bc 14c2 5abc f2d6 093c b1e9 a73a
000003a0: 93ba 3e3b 4be2 dcbc 28d3 c3bb 947b 183b
000003b0: 8e64 a8bc bdb2 2abc cfcc a23b 01b1 9d3c
000003c0: f7ec febb a5ec 813a 70d2 5bbc 049e 77ba
000003d0: fd4c a5bc 9afa d8bb 5e02 75bc 0882 5c3b
000003e0: 6e7a 1a3c 48f8 523b 583d 003b bd55 123c
000003f0: e3f7 4dbc 7177 89ba aac1 ab3a 1482 023c
-0.026761087 0.003422714 0.017840391 0.004504289 0.0140901925 -0.0054806303 0.0017669981 0.010587247
0.014154052 0.008673921 0.010404243 -0.016897978 -0.0035605147 0.0095256595 0.0062688827 -0.003740837
-0.006031064 0.018811595 0.0037589518 0.012081345 0.01820774 -0.0018196021 0.028025348 0.021065691
-0.004769546 0.00039032588 -0.005265935 0.003955497 0.022958588 0.0003492867 -0.0060806847 0.01360634
0.00526801 0.004691646 0.0193208 0.0024669429 0.02273303 0.009190942 -0.0032270078 0.011450429
-0.007905147 0.0072395187 -0.012354682 0.020701198 0.012255913 0.0070242817 0.0124917915 0.003946471
0.008017696 -0.008319659 0.019152606 0.0031111278 0.0017983671 0.0042110123 0.0047455505 0.005839423
-0.010743506 -0.0057531716 -0.0007505734 -0.0032858048 -0.0024979722 -0.00590267 -0.008790455 -0.0004719686
-0.013122572 0.0008920085 -0.013706157 0.003549519 0.005830576 0.018304104 -0.0048415386 -0.01571915
0.020218411 0.015648134 0.0022880528 -6.244916e-05 -0.006890604 -0.0042366064 -0.0041934922 0.0065554157
-0.009940302 0.0025920435 -0.0055347835 -0.007746034 0.0037810507 -0.023982445 0.00066661224 0.014791746
0.0028577442 0.0016745947 -0.007652739 -0.008708199 0.0023774998 -0.016178709 -0.011301885 0.008362933
-0.007760609 -0.006011808 -0.0013245076 0.0050340747 -0.008975651 -0.0032017322 0.0014849144 -0.024192566
-0.0074081523 -0.00051012816 0.0059672813 0.009326608 -0.00041992715 -0.0072911223 -0.0023018725 0.01024602
0.0007201603 0.010496257 -0.0019346719 0.008823908 -0.011249014 -0.0049015204 0.0005371884 0.01195456
0.017310837 0.010399427 0.004863659 0.0041467343 0.0059746066 -0.00042655962 -0.0003698639 -0.006990617
0.0010511118 -0.0017724561 -0.0026385128 0.012135458 -0.016583933 -0.004896358 -0.0009357801 -0.0014704665
-0.020057654 -0.007996212 0.007925967 0.023373932 -0.011909043 -0.00250411 0.011658225 0.0033222944
-0.0028469185 0.03192579 0.013448116 -0.0004047243 0.00024642254 0.016941005 0.013468724 -0.011300441
0.0024054947 0.00668171 -0.0051929466 0.0019478557 -0.016102785 -0.0021204404 -0.006707337 -0.013208194
-0.01258647 -0.014116926 0.008119978 -0.0064080185 -0.009289396 0.017813789 -0.011399328 -0.016854472
0.008761244 0.014754419 0.01414573 -0.0005840324 -0.0074205683 -0.016324755 0.0056048855 -0.016982153
0.0046037976 0.005134971 0.00611089 -1.8159093e-05 0.0064891013 0.0036568423 0.0059923655 0.0084681725
-0.013653143 0.009348414 -0.007902362 0.013780471 -0.0066765063 -0.002088088 -0.004557585 0.02012936
-0.00037968144 0.008934177 -0.008850117 -0.017099768 -0.0071474654 -0.01397108 -0.008696357 -0.015586129
-0.010576361 -0.023189662 0.0023907786 -0.01607818 -0.01307695 0.004804327 -0.00551648 -0.008384136
-0.0031401815 0.013262434 0.004182289 -0.03015656 0.003073079 0.008985592 -0.0033111358 0.0103465635
-0.010127261 -0.009041915 0.0090005165 -0.0022480895 -0.0067536053 -0.015781233 0.009371957 -5.530737e-06
0.001831105 -0.017566644 -0.0014268402 -0.010907254 -0.011859687 -0.013351936 0.008413063 0.0012810734
0.0029102906 -0.026963374 -0.0059760995 0.0023267018 -0.02055576 -0.010418591 0.0049682627 0.019249441
-0.0077797133 0.0009912445 -0.013416871 -0.00094458484 -0.020178312 -0.006621671 -0.014954178 0.003364684
0.009428604 0.0032191444 0.0019567814 0.008931574 -0.012571308 -0.0010487867 0.0013103981 0.007965583

model.model.tcn.0.downsample.bias f4 [16]
00000000: da38 dcbc 6a60 a8bc f71e 9d3d 1df7 8a3d
00000010: c064 353d 695e 943d 976d 423d bffd d1bc
00000020: ae9c 953d de06 c83d 8ac4 9c3c e86d 38bc
00000030: 37e9 90bc d265 18bd e808 513b 4dd9 103d
-0.026882578 -0.020553786 0.07671922 0.06785414 0.044285536 0.0724457 0.047467794 -0.02563369
0.07305275 0.09766935 0.019136686 -0.011256672 -0.01768933 -0.03720648 0.0031896178 0.035363484

model.model.tcn.1.conv1.weight f4 [16, 16, 3]
00000000: 7725 e63a 0ba5 23bc eaae 593c f2c6 153c
00000010: cae1 93bc c7a4 823c fa06 01bd 9e3d 05bc
00000020: 525e 61bc e276 a23b ab45 4a3b 6726 543b
00000030: c72d 8cb9 2361 893b ff46 8b3b b415 3bbb
00000040: 017e eeba 956b 9cbc ae7a 6ebc f331 7f3c
00000050: 0fef fa3b 6116 0bbb 5f46 32bc 340f 95bc
00000060: a9f3 ad3a 2a67 5d3c 7ad0 50bc 45e4 e53c
00000070: d4d1 c53a d39e 8d3c b741 3d3c dc54 b13c
00000080: 7e52 2ebb 1365 9ebb eac9 68bc e5d9 ebbb
00000090: 572c e43b 28cd ef3b 3ba4 163c a810 20bc
000000a0: 4fec de3b 746c 46bc fed8 2ab9 c516 15ba
000000b0: ca3c 47ba 0062 913c 7ce8 efbb b1fb cebb
000000c0: 600b 0e3b 4a5f 8b3b d2aa 113a dcb5 b6bb
000000d0: 06d0 2a3c 23f0 143a ab86 c139 36f4 8bbc
000000e0: 1ad2 713b b3f0 ad3b eee1 893b 7c71 0a3c
000000f0: ea0f 57bc f7f7 583b 890f 0d3c 7027 9d3c
00000100: 263a fa3b 0db8 e13b 5be4 513c 9181 e5bb
00000110: 635c 49bb 12f1 c0bb a65d c03a 2d7b 77bc
00000120: 5150 51bc 2b04 393b 3ebf f43b 35fd 3b3b
00000130: c55e ad3b 9fee da3a 73b5 f23c 434e 443b
00000140: ac12 8ebc 7e64 0c3c fce9 0e3a d231 febb
00000150: 2e17 11bc 7e7c 353b d4f9 d4bb c153 23bb
00000160: e6ac 9c3b dcee 633b 3841 e13b 2894 843b
00000170: 094e 84bc 063b cc3b e6ea 9dba b99e e73b
00000180: cd28 9a3c b46c 313c 5f68 db3b e53d 1bbb
00000190: 3867 da3b 5c29 ffbb 6a11 a6bb 134b 9c3a
000001a0: 2ad5 fb3b cc9f 7e3a 875b 463c dd7f 80bc
000001b0: 42c5 80bc 686b 9ebb b78c bbba d7f0 55bb
000001c0: 92f5 80bc 48ab 6f3b 8d8a 0e3b 2506 b1bb
000001d0: a022 ea39 afed 28bc 505b 8abb a08f 3abc
000001e0: 6185 093c 67e7 663b 39a7 273b 0d7c a93b
000001f0: 14d1 1cbc e1ad 33bc a439 d63b 181a 2cbc
00000200: b284 993c a8ec 86bb 74ca 4cbc 3b3a 85bb
00000210: 1c7a 6e3a 9566 e6bb e128 943b 9cfc b53a
00000220: 9263 4a3c d2ec 7bbb 866f b23b 6f43 b5bc
00000230: e051 133c 710b f33b affb b83b 4d92 b53c
00000240: 7873 8e3b 4ae4 1abc 0f8a 4c3c 0a64 2c3b
00000250: bf12 90bc 4d77 25bb ee63 4f3c b29c 1cbc
00000260: e5f8 603b f8cb 903c 8bc0 7ebc 6ac2 af3a
00000270: 669c 9abb 1127 d93b b36e 863b 3ce2 c3bb
00000280: 37f4 cf3b 1583 c13b a327 a6ba 562f 76bc
00000290: 5018 da3b 946a 253b 20a1 84bc 2862 193c
000002a0: 7743 7f3c b3c7 05bd dac2 2e3c ad39 833b
000002b0: 15bd a5ba bb2a 67bc a513 ee3a 3a1e 8e3b
000002c0: 4e55 e63b 388d d1bb f613 b7ba cff3 8439
000002d0: 31c9 b8bb 76a9 53bb 404e 893c 1d3a f13b
000002e0: c51a 11bc bd1b ee3c 1828 8bbc 10c1 febb
000002f0: 77a2 c73a 9653 52ba 6875 1fbc e37b 073c
00000300: 867f f7bb 488b 12bc 6664 bdbb 2bd9 813a
00000310: e2ab 3fbb af24 91bc fca8 debb ba0c fb3b
00000320: f659 32bc 2964 e9bb 5d22 1fbb b399 d23b
00000330: 09ca 053b 19c3 143c a948 1f3b e3e9 17bb
00000340: e500 553a f39a 6a3b 09f0 0c3c 5e44 d5b9
00000350: c88a 6a3a 0ef5 94bb df92 16bb edde 38bc
00000360: f635 97b9 cec0 c3ba f01d 1a3c 6448 e8ba
00000370: 6de0 fe3b 0b76 62bc 0056 98b9 b313 a33b
00000380: ad59 90bb 4d17 55bc 28a7 ca3b 9347 0b3c
00000390: d571 af3b b25d e33b 7ac1 17bc b487 623b
000003a0: 17a7 673b 0064 853c 16e9 1cbc abc5 7d3a
000003b0: e8dd 573c 3825 0a3c 264e 1b3c 298b 403a
000003c0: 46b8 1cbc c1fc 49bc 51c1 733a 15a3 22bb
000003d0: 536d d0b9 4dbb 2f3c 46a5 ddbc dd55 2bba
000003e0: 49b2 463c bcb1 d9ba 8003 4b3b 3c7e 9f3a
000003f0: 88a3 993b ba7b 3abb 862f db3b bc0c dfbb
0.0017558773 -0.00998808 0.013286332 0.009141671 -0.018052 0.015947713 -0.031500794 -0.008132366
-0.013755398 0.0049580196 0.003086428 0.0032371522 -0.00026736988 0.004192488 0.0042504068 -0.0028546872
-0.0018195511 -0.019094268 -0.014555616 0.015575874 0.0076578925 -0.0021223056 -0.010881036 -0.018195726
0.0013271469 0.013513366 -0.012745017 0.028062949 0.0015092441 0.017287647 0.011551312 0.02164691
-0.0026599462 -0.0048338263 -0.014208296 -0.007197606 0.0069632935 0.0073181577 0.009194429 -0.009769596
0.0068030725 -0.012110818 -0.00016293299 -0.0005687292 -0.0007600306 0.017746925 -0.0073214155 -0.006316625
0.002167426 0.0042533027 0.0005556765 -0.0055758785 0.010425573 0.0005681535 0.00036912164 -0.017084222
0.0036898912 0.0053082346 0.004207841 0.008449908 -0.013126353 0.0033106783 0.008609661 0.019183844
0.0076363264 0.0068883956 0.012810792 -0.007003971 -0.0030725233 -0.005888113 0.0014676347 -0.015105051
-0.012775497 0.0028231244 0.007469087 0.0028684859 0.0052908384 0.0016703195 0.029627537 0.0029953874
-0.017342888 0.008568881 0.00054517365 -0.007757404 -0.008855624 0.0027692611 -0.0064995084 -0.0024921747
0.0047813533 0.0034779822 0.0068742298 0.004045982 -0.016150491 0.006232622 -0.0012048155 0.0070684818
0.018818283 0.0108291395 0.0066957916 -0.0023688015 0.0066651367 -0.007786913 -0.005067994 0.0011924229
0.0076853232 0.00097131426 0.012106783 -0.01568597 -0.01571906 -0.004834581 -0.0014308904 -0.0032644772
-0.015742097 0.0036570597 0.0021750063 -0.005402344 0.00044657756 -0.010310574 -0.004222311 -0.011386782
0.008393616 0.0035233141 0.002558185 0.0051722587 -0.0095713325 -0.010966749 0.006537633 -0.010504268
0.018740032 -0.004117567 -0.01249944 -0.0040657795 0.0009097175 -0.0070312717 0.0045214747 0.0013884488
0.012352841 -0.0038440716 0.0054454235 -0.022126881 0.0089916885 0.0074171354 0.0056452374 0.022164488
0.004347261 -0.009453842 0.012484088 0.0026304745 -0.017587064 -0.002524811 0.012658102 -0.009558843
0.003432804 0.017675385 -0.0155488355 0.001340938 -0.004718351 0.0066269715 0.004102552 -0.005977897
0.0063462513 0.005905519 -0.0012676608 -0.015025934 0.0066557303 0.0025240527 -0.016190112 0.009361781
0.01558005 -0.03266115 0.010666573 0.004004678 -0.0012644852 -0.014109309 0.0018163814 0.0043370994
0.007029212 -0.0063950084 -0.0013967741 0.00025358654 -0.0056392183 -0.0032297052 0.016760945 0.007361664
-0.00885648 0.029065961 -0.016986892 -0.0077744797 0.0015230913 -0.00080233195 -0.009732582 0.008269283
-0.007553044 -0.00894434 -0.0057797907 0.000990664 -0.0029246737 -0.017717687 -0.006795047 0.0076614292
-0.010885706 -0.0071225357 -0.0024281957 0.006427014 0.0020414612 0.009079718 0.0024304783 -0.0023180179
0.00081254385 0.0035797923 0.008602151 -0.00040677463 0.00089470716 -0.0045458144 -0.0022975726 -0.011283618
-0.00028841168 -0.001493478 0.009406552 -0.0017721769 0.0077782185 -0.013822089 -0.00029055774 0.0049767136
-0.0044052214 -0.013006044 0.0061844774 0.008500951 0.005354146 0.0069386596 -0.009262437 0.0034565749
0.0035347396 0.016283035 -0.009577056 0.0009680639 0.013175465 0.008431725 0.009479081 0.0007344955
-0.009565419 -0.012328328 0.0009298521 -0.0024816443 -0.00039754304 0.010725808 -0.027056348 -0.0006535927
0.012127467 -0.0016608755 0.0030977428 0.0012168358 0.004688684 -0.0028455094 0.006689015 -0.006806938

model.model.tcn.1.conv1.bias f4 [16]
00000000: bf4b e63d 6eea 30bd 2631 91bd 6020 8c3d
00000010: 420d a6bd 8e87 c83d f6a1 093e 7296 ec3b
00000020: c6fc 133c d581 0c3d bfe8 0fbe 471f 033e
00000030: bf59 c7bd 9ea8 b1bd f28e e63b e305 cebd
0.11244916 -0.04319232 -0.070894524 0.068421125 -0.081079975 0.0979148 0.1344069 0.007220083
0.009032434 0.034303505 -0.1405363 0.128049 -0.097339146 -0.08674739 0.0070360834 -0.100597166

model.model.tcn.1.bn1.weight f4 [16]
00000000: db3a 7e3f d821 7e3f ca24 7f3f ee11 813f
00000010: bdc3 803f cdb1 803f 8e97 803f 76b8 7e3f
00000020: 1dda 7e3f 992e 813f fc25 803f e85c 7f3f
00000030: 9b01 7d3f 070d 803f 7f1f 7e3f 3763 803f
0.99308556 0.9927039 0.9966551 1.0083597 1.0059735 1.005426 1.0046251 0.99500215
0.99551564 1.0092345 1.0011592 0.9975114 0.98830575 1.0003976 0.9926681 1.0030278

model.model.tcn.1.bn1.bias f4 [16]
00000000: 1a6e f83a 0568 813c 9e59 abba c35f a33b
00000010: 8beb 4d3c d708 023c 82f4 d83b e858 123c
00000020: b097 b7bb fb70 d53b 7e34 22ba fa2b 063c
00000030: 7c22 1bbb 122f 3d39 59dc a83c 2ad8 193c
0.0018953711 0.01579667 -0.0013072973 0.004985781 0.012568365 0.007936678 0.0066209445 0.00893233
-0.0056027994 0.0065137125 -0.00061876315 0.008189196 -0.0023671677 0.0001804198 0.020612882 0.009389916

model.model.tcn.1.bn1.running_mean f4 [16]
00000000: 5ac7 e93d 1239 bcbc 915c a6bd 62ed 813d
00000010: d4db acbd e080 0d3d aa05 fd3d da3b a4bc
00000020: 2eaa 42ba 1d82 d83c d872 84be aca2 fc3d
00000030: ca3f 1bbe 5494 cabd d1e7 423d 3e2d 07be
0.114149764 -0.022976432 -0.081231244 0.06344105 -0.084403664 0.034546733 0.12354596 -0.02004807
-0.00074258714 0.02642923 -0.2586887 0.12335715 -0.15161052 -0.098915726 0.04758436 -0.13200852

model.model.tcn.1.bn1.running_var f4 [16]
00000000: 14f0 293b 9620 493b 7521 1e3b 666d b93b
00000010: 298e d03a 5dc8 a03c abb6 af3b 8e94 0a3b
00000020: cddb 4a3b 5ee6 503b 941d 8d3c f4e7 183b
00000030: f6d7 af3b d94e b73b 5971 a93b f188 023c
0.0025930451 0.0030689589 0.0024128829 0.0056587933 0.0015911508 0.01962679 0.005362352 0.0021145674
0.0030953765 0.003187559 0.017226018 0.0023331614 0.0053663207 0.005594116 0.005170983 0.00796722
